TR_LSTM/_models/현대차(005380)_20250829.pt (torch, 626419 bytes, 16 tensors)

enc_p.lstm.weight_ih_l0 f4 [384, 6]
00000000: 3f6a b93d 5909 72bd 0c9b 663d 4902 20bd
00000010: 935f bf3d 4e3d 203d bf40 17bd 1b6b c6bb
00000020: b4e6 b8bd f51e 8cbd 8ef9 983d 1dae 66bd
00000030: 635e 003d 978a 633d 0feb 833d 0005 47bd
00000040: 174b c93d c423 02bd f05d b13d 7638 ad3d
00000050: e782 26bd 7922 ad3b 02b6 80bd 96ac abbc
00000060: a232 033a dfd8 8f3c 2dec 433d 8ede 253d
00000070: 7f9b 09bd 86bb 7dbd 2dad 663c 4ffe 8c3d
00000080: 873e 0abd 60fa 9cbd e9c2 0abd 3017 b93d
00000090: 91b7 a83d 3538 3f3d 2127 cdbb 798c 72bd
000000a0: 028b 99bd 6b6d c33d bd52 28bc e300 e13c
000000b0: c85c 9abd 52ae c03d 1834 c53d c1e8 a9bc
000000c0: 01d6 b43c c2dd 153d e677 9dbd 31d7 febc
000000d0: 753d c2bd f5a3 4d3d a824 bf3d 5ed9 8bbd
000000e0: 0f09 b9bc a46b 8dbd fea7 0bbd ed29 663b
000000f0: f5e5 30bd f2f3 ad3d 20d9 873d 6493 833d
00000100: a4a8 63bd 626d 23bd 9a8e d2bc 2ec9 45bd
00000110: f9f1 2c3b 9c25 8e3d 32b2 893d 2ba8 be3d
00000120: e487 453d 4460 96bd 98fb bf3d 6a60 7b3d
00000130: 64f4 ec3c 77af 533d 58be 54bd 06de ec3c
00000140: 4020 373d cabd 1f3d 38ed d93c 973a 23bd
00000150: 383b 17bc 7f6b 7cbc 6084 303d 6d35 403c
00000160: 37ee 19bd b51d bbbc 760b 213d 4db5 9fbd
00000170: 4aaf 77bd ff88 acbd f221 b13d 6845 ac3d
00000180: 5fcc cf3d dccd e0bb ae9e 1dbc 2418 c23d
00000190: ad8e 9f3c 661b e2bc 76a3 9b3d 8980 fb3c
000001a0: 9ab7 75bd 34a9 94bd 0dd6 333d 6808 aa3d
000001b0: 99d7 9a3c 6584 aabd 9439 08bc 2cf6 b33c
000001c0: cc34 9ebd f500 96bd ed7e 3cbd 1302 ccbd
000001d0: f5ac 163c 277f 573d 6c29 c03d 8957 c93d
000001e0: aa66 353d 9e8b 2d3d 0887 bbbd 5634 64bd
000001f0: 1ecc 423d a243 353d d74b 9a3c a9cd 30bc
00000200: 7a32 283d dc7d 973d f717 10bc ae94 9a3d
00000210: 7f0d d9b9 ad4a a2bd 0b63 2c3c b4c4 0b3a
00000220: fa5a cbbd 138f 6bbd e18b 99bb b22c 363d
00000230: ffcc 543d 832d bdbc 3b75 96bd 4a68 963d
00000240: 584d 2d3b d12d babd d20e 96bb ed07 c23c
00000250: 1368 093c da8b 6f3d cb14 bdbd 9930 273c
00000260: 3374 c3bc 43d2 8cbd ae66 b3bc 790a e23c
00000270: da9a 92bc d321 b63d 283e 53bd 02b7 68bd
00000280: d9fa ac3c e2d5 ae3d b331 a23d 0e8e 83bd
00000290: 1d19 babd 5c11 763d 0071 7ebd 1a8d 323d
000002a0: 520b 86bc 64d5 33bd 9b78 e9b9 7a2d 78bb
000002b0: e4c0 a33d f4d3 09bd e711 f03c 8980 c2bd
000002c0: edf8 4bbd 0adc b4bd 807a 11bd 6076 1e3d
000002d0: c8d9 64bd eb2a 033d e8fc 533d e241 2e3d
000002e0: 3967 abbd d13a 7bbd 5b8b d3bd 3157 b03d
000002f0: 60f0 06bd f078 d63c 2824 933d 4399 153c
00000300: 07b4 4d3d f979 a03d 75d4 283c b68f 97bd
00000310: 014a 683d 9497 b3bd 3929 d13d 5248 92bd
00000320: 052c e6bb 2a0e 89bd 7953 e93c 2e1d 61bd
00000330: 15bf b5bc 2337 9d3d 1b98 9dbd 9c05 673b
00000340: 2a35 a1bd 5091 a63d b56c 6a3d a196 3ebd
00000350: b52e f73c 1c74 b2bd a66f 9e3d bcde 41bd
00000360: 57fb 7cbd 75fd 693d a63d 603c d610 973d
00000370: edd9 ccbd 880d 58bd bc9b 1fbd 3ae7 0c3c
00000380: 7d7c 853d f7cb a7bd 6895 6fbd 1c18 773d
00000390: e8c7 32bd 9210 c73d 22e3 c0bd e901 cdbd
000003a0: 3e88 aebd 1b08 95bd 964a a0bc a63a 6c3d
000003b0: 3bc1 bbbd 09d7 a1bd d697 8c3d b1a2 f8bc
000003c0: 62e5 93bd e117 803b df16 6d3d 50e6 363c
000003d0: d7e5 94bc 49d1 9c3d 330a 103d 32a8 7e3d
000003e0: 67a2 2cbc 0980 50bd 74b1 8cbd b0c5 8e3d
000003f0: d350 4fbd a58a 6bbc eeda 8a3d 64ef 113d
0.09053468 -0.059090946 0.056300208 -0.03906468 0.09344401 0.039120965 -0.03692698 -0.0060552484
-0.09028378 -0.06841842 0.07469474 -0.05631839 0.031340014 0.05555209 0.06441318 -0.048588753
0.098287754 -0.03177239 0.08660495 0.08458035 -0.040652182 0.0052836505 -0.06284715 -0.020956319
0.00050047983 0.017559467 0.047832657 0.040495448 -0.03359556 -0.061946414 0.014079374 0.06884443
-0.033751037 -0.07664943 -0.033877287 0.09037626 0.082381375 0.046684463 -0.006260768 -0.059215996
-0.07497217 0.09542354 -0.010273633 0.027466243 -0.07537228 0.09408249 0.09629077 -0.020740869
0.022074701 0.036588438 -0.076888844 -0.03110847 -0.09484378 0.05020519 0.093331635 -0.06828569
-0.022587327 -0.069052964 -0.034095757 0.0035120205 -0.043188054 0.084937945 0.0663321 0.06424597
-0.05558075 -0.039899237 -0.025702763 -0.048287563 0.0026389344 0.06940767 0.06723441 0.09309419
0.0482253 -0.0734258 0.093741596 0.061371244 0.028925128 0.05168101 -0.05193934 0.028914463
0.04470849 0.038999356 0.026602373 -0.039850798 -0.009230427 -0.015406488 0.043094993 0.011731488
-0.037580695 -0.022841314 0.03931757 -0.07798252 -0.060469903 -0.084245674 0.08649053 0.08411676
0.101464026 -0.006860478 -0.009620352 0.09477261 0.019477213 -0.027600955 0.07599537 0.030700939
-0.05998955 -0.072588354 0.043905307 0.083023846 0.018901633 -0.083260335 -0.008314509 0.02196797
-0.07724914 -0.07324401 -0.046019483 -0.09961333 0.00919651 0.052611496 0.093829006 0.09831149
0.04428736 0.042369477 -0.091566145 -0.055713974 0.047557943 0.044253953 0.018834991 -0.010791221
0.041063763 0.07397053 -0.008794776 0.0754789 -0.0004139952 -0.079243995 0.010521661 0.000533174
-0.09929462 -0.057509493 -0.0046858643 0.04447622 0.051953312 -0.02309299 -0.07346579 0.0734411
0.0026443806 -0.0909077 -0.0045794034 0.02368542 0.00838663 0.058482982 -0.092324816 0.010204458
-0.023859119 -0.06876042 -0.021899547 0.027592884 -0.017896105 0.0889317 -0.05157295 -0.056815155
0.021115707 0.08536889 0.079196356 -0.06423579 -0.09086821 0.06007515 -0.062119484 0.043591596
-0.01636282 -0.043904677 -0.0004453108 -0.0037868903 0.07995775 -0.0336494 0.029305412 -0.094971724
-0.04979794 -0.088310316 -0.035517216 0.03868711 -0.055871755 0.03202335 0.051754862 0.0425433
-0.083692975 -0.06133539 -0.10329314 0.086103804 -0.032944083 0.026180714 0.07184631 0.009130779
0.050220516 0.078357644 0.01030456 -0.074004576 0.0567112 -0.087691456 0.10212941 -0.071427
-0.0070242905 -0.06692155 0.028482186 -0.05495947 -0.022185842 0.07676532 -0.076950274 0.0035251146
-0.07871468 0.08133185 0.057232577 -0.04653037 0.030173639 -0.08713552 0.07736139 -0.047331557
-0.061763134 0.05712648 0.013686573 0.07376258 -0.100025035 -0.05274728 -0.03896688 0.008600051
0.06517885 -0.081932 -0.058492094 0.060325727 -0.043647677 0.097199574 -0.09418322 -0.1001013
-0.0852208 -0.072769366 -0.019566815 0.05767312 -0.09167715 -0.07902343 0.06864898 -0.030351015
-0.07221486 0.0039090966 0.05788314 0.011163309 -0.018176002 0.076571055 0.035165977 0.062172122
-0.010536767 -0.050903354 -0.06869784 0.069713 -0.05061419 -0.014376317 0.06780039 0.03562869

enc_p.lstm.weight_hh_l0 f4 [384, 96]
00000000: 6938 76bd b459 c23c 7f83 e63c cf83 9bbc
00000010: 60e9 4abd d872 8dbd 13c5 75bd efa8 7cbd
00000020: 0904 1f3d 74e7 c53d 1f3e 9a3d 673d 803d
00000030: a036 99bd f69f b5bc d23a 7cbd 8e76 73bd
00000040: 0937 7ebd c924 9cbd 4bdb 5a3d 3839 fb3a
00000050: ad30 c53d 7c25 8c3c c928 b1bc 634a 9d3c
00000060: d10f a03d b285 843d 58d7 29bd bf31 9abd
00000070: 9bd6 c8bd 772b c63d 6b9f b43d f199 403d
00000080: bcc3 90bc 4813 9ebd 48ab 65bc beec 3abd
00000090: 4d1d 44bc 959f 9fbd 4b91 c4bb 5f75 9f3d
000000a0: 7e07 933d 0bd5 b7bd 4cd7 a63d 53c7 103d
000000b0: 2bca 76bd 1e35 23bc 552f 5fbd 680b cf3d
000000c0: 5252 393d a135 1b3d 5c54 24bc 63f9 babd
000000d0: 5632 bfbd ee41 ae3d d2c9 9dbd d5e3 5e3d
000000e0: 9d10 1cbd 4bb5 bc3d 68c8 93bd 85f7 c93d
000000f0: aafd d33d 3245 a8bc 90f5 bb3b f029 dabc
00000100: 02a8 213d 95a5 82bd 9486 a2bd 1e3c a53d
00000110: eb09 973d bd73 b6bb b98e 24bd 3d99 313c
00000120: 3811 6bbd c9f6 b7ba 01ee b53c 83d4 b9bd
00000130: 80a2 2cbd 7045 bdbd 7f82 873d da77 16ba
00000140: e175 843d 9dba afbd a92e 033c 9c4d 053d
00000150: 5bca 98bd b82e 073d 2ca6 7339 7021 83bd
00000160: be99 7d3c c65e 193d 4a62 bcbd f17c 963b
00000170: b7e7 29bd f739 87bc 1d6c 8a3d ec97 353d
00000180: 812c 133c 7bb3 47bd 718a c8bd 23e5 a93c
00000190: 666e 723d 14e9 bc3d d7f8 8b3b 5eab 8a3d
000001a0: f0a8 023c 59fb 883d 449d f0bc a7f9 963d
000001b0: a2e2 7a3d 8621 2abd b844 30bd 41e7 6e3d
000001c0: 93dd 983d 19b9 bcbd e1ce b9bd f3c4 9bbd
000001d0: 77cd b6bc bc44 3c3a 3798 17bd ae94 8a3d
000001e0: e0bb 083d 4da4 98bc dbeb bd3c 7e39 92bd
000001f0: 903e 9a3d 2b79 28bc 697a a73d f0d6 cebd
00000200: 721e a5bd f80f 7ebd 5209 92bd e347 c33c
00000210: 2e7d bc3d c310 1dbd 4885 09bd 5698 b3bd
00000220: 0ec9 66bd fa20 773d 693b 293c a4d6 593c
00000230: a2d3 ab3d dabb cb3c ec1b 68bc 62c4 63bd
00000240: b277 c03d 19de a73d e09b 0d3d 37f7 763d
00000250: cf47 84bd ae3e 693d 849a 243d 1f9f 603d
00000260: 90a8 83bd 9ed1 15bd bdf4 c0bd af57 21bc
00000270: 605e ac3d 1ee0 a23d 4071 97bc a01d 2b3d
00000280: a0e3 c8bd d09d 20bd 6886 b73d 2fd4 8fbd
00000290: c29c 9c3d c8dc 153d cd7a d53d 62ed bcbd
000002a0: a5b5 a3bd b904 cb3b b831 0b3c d450 8a3d
000002b0: 34bf 583d 03ab 8c3d 38b7 b73d 4c7c 16bc
000002c0: 0cfc 94bd cad3 ccbd 7321 bfbc 071b 03bd
000002d0: 017a 4dbd bec1 90bb 52e7 9abd c4ff 933d
000002e0: bf61 b13d 668c 6c3d d7f4 93bc 22ef 6dbd
000002f0: 33e1 c5bd 669f 56bd e9a1 91bd 0d55 c43d
00000300: a1cf 703c b2ae 35bd becc 253d 226e 74bb
00000310: 6bb3 d2bd 3b05 a7bc 68e7 a73d 2dcc 8fbc
00000320: 6770 043d 2f04 c1bd e0ec 843c 1d08 c63d
00000330: eafc 873d cd7e ac3b 8d22 e43b 5bbe b3bb
00000340: 3269 23bd 1ced ad3d 75d0 85bd f00f 9fbb
00000350: 92ba a0bd 0809 0b3d 8f6c 363d ac92 543d
00000360: 0023 04bd 4e8c 593d 1ad5 b23d 6622 babc
00000370: 2a55 88bd c766 b6bd b418 bebd d88f 03bd
00000380: 95c1 4e3d 3302 523c 1435 63bc d77e 7ebd
00000390: bca4 bcbd 61b0 37bc e328 91bd 0cab 073c
000003a0: 71d3 17bd c8be 633d d6d7 37bb 97e4 093d
000003b0: 6d06 5e3d 7f38 be3c 72e5 403d af46 55bd
000003c0: 2b62 9bbd e022 9bbd 2366 c3bd bc64 8ebd
000003d0: 9c6a e5bc bac3 80bc 53c8 d1bd b3e7 ba3c
000003e0: ee41 093d 9315 aebd 0f2a 903c aac8 88bd
000003f0: c13a 8ebd d368 a1ba e265 ae3d 2bdb 873d
-0.06011239 0.023724414 0.028138874 -0.01898375 -0.04953897 -0.0690667 -0.060002398 -0.061684545
0.038822208 0.09663287 0.0753138 0.062617116 -0.07481122 -0.022171002 -0.061579533 -0.059439234
-0.062064204 -0.07624204 0.05343179 0.0019166833 0.09628425 0.017107718 -0.021625893 0.01920051
0.07815517 0.06470813 -0.041465133 -0.075290196 -0.09806558 0.09676259 0.08819469 0.04702181
-0.017671458 -0.07718521 -0.014017887 -0.04563593 -0.0119698765 -0.0779411 -0.0059987656 0.07786059
0.071791634 -0.089761816 0.08146533 0.03534634 -0.060251396 -0.009961395 -0.0544885 0.101095974
0.045244522 0.03789294 -0.0100298785 -0.09129598 -0.09335773 0.08508669 -0.0770451 0.054416496
-0.03810178 0.092142664 -0.07215959 0.09861664 0.10351117 -0.020540807 0.0057360604 -0.026631325
0.039466865 -0.063792385 -0.07935825 0.08068107 0.073749386 -0.0055679963 -0.040175173 0.0108397575
-0.057389468 -0.001403534 0.022208216 -0.090737365 -0.04214716 -0.0924176 0.06616687 -0.0005739905
0.06467796 -0.085805155 0.00800673 0.032544717 -0.07460471 0.03300354 0.0002323619 -0.06402862
0.0154785495 0.0374439 -0.09198435 0.004592531 -0.041480746 -0.016507132 0.06758902 0.044334337
0.0089827785 -0.04875515 -0.097920306 0.020739144 0.059187315 0.092241436 0.0042716074 0.06770967
0.007974848 0.06688566 -0.029371865 0.07371836 0.06125129 -0.041535877 -0.043034285 0.05832601
0.07464137 -0.09214992 -0.09072662 -0.076059245 -0.02231477 0.0007181873 -0.037010398 0.0676664
0.033382297 -0.018633032 0.023183754 -0.07139872 0.07531464 -0.010282795 0.08177645 -0.1009959
-0.080624476 -0.062026948 -0.07130684 0.02383799 0.09203564 -0.038346063 -0.033574373 -0.0876929
-0.056344084 0.060334183 0.010329106 0.013295803 0.08389975 0.024869848 -0.014166813 -0.055607207
0.0939783 0.08196659 0.034572482 0.060294356 -0.06459009 0.05694454 0.04018642 0.05483925
-0.06428635 -0.03657686 -0.0942168 -0.009847566 0.08416438 0.07952903 -0.018486619 0.0417763
-0.09809041 -0.039213 0.08961183 -0.07022893 0.07647087 0.036587507 0.10423813 -0.09224965
-0.0799363 0.0061956313 0.008495741 0.06753698 0.05291672 0.068685554 0.08970493 -0.009184908
-0.072746366 -0.10001333 -0.02333138 -0.032008197 -0.05016518 -0.004417627 -0.07563652 0.07226518
0.08661222 0.057751082 -0.018061085 -0.058089383 -0.09662094 -0.052398108 -0.0711096 0.09586535
0.01469794 -0.044356056 0.04047846 -0.003729709 -0.102881275 -0.020388236 0.08198434 -0.017553413
0.032333758 -0.09424626 0.016226232 0.09669516 0.066400364 0.0052641393 0.0069621266 -0.0054853386
-0.039895244 0.08492491 -0.06533901 -0.004854195 -0.078480855 0.03394416 0.044537123 0.05189769
-0.03225994 0.05311232 0.08732052 -0.02272148 -0.06656869 -0.08906322 -0.092820555 -0.032119602
0.050477583 0.012817907 -0.013867635 -0.062132683 -0.09211108 -0.011211486 -0.07087877 0.008280527
-0.03706688 0.055601865 -0.0028052232 0.033665266 0.054205347 0.023220299 0.047093816 -0.052069362
-0.075870834 -0.07575011 -0.095409654 -0.06952807 -0.028004937 -0.01571833 -0.10243287 0.02281556
0.03351014 -0.08500209 0.01759818 -0.06678899 -0.069448 -0.0012314565 0.08515526 0.066336

enc_p.lstm.bias_ih_l0 f4 [384]
00000000: 8e52 b33d f73c 72bd 28ae 9cbd fa99 943d
00000010: 8044 c73d dace db3b 33ca c6bd 817f ef3c
00000020: e803 74bc 7efa a9bc 1174 5a3d 140b b43d
00000030: 4b5b 18bb d1c3 ab3d 8d47 413c bc6b bd3c
00000040: 39de b1bd c395 3cbd 0575 70bd f5f2 21bd
00000050: 102c 2fbd 7c68 cd3d f03f 123d e977 acbc
00000060: e102 77bd 990d bdbc c6ea acbd f3b0 bd3d
00000070: 2b46 babd b9ae d0bd b342 7638 2395 81bd
00000080: ad83 d9bb 3182 bebd 9303 043d 5edc 99bd
00000090: e43e 5abd 5269 373d edda c6bd c4af ac3d
000000a0: 01e5 54bd 8022 2abd 8fde bdbd 4d81 473d
000000b0: 704c 82bd 443f 40bd f248 52bc 6426 c6bd
000000c0: 8d3b 843d bd7e e33c a093 d93c 319d 653d
000000d0: daaa 6b3d 23a1 c6bd bc36 3dbb 0ee1 6c3d
000000e0: a022 8b3c 7476 5fbd c7c6 91bd c063 92bd
000000f0: 11c9 a8bd 7006 6a3d dc03 0a3d 7c83 c8bd
00000100: 6215 2bbd 0f2f 7f3c 944e f43c 8973 a0bc
00000110: 0150 d4bd c45a c8bd 6293 70bd 6c8f 993b
00000120: e685 b7bd 0355 d03d 1f7a ecbc 31aa cf3d
00000130: e511 b3bd 0656 b03d 2f15 51bc 6910 1fbb
00000140: 1648 bcbd 06c6 2e3d 862a eb3c 2017 9c3d
00000150: 550e 773c 0211 b0bd 423e 76bd 3345 f83b
00000160: 422b 82bc 465d a5bd fb46 6ebc 7ae0 16bd
00000170: f285 cb3c daa4 97bc 9ac5 a8bd 2323 be3d
00000180: ee14 b23d ba4f ab3d 1c6c a73d 5887 d1bc
00000190: 5235 a7bc baac 133b ae73 bcbd 1650 66bd
000001a0: e351 fc3c 5aed b53d 0998 cfbd d337 813d
000001b0: 4be0 febc af8f 8ebd ceb5 89bb cf50 173d
000001c0: 698f 253d 28c5 a8bd ffc5 a23d e161 12bd
000001d0: 7bbf 84bd 92c7 e83a c632 4a3c dbdf 19bd
000001e0: b62e 55bb 1dcb bb3d 62a1 71bd 83c1 ea3b
000001f0: b817 623c f808 bfbd ba89 333d 61c9 b53d
00000200: c2d1 873c 376e b5bc f748 bc3d 56f6 903d
00000210: fbdb ce3c f0b2 483d c6d6 b7bd 66ee 5cbc
00000220: 5bbb b9bd da08 5dbd b759 5c3d 4577 a1bc
00000230: 2112 1a3d 60da a5bd 1b75 ca3d c97e a63d
00000240: a3b7 143d 962b b7bd fc28 acbd ba0b 983d
00000250: 71c3 e33c 69e3 b43d 1159 f03b e25c c3bd
00000260: 36b4 943b bd55 7dbd da7f c5bd 165d 373c
00000270: fee2 85bd a683 3e3d ddeb faba dac1 c7bd
00000280: 7285 c33d a006 183d 723c 343c 0047 a03b
00000290: 952a 84bd a066 ca3c affb 423d bc6b 8ebc
000002a0: 6997 633d 8cd1 cb39 385d 4bbd a23a 84bd
000002b0: fe22 24bd 5e38 943c cddb dcbb f518 4ebd
000002c0: 55bd 9f3d 30be b2bd 7fc0 b03b eda8 c5bd
000002d0: 0fc7 bf3d e4d4 b3bc 9c8b 90bd ae2f 593c
000002e0: 117f dcbb c5be 85bd 16ce be3d 705b 5abd
000002f0: 332e b6bb 655b 8ebd 854b 88bd d92f a73b
00000300: b09b ad3d 922e c73b 5e12 ad3c c30a 7fbd
00000310: f197 b53d 7f75 3abc 4d86 ea3c 6323 e7bc
00000320: 97ca f2bc 1fba da3c 4c1a 583d 378b 963b
00000330: 6bc5 d03c 06f4 b5bc 1543 c03d 8364 d63d
00000340: 4ec6 28bd 3962 a43c 1615 5f3d aed2 1dbd
00000350: 4102 a9bc 67c3 a33d eaf4 82bd d8aa 83bd
00000360: 9c90 c6bd 4b9d b63d cc20 823d 5713 94bd
00000370: d638 abbd e5e4 b7bd 24a6 42bd e5d5 27bd
00000380: 5f1f fd3b 745b 353d d403 c7bd 75d1 4a3d
00000390: 3530 bc3d 2dc1 cfbd 8251 bdbc 3cb1 883d
000003a0: d79c 87bd 6019 7e3b ae6a c3bd 8253 883d
000003b0: c7df 74bd a216 04bc 019c 293d 33a1 753d
000003c0: 6f08 2cbd 74f4 82bc c743 b53b 115d bb3d
000003d0: e24f ab3c c3da b9bd 5363 41bd f0d0 96bc
000003e0: 91dd 5bbc 72a1 16bd b0ca 47bd 5aad b5bd
000003f0: f0ac 75bd 7cc8 b4bd b26c 98bd 5c79 11bd
0.087559804 -0.05914017 -0.07650405 0.07255931 0.09729862 0.0067080082 -0.09706535 0.029235603
-0.014893509 -0.020749327 0.053333346 0.087911755 -0.0023247774 0.083869584 0.011796844 0.02312266
-0.08684964 -0.04604126 -0.05870535 -0.039538343 -0.04276663 0.100296944 0.035705507 -0.021053271
-0.06030548 -0.023077773 -0.08443217 0.09262266 -0.09095415 -0.10189576 5.871309e-05 -0.06327274
-0.0066380114 -0.09302176 0.03222997 -0.07512735 -0.053282633 0.044778176 -0.097097255 0.08431962
-0.051976208 -0.041536808 -0.09270965 0.048707295 -0.063622355 -0.046935335 -0.012834774 -0.09675291
0.06456671 0.027770394 0.02655965 0.056058113 0.057535984 -0.09698703 -0.0028871736 0.057831816
0.016984284 -0.054556325 -0.07117992 -0.07147932 -0.082414754 0.057135046 0.033695087 -0.09790704
-0.04176844 0.0155751845 0.029822625 -0.019586341 -0.10366822 -0.09782937 -0.058734305 0.0046862867
-0.08961086 0.10172465 -0.028866826 0.10139883 -0.087436475 0.08610158 -0.012761398 -0.0024271256
-0.09193437 0.04266932 0.0287068 0.07621598 0.015079101 -0.08596994 -0.060117967 0.0075766086
-0.015889768 -0.08074431 -0.01454329 -0.03683517 0.024844144 -0.018511225 -0.082408145 0.092840455
0.08695398 0.08364816 0.08174917 -0.025577232 -0.020411167 0.0022533373 -0.09201752 -0.05622872
0.030800765 0.08883162 -0.1013642 0.06309476 -0.03111281 -0.06960999 -0.004202581 0.0369423
0.04041997 -0.082407296 0.07947921 -0.035737876 -0.064818345 0.0017759672 0.012341207 -0.037567
-0.0032529063 0.091696 -0.058991797 0.0071641817 0.0137996 -0.093278825 0.04383252 0.088763006
0.016579513 -0.022147281 0.091936044 0.07078235 0.02525138 0.048998773 -0.08976512 -0.013484573
-0.09068938 -0.05396352 0.053796496 -0.019710192 0.037614945 -0.08098292 0.09885617 0.08129651
0.036307942 -0.0894386 -0.08406255 0.07424112 0.027803155 0.088324375 0.0073348363 -0.095392
0.0045380844 -0.061849345 -0.096435264 0.011191627 -0.06537436 0.04651227 -0.0019143779 -0.09753771
0.09546937 0.037115693 0.011000739 0.0048912764 -0.064534344 0.024707139 0.047603305 -0.017385356
0.055564318 0.00038875302 -0.049649447 -0.06456496 -0.040072434 0.018093284 -0.0067400695 -0.05031677
0.07799784 -0.08727682 0.005394041 -0.09651361 0.09364139 -0.0219521 -0.070578784 0.013255997
-0.0067290147 -0.06530527 0.093166515 -0.053309858 -0.0055597066 -0.06951026 -0.06655029 0.0051021394
0.08476961 0.0060785497 0.021126922 -0.062266123 0.08866871 -0.011380552 0.028628493 -0.028215116
-0.029637618 0.026700078 0.052759454 0.0045942324 0.025484761 -0.022211086 0.09387795 0.1046839
-0.041204743 0.020066367 0.05446347 -0.038530998 -0.020630958 0.079962544 -0.0639437 -0.0642907
-0.09695551 0.0891672 0.06353912 -0.07230251 -0.0836045 -0.08979205 -0.047521725 -0.04097547
0.007724687 0.04427667 -0.09717527 0.04951616 0.09188882 -0.10144267 -0.023110155 0.0667443
-0.06621712 0.003877245 -0.09541832 0.06656553 -0.059783723 -0.008062037 0.041408543 0.059968185
-0.04200023 -0.015985705 0.0055317613 0.091486104 0.020912115 -0.090749286 -0.047213864 -0.018410176
-0.013419525 -0.03677506 -0.048777282 -0.08870955 -0.05997938 -0.08827302 -0.07442607 -0.035516128

enc_p.lstm.bias_hh_l0 f4 [384]
00000000: 66ba b03c bcd3 a8bd e3da d7bb 7ab0 a43d
00000010: b618 813d b377 92bd ca14 57bd ff26 a93d
00000020: 36d8 9bbd 68a3 a13d f78c c1bd 4655 bdbd
00000030: a169 3abd b8df 5f3d 09cf 903d 7135 70bd
00000040: 6d6c 7abd 2c9b b1bd 7e92 9a3d 57b4 abbd
00000050: 8dae 9d3d c190 c2bc 8a20 9cbd d424 7b3d
00000060: 5e86 88bd c2a8 4e3c 451c 00bd d1be ca3d
00000070: 6ba2 96bd 85d7 50bd 110b a53d 37e1 cbbd
00000080: 1d05 e4bb 6a88 0cbd f330 60bd 9dad 483d
00000090: b179 fd3c 0439 15bd bf7e 12bb 2f66 87bd
000000a0: 7ac6 5fbc 10d6 0b3b f8e1 16bd 6842 8d3d
000000b0: d94e 253d 0ef6 b33d 2935 96bd 58a1 0a3d
000000c0: 45bf 4e3d 1f99 4cbd 4d3c 4e3d f1d7 cb3d
000000d0: 5fea 53bd 52d3 2cbd a4d0 123b 5e48 23bd
000000e0: 7984 6fbd 455b 46bd 8815 30bd 1693 b33c
000000f0: cf1d f4bb cb9b 913d f5a6 1b3d 2613 503d
00000100: b0fe 5b3d 1c54 1d3d 2896 82bc ac12 4dbd
00000110: 6306 103a 5493 3b3d 962a c6bd c0ce 5dbd
00000120: 96eb dbbc 8999 7a3c c0a8 8dbd 29ce 8f3d
00000130: c135 af3d 63e6 4ebd 0dbf 493d ff3e 7b3d
00000140: e61d c1bc f791 c53c 9087 c5bb d88f 923b
00000150: f98b bf3d 6e4f 8d3d f1ad 23bd 8ebb bf3d
00000160: 2b8b d03c e07e 31bc 67ec 41bd cd5d 5eba
00000170: 7d77 b83d cfa1 16bc a2ae 9abd 3170 8a3d
00000180: 3ee9 49bd fe78 77bd 8ee3 abbd 3493 aebd
00000190: fa2e c73d 220b 13bd cb9a 383d a2d7 3abd
000001a0: eff6 6abd 54f1 a4bb a653 1dbc df64 aabd
000001b0: eecb eebc c17b 823d ae13 51bc 8f23 523d
000001c0: a9db b4bc 533e 863c f9ac c8bc 31fd 95bc
000001d0: af9a 00bd 3498 ddbc d902 c2bd f86e 643d
000001e0: 9cc3 c43d 9cda bcbd 7d3e d03c 70ea b7bd
000001f0: 573b 27bd f025 cebd d125 d13d c133 b73b
00000200: 648a 26bd a68f 8ebb 111e af3c b402 c93d
00000210: a1e3 06bd ee4f 87bd 54d7 5c3d 50f3 b3bd
00000220: e727 873d d042 abbd 85ad a5bd ff5f c3bd
00000230: 610b 923d aabf 963d 64b3 e7bc ca99 bbbc
00000240: 160c 5bbc 5c52 8abd 62c0 0a3d 6c23 87bd
00000250: ff8e bbbd 7f8b 8c3d 9142 003d 4a44 5e3c
00000260: f8f5 b7bd 2e77 843d 2058 763d e14c 91bd
00000270: 67ae 013d 1c6a 95bd 9bdb 12bd f97b 013d
00000280: 443d e1bc 6016 a2bd a2a1 a33c 372f 913d
00000290: ec99 8bbd 35ba c3bd b692 3ebd 09e1 3fbd
000002a0: 4f54 a7bc 5419 42bd d2b0 953d fcac 0b3d
000002b0: a2f3 9dba 39bb 49bd a7b3 cb3d 12a5 01bd
000002c0: 9552 f3bc a80f bdbd 68f1 bdbd 245d b23d
000002d0: e115 bf3d b0dc d3bc ba3b 0a3d 45aa 853d
000002e0: 56e3 bebc 9ed6 44bd 2a3b e3bc 9063 bf3c
000002f0: 2521 383d 17d5 703d 914e 4b39 1a74 973c
00000300: 434a 2ebd f469 9bbd 3b8f 31bd 63f9 ca3d
00000310: 118f 433d 61c9 223d 06e0 5f3d fe31 7a39
00000320: ddc4 b43d 5580 5bbd c079 8dbd fb12 79bc
00000330: 2f03 c1bd 8d1a 6fbd 3a5d aebd 56e6 b7bd
00000340: 1960 e5b8 1bc8 1dbd 1658 38bd f1ec c43d
00000350: 219a a43d 6b91 443d 8280 9dbd 1554 c5bd
00000360: 47d1 b33d 62cd 7b3d dcd8 c13d 16f1 49bd
00000370: 25cb 37bd 05d4 553d 0ede f03c ef48 833d
00000380: f8ae 633c d408 003d 8c2e bf3d ee70 aebd
00000390: e4e4 3b3d f360 14bd 0dbd c63d 36ad 19bc
000003a0: 9711 923d 3a27 1b3c 3c0e 8f3d e718 25b8
000003b0: 88e7 db3c d3f0 75bd 7dd5 6ebd 04e0 59bd
000003c0: 84b5 92bd 494e 77bd b2a1 82bc 32ab f8bc
000003d0: 5ebf b13d 8b6c 01bd 6209 a53d 1807 2b3d
000003e0: 3ca2 363d 4e8f 053d c8eb c03d 66af dabc
000003f0: 14de f9ba 2b69 d13c 0d9f 09bb 83b5 8b3c
0.021573257 -0.0824351 -0.0065873726 0.08041473 0.06303541 -0.07151737 -0.05251006 0.08259391
-0.07609598 0.078924954 -0.09450715 -0.0924478 -0.04551089 0.054656714 0.07070739 -0.058644716
-0.06113856 -0.08672175 0.075474724 -0.083840065 0.076993085 -0.023750665 -0.07623394 0.06131442
-0.066662535 0.012613477 -0.03127696 0.098996766 -0.073551975 -0.050986785 0.080587514 -0.09955066
-0.0069586174 -0.034309782 -0.05473418 0.048993696 0.030941816 -0.036431327 -0.0022353379 -0.06611287
-0.01365816 0.0021337308 -0.036836594 0.068974316 0.040358398 0.087871656 -0.07334358 0.033845276
0.050475378 -0.049950715 0.050350476 0.09953297 -0.051737186 -0.04219372 0.0022402192 -0.039863937
-0.058475945 -0.048426885 -0.042989284 0.021920722 -0.0074498425 0.07109793 0.03800102 0.05079951
0.053709686 0.03841029 -0.01594074 -0.050066635 0.0005494116 0.0457948 -0.096760914 -0.05415225
-0.026845735 0.015295395 -0.06916952 0.07021744 0.085551746 -0.050512683 0.049254466 0.061339375
-0.023573827 0.024117453 -0.006028123 0.004472714 0.093528695 0.06899916 -0.039960805 0.09361945
0.025456985 -0.010833472 -0.04734459 -0.00084826053 0.090071656 -0.009193852 -0.0755284 0.0675968
-0.049294703 -0.06041812 -0.08393012 -0.085241705 0.09725757 -0.03589929 0.045069497 -0.0456158
-0.0573644 -0.0050336514 -0.009602463 -0.08320021 -0.029149976 0.063712604 -0.01276104 0.051303443
-0.022077398 0.01638714 -0.024496542 -0.018309208 -0.031397518 -0.027050115 -0.094731994 0.05576989
0.09607622 -0.09221384 0.025420422 -0.08980262 -0.040828075 -0.1006583 0.10212291 0.0055908863
-0.040659323 -0.0043506203 0.021376641 0.09814969 -0.032931928 -0.06607042 0.05391629 -0.087866426
0.06599408 -0.08362353 -0.08089737 -0.09539794 0.071310766 0.07360776 -0.028283782 -0.02290048
-0.013369581 -0.0675399 0.033874877 -0.06598553 -0.09158134 0.06862544 0.031313483 0.013566086
-0.08982462 0.06468044 0.060142636 -0.070947416 0.031660464 -0.072956294 -0.035853963 0.03161237
-0.027495034 -0.07914424 0.019974533 0.07089084 -0.06816468 -0.095570005 -0.046526633 -0.04684547
-0.020425944 -0.047387436 0.073091164 0.034100518 -0.0012050758 -0.049250815 0.09946375 -0.031651564
-0.029702464 -0.09231502 -0.0927456 0.087091714 0.09330345 -0.025862068 0.033748366 0.06526617
-0.023301762 -0.048056237 -0.027738173 0.023362905 0.044953484 0.05879697 0.00019388857 0.018487979
-0.04255129 -0.07588568 -0.043349486 0.09910848 0.04774386 0.03974283 0.054657005 0.00023860481
0.08826611 -0.053589184 -0.069079876 -0.015202279 -0.09424435 -0.05837493 -0.08513875 -0.0897948
-0.000109374705 -0.038520914 -0.04500588 0.096155055 0.0803721 0.047990244 -0.076905265 -0.09635178
0.08780151 0.061475165 0.09465191 -0.049302183 -0.044871468 0.05220415 0.029402759 0.06410395
0.013896696 0.03125842 0.0933505 -0.085176334 0.045872584 -0.03622527 0.09704027 -0.009379676
0.07132261 0.009469802 0.06985137 -3.9362258e-05 0.026843801 -0.06004412 -0.058309067 -0.053192154
-0.071635276 -0.060377393 -0.015946243 -0.03035507 0.086790785 -0.031597655 0.0805843 0.041754812
0.044588313 0.03260737 0.09419972 -0.026694965 -0.0019063377 0.025562843 -0.0020999343 0.017054325

enc_f.lstm.weight_ih_l0 f4 [384, 4]
00000000: edf9 d1bd 8e07 353c a5c1 9abd 168f 6c3d
00000010: 21af 5bbd 437a 92bd 99a2 823d dd1e aebd
00000020: d728 cfbd 392b 273c 7b51 ce3b 47e6 803b
00000030: 6dfa 863d 7e38 8abd f398 a0bd bd86 9cbd
00000040: 9d6c 8a3d 3086 9b3d 6de2 623c 1fb4 e6bc
00000050: 4a0d 0dbd e167 bf3d a281 923d 7ca9 44bd
00000060: 77d2 b5bd 9724 d1bc b071 2f3d b303 343d
00000070: e500 b03c afdd 75bd 7989 bdbd 82be b4bc
00000080: 6270 9e3d 2142 433d 0acc af3d 6ea3 b1ba
00000090: ee1d a33d 1c72 cb3c c6f7 aa3d 938f 993d
000000a0: 2baf 9b3d 8bdb 803d 5579 b1bd 1870 553d
000000b0: 4fa6 3d3d 3cfc 00bc 43ee 4c3c 75e9 b83d
000000c0: 8f42 b9bd a634 8dbd e290 5ebb 77dc b53c
000000d0: e3a9 a93c ecaa d1bd 92b6 d2bd e54f f8bc
000000e0: 0f8f 72bd cf8f bbbd 5332 5dbd 031c 0fbc
000000f0: 9169 a4bd ec8e ae3b 4b83 89bd 51ce a739
00000100: fbf2 a53c 2786 af3d 84fb 8dbd ed83 933d
00000110: 0d5e c0bd 4844 53bd dfd5 83bc 86f6 da3c
00000120: 3f68 b43d 9630 d139 07ca 78bd 84cb bf3d
00000130: f954 96bc 5f9a b23d 18b2 c63d c52e 5fbd
00000140: 1484 2dbd 7b25 4b3d c67d 81bd 884f 9bbc
00000150: 8036 09bc 32ff 913d 682d f0bc 69d5 423d
00000160: d182 15bd fd73 943d dc1b 95bd 8bd7 61bd
00000170: e0ec 363d a146 7fbd 4305 e53b 8fda 4f3d
00000180: 02c1 f93c 8b9c 0b3d 3d3a 343c 39fe dabb
00000190: bed2 86bd 8718 38bc 25af c73d 50c9 2dbc
000001a0: 09aa 27bd 51a8 67bd 2d3b adbc 4349 233d
000001b0: 01bc 733d 68d0 52bb 0cc1 ccbd a33f 853c
000001c0: 8b94 5abd 68fa 7c3c 22e7 85bd 61b9 273b
000001d0: cb41 f53c d1f9 34bd 16aa 453c 9b77 c0bc
000001e0: 3ecb febc f30f 3a3d aed6 9f3c 79b4 00bc
000001f0: 60ea 3bbd 10d3 31bb 84ae 833c f14f 8cbd
00000200: 8b2e a03c f666 8cb8 7360 51bd 2771 1cb9
00000210: 1646 7b3d 8bf6 7c3d 2255 28bc af4f a8bb
00000220: 6cf6 e7bc d1f7 b7bd 44aa 8e3c 5ef8 0e3d
00000230: b8a6 bf3c 85e4 cfbb 0293 8b3d 2f74 2fbd
00000240: 8ecd 6a3d d519 983d 47be a7bd 491f babb
00000250: 8744 1d3d 44cd 133d a161 543d 1f2d 44bd
00000260: cfee 2fbd 72d0 9e3d 084f 2bbd 9398 4d3c
00000270: 7800 53bd 20f9 9fbd 513f 38bd f564 96bd
00000280: 2249 0d3b dc2e 363b fcb9 b0bc bfe3 71bc
00000290: 4c87 b5bc bba6 783d c56a 593d b952 1c3d
000002a0: 3cc0 cdbd 005e 48bd b091 c7bd cb33 b5bd
000002b0: aed2 cdbc 38e7 30ba e14e 6b3c 789e f43c
000002c0: 4f36 71bd c980 c7bb 40b1 b2bd 3080 febc
000002d0: ebd9 e43c 1190 f4bc 69d2 83bb 2467 a23d
000002e0: 6b01 c6bd 8947 19bd c746 36bc de70 03bd
000002f0: e4a0 2bbd 66d2 953d 4661 3bbd 41f4 aebd
00000300: a097 88bd 47a0 963d 1d13 bbbd 18cd 8dbd
00000310: b892 e53c d738 2bbc 666b c1bd 2925 b7bd
00000320: e984 b3bd 349f c83d e2d3 77bd 3773 4fbd
00000330: eb9a 1dbd 6838 473d 93cc 16bc 7ffd 3d3d
00000340: 5053 113c d22c 4e3d d117 993b 9879 77bc
00000350: 67e8 9f3d ab1b 373d 3a2a e83c f7a1 833d
00000360: 6c2f a9bd 1a39 b63c 81e5 c0bc 2ded b9bc
00000370: 8ef3 323d a229 b1bb c6ba 3ebd ee52 a1bd
00000380: 835c 27bc 2e3f 2ebd 930b 13bd 339f 903c
00000390: b79f 803d b508 92bc cf9b 82bc cb44 ef3b
000003a0: 579e b1bd 26df 123c f7ed 1abd 317e 8f3c
000003b0: f07c ab3d a6f5 a03b 1670 683c 15cd 57bc
000003c0: 22a3 5cbc 54d1 b93c 85ec 12bd c92a 61bd
000003d0: d0dd 89bd 6ecb 47bd a113 8b3d 9dea 18bc
000003e0: 3d21 47bc 4690 b3bd f072 823d 42a8 96bd
000003f0: 5e73 093c c475 85bd b70d 80bd 724e 43bd
-0.10252748 0.011049164 -0.07556466 0.057753645 -0.053633813 -0.07152226 0.06378669 -0.085019805
-0.101152115 0.010203176 0.0062963343 0.003933701 0.06590734 -0.06749056 -0.07841673 -0.07642887
0.067589976 0.075939536 0.013847929 -0.02816206 -0.0344365 0.09345985 0.07153632 -0.048013195
-0.088780336 -0.025530143 0.04283303 0.04394884 0.021484802 -0.060025867 -0.092547365 -0.022063497
0.07736279 0.047670487 0.08583839 -0.0013552734 0.07964693 0.024834685 0.0834804 0.07498088
0.0760177 0.062918745 -0.086657204 0.052108854 0.046301182 -0.007872637 0.012507978 0.090289034
-0.09045898 -0.068948075 -0.0033960869 0.022199852 0.020710891 -0.10237679 -0.10288729 -0.030311534
-0.059218463 -0.09158289 -0.05400307 -0.008734706 -0.08027948 0.005327096 -0.06714495 0.0003200644
0.020257464 0.085705094 -0.069327384 0.07202897 -0.09392939 -0.05157879 -0.016093193 0.02672888
0.08808946 0.00039899786 -0.060739543 0.093649894 -0.018351065 0.0872085 0.097019374 -0.054487962
-0.042362288 0.04959629 -0.063228175 -0.018958822 -0.00837481 0.07128753 -0.029318526 0.047566805
-0.03650171 0.072486855 -0.072807044 -0.0551372 0.044659495 -0.062323216 0.0069891526 0.050745543
0.030487541 0.034084838 0.011000213 -0.0066831377 -0.06583165 -0.0112363165 0.09750203 -0.010607079
-0.040933643 -0.056557003 -0.021146381 0.03986479 0.059505466 -0.0032167677 -0.09997758 0.016265696
-0.053364318 0.015440561 -0.06538226 0.0025592672 0.0299386 -0.044183556 0.012064477 -0.023494532
-0.031102773 0.045425367 0.019511547 -0.007855528 -0.045877814 -0.002713386 0.016074426 -0.06851185
0.019553443 -6.694898e-05 -0.05111737 -0.00014919472 0.061346136 0.06175856 -0.0102742035 -0.005136452
-0.028315745 -0.08982814 0.017415173 0.03490483 0.023394927 -0.0063443803 0.06815149 -0.04283541
0.05732494 0.07426802 -0.081905894 -0.005679999 0.03839543 0.03608443 0.05185092 -0.047894593
-0.042952355 0.077546015 -0.041823417 0.012548584 -0.05151412 -0.07811189 -0.04498226 -0.07343475
0.0021558483 0.0027798926 -0.02157306 -0.014763772 -0.022159241 0.06070588 0.05308034 0.038164828
-0.100464314 -0.04891777 -0.097445846 -0.08847769 -0.025124874 -0.00067483215 0.014362068 0.02986072
-0.058889683 -0.0060883504 -0.08725214 -0.031066984 0.027935943 -0.029853852 -0.0040228856 0.07929829
-0.09668239 -0.037421737 -0.011125273 -0.03209006 -0.041901484 0.07315521 -0.045747064 -0.085426815
-0.06669545 0.07354789 -0.09134505 -0.06923884 0.028024063 -0.010450563 -0.09444313 -0.089426346
-0.08765585 0.097959906 -0.0605048 -0.050646987 -0.03847782 0.048637778 -0.009204048 0.04638433
0.008869961 0.050335713 0.0046720286 -0.015104674 0.07807999 0.04470412 0.028340448 0.06427377
-0.08260998 0.022244025 -0.023546936 -0.022696102 0.043689303 -0.0054065743 -0.04656484 -0.07877146
-0.010214928 -0.04254072 -0.03589971 0.017654037 0.06280463 -0.017826417 -0.015943436 0.007301902
-0.08672779 0.008964336 -0.037824597 0.017516227 0.08373439 0.004912096 0.01418688 -0.013171454
-0.013466628 0.022682823 -0.035870094 -0.054972444 -0.067317605 -0.04877799 0.06790853 -0.00933328
-0.012153921 -0.08767752 0.06369579 -0.073563114 0.008389322 -0.06516603 -0.06252616 -0.047682233

enc_f.lstm.weight_hh_l0 f4 [384, 96]
00000000: 67b2 823d fc09 ccbd a60e c5bc 3d8d 183d
00000010: 380f 8fbd 462e 24bd a330 10bd 624a 62bd
00000020: 4f09 473d 31b4 83bd f233 d03d 47d2 ae3d
00000030: 56c4 ab3d c7d8 b43d 65e4 dabc 73e9 62bc
00000040: 72f7 a53d d47c 883d 7492 5dbd 7feb babd
00000050: c999 54bc d705 423d 5756 f13c c1ae 583c
00000060: 4454 d43c ffd5 c53c 0000 ae3c c361 b2bd
00000070: 499f b63d 7af6 f3bc fe74 5ebd d765 803d
00000080: fc05 9fbd 2174 e63c fbd9 afbb 1cfb 803d
00000090: 86f8 883d 0eea c13d 74fe ddbc 8385 5abd
000000a0: 7121 bc3c e228 4abc a375 b33d 71c8 4f3d
000000b0: 2aea b13d 024d babd fe8a c6bd 0986 733d
000000c0: 2e1e 55bd f8ac 1dbd 7221 c43c 4005 7ebd
000000d0: 6408 96bd ea8f a63d 539a c83d 8d30 2a3c
000000e0: c61a 81bd a1f3 a53d f593 ad3d 4394 a93d
000000f0: ef21 993d 7a01 cebd 650d a03d 34e7 05bd
00000100: 63b3 60bd fe4d 133d 0314 083d b167 51bd
00000110: e19c 8dbb 7fab abbd eb60 1f3d 0bfd 923c
00000120: 9977 83bd 128d 77bc 3389 f53c 6768 c1bd
00000130: 1a2a 223d 609d 953c 632d ab3d ad84 c1bc
00000140: c950 a7bd b702 89bd 6423 20bd 80ec d43c
00000150: f5d3 debc 8dd5 f9bc 01b7 9e3d 0409 f8bc
00000160: 2c51 eb3c 4579 853d 66fa a8bd d70d 9dbb
00000170: 5f67 9dbd e8a7 9bbc c144 40bd c968 4e3d
00000180: 78c5 cbbd 9e4a 913c 80fe cbbd 635d 1a3c
00000190: 5df0 5abb 9e78 69bd 51dc b1bd 3569 be3c
000001a0: 3815 cabc 9d15 bbbd ed89 5dbb 8213 a13d
000001b0: 6747 b7bd 7e37 cfbd e0a5 6a3c aea9 6cbd
000001c0: 1548 99bd cbd0 b9bb c002 183c de66 aebd
000001d0: 49b8 723d 2d10 5cbc 33d7 763d 7339 c3bd
000001e0: f7c5 a1bc 514c c93d 052c adbd b8f7 81bb
000001f0: 54ac 843c 03b9 c63a 6f83 02bd c502 6ebd
00000200: 8c25 95bd a26c c93b bd8b aa3d 75a1 a13d
00000210: 2ab8 88bd 3434 b23c 741f 8fbb 5e2c 013d
00000220: 9151 ec3c edec 903c 4b51 9e3c 2bb5 93bd
00000230: f6f4 25bc 249b 483d 7d10 a03d a6e2 31bd
00000240: 9548 a93d 96e0 973d 3f79 a0bc 019e 69bd
00000250: 8183 12bd fd65 963c 3195 32bd 6216 44bd
00000260: 8082 d3bc d95f 393c 0992 91bd f810 98bc
00000270: fc4a 0b3d 9979 a5bd e99e 2c3d 1c51 b6bd
00000280: c206 18bd e241 d33c 6eb0 af3d f467 2b3d
00000290: 0586 00bd e233 bf3d aa29 99bd a4e0 0fbd
000002a0: a77d 973d 52bd adbd 31aa b33c bb24 27bc
000002b0: 1332 d2bd a9f9 0a3d e92e 9fbd 846a 61bd
000002c0: 2e0e a1bc 9b0e 9c3d 8ccc 8c3c 5765 21bd
000002d0: fbfd 483d 2ced 3d3d f08a 1abd 29c4 80bb
000002e0: 78d5 973d 7701 56bd d9e4 423d 7ede a63d
000002f0: 460e 78bc df9b a63c 14b2 f63c e08d 3dba
00000300: 0612 7e3d a133 1a3d 571a 573d 31b5 adbd
00000310: b36c 95bd 2145 33bc 2443 b5bd a758 b0bd
00000320: e967 b63d 3b8a 833d fe66 2cbc 7578 49bb
00000330: b44f 9dbd 45bf cb3d 850f ba3d 2dbb 2cbd
00000340: 4489 c13d 58bc 0f3c f1db 0cbd e975 6ebc
00000350: c714 5e3c 58e9 af3d 6c6a 433a 0337 d8bc
00000360: 3a42 e63b 4f3d e73c 9e30 0fbd f0ad 2cbc
00000370: cb8a 31bd efef a93c 9adf 45bd e7e8 3cbc
00000380: 621b b5bb 496a 98bd 5060 5e3c d79a 4abd
00000390: e94f b23d f6e9 4b3d c69e 86bd 3945 d2bd
000003a0: 225b d13a 7b59 0e3b f6c4 1a3c b41b 42bd
000003b0: 69ad 8dbd 0ebd 963d d7f4 12bd a5ec 71bc
000003c0: 005d d53c 1ccf e6bc dd4c e33c 4840 1a3c
000003d0: 124a 8f3d e5cf 3c3d e807 c9bd ee4f 943d
000003e0: 2c9e c0bb cc89 603d 9747 733d 5e72 d1bd
000003f0: ba43 76bd 61ce 4e3d 16ff c43d dd1a cabd
0.06381684 -0.09962842 -0.024054836 0.03724407 -0.069853246 -0.040083192 -0.035202634 -0.05524672
0.04859286 -0.06430853 0.10166158 0.08536201 0.083870575 0.088304095 -0.026720235 -0.013849604
0.08103837 0.06664434 -0.054094747 -0.091269486 -0.012976118 0.04736885 0.029460115 0.013225258
0.025919087 0.024149893 0.021240234 -0.08710053 0.089171 -0.029780615 -0.05431079 0.062694244
-0.07764813 0.028131546 -0.0053665615 0.06297895 0.06688027 0.094684705 -0.027098872 -0.053349983
0.022965165 -0.012338849 0.08762672 0.050728265 0.086872414 -0.09096719 -0.096944794 0.059453998
-0.052030735 -0.038495034 0.02394173 -0.062016726 -0.07325819 0.08132918 0.0979506 0.010387552
-0.06303935 0.08103109 0.08475486 0.08280232 0.074771754 -0.100588754 0.07815055 -0.032691196
-0.054858577 0.03596305 0.03322221 -0.05112428 -0.00432168 -0.0838232 0.038910788 0.017942926
-0.06419296 -0.015109317 0.029972648 -0.09443741 0.039590932 0.018263519 0.08358266 -0.023622835
-0.081697054 -0.06689971 -0.03909625 0.025991678 -0.027200678 -0.030497337 0.07749749 -0.030277736
0.02872523 0.06517271 -0.08250885 -0.0047929096 -0.07685732 -0.019000962 -0.04694057 0.0503929
-0.099497736 0.017735776 -0.099606514 0.009421679 -0.0033407428 -0.056999795 -0.086846 0.023243526
-0.024668321 -0.09134982 -0.0033804134 0.07865049 -0.08949166 -0.10118006 0.014321774 -0.057779007
-0.07484452 -0.005670642 0.009277999 -0.08515714 0.05925778 -0.013431591 0.060263824 -0.09532442
-0.019747717 0.09829009 -0.08455662 -0.003966298 0.016195454 0.0015161339 -0.031863626 -0.05810811
-0.07282552 0.0061469832 0.08327434 0.078921236 -0.066757515 0.021753408 -0.004367763 0.031536452
0.028847488 0.0176911 0.019325873 -0.072122894 -0.010129204 0.04897608 0.07815645 -0.04342904
0.08265797 0.07415883 -0.019589065 -0.05703545 -0.035769943 0.018359179 -0.04359931 -0.04787291
-0.025819063 0.011314356 -0.07107932 -0.018562779 0.034007058 -0.080798335 0.042143736 -0.08902189
-0.03711582 0.025788251 0.08578573 0.041847184 -0.03137781 0.09336068 -0.0747865 -0.035126343
0.07397013 -0.084833756 0.02193174 -0.010201628 -0.10263457 0.0339295 -0.07772619 -0.05503322
-0.019660082 0.07619973 0.01718738 -0.039403286 0.04907034 0.046368763 -0.037730157 -0.003929634
0.07413763 -0.05224749 0.047581527 0.08147906 -0.015140122 0.020337997 0.030114211 -0.0007230919
0.062028907 0.037646893 0.052515354 -0.08481825 -0.07296123 -0.010941775 -0.08850697 -0.08610659
0.08906538 0.0642285 -0.010522602 -0.0030741964 -0.07681218 0.09948591 0.09084991 -0.042170692
0.094500095 0.008772932 -0.03438944 -0.014554479 0.013554758 0.08589429 0.0007454518 -0.02639342
0.007026938 0.028227476 -0.034958474 -0.010539517 -0.043345254 0.020744292 -0.048308946 -0.011530138
-0.005526946 -0.07442147 0.013572767 -0.049464073 0.08706648 0.04978367 -0.065732524 -0.102671094
0.0015972594 0.0021720815 0.009446373 -0.0473897 -0.06917841 0.07360278 -0.03587803 -0.014765893
0.026045322 -0.02817493 0.027746612 0.00941474 0.0699655 0.0460967 -0.09815961 0.07241808
-0.0058782306 0.054818913 0.059394445 -0.10226892 -0.060123183 0.050489787 0.09618966 -0.09868405

enc_f.lstm.bias_ih_l0 f4 [384]
00000000: c1a5 adbd a8b8 a6bc f7db b6bc 26fa a13d
00000010: b63b 59bd c605 a83d 9e11 c93d 1294 d93c
00000020: 8484 bfbd 9b69 63bd c1d3 fd3c 81bd 9f3d
00000030: a2a6 cb3c 6074 7a3d a9bf 8a3d 94f0 543d
00000040: 7b72 a33d 5a48 703d 154a 67bc 337f 66bd
00000050: 93d6 d5bc c5aa 72bd 0642 613c 87b2 003b
00000060: 7717 a4bd 2f47 923d c94e 123a a880 c33d
00000070: 7bef 973d 0468 9b3d 76c4 d1bd 85c7 933d
00000080: 435d 733d c356 a93c 2c73 6cbd 8a1c 93bd
00000090: 5b49 413d d4f2 f2bc 33ae e3bc 6338 953d
000000a0: dd9b c43d 29b8 b3bd 081d 4a3d 97c7 83bd
000000b0: e0d3 7ebc 1aa6 b4bd 6d66 ecbc a223 9c3c
000000c0: 1d71 0cbd df83 833d 116d a0bd 1b5a 9f3d
000000d0: 562b 8cbc 1d52 2cbd c873 94bd 79af b23d
000000e0: e5fa 6a3c 3789 8f3d ebec 803d 4d5f a0bd
000000f0: cd55 fcbb 8d5a c43d 840c a03d 3fc7 1cbd
00000100: 07f5 82bd 8f47 d43c 8876 c2bc f1c2 77bd
00000110: ffd0 b13d 00e8 bebc a933 de3c 813c 79bd
00000120: 98e3 c9bd c489 8bbd fe56 d6bb 42c7 b13d
00000130: c0c6 86bd 1e5f 503d a1dd b13d 3dad 013d
00000140: 7112 17bd 2ca7 013d b08b afbd 4302 9a3d
00000150: 20f1 84bd fdd6 923d 6c46 95bd 1e41 c6bd
00000160: 3559 86bd 3587 eaba b60b 43bb 3f91 8ebd
00000170: 8db0 a53d 423a 323d dbaf c83c 5af0 b4bd
00000180: 3672 8f3d c98a 1ebd cf69 c93d 381e c23d
00000190: 0c6b 493d f390 713d dd72 933c 64d2 7fbd
000001a0: 3f63 a63d 589e a03d 6a6f c83c 227f c6bd
000001b0: 126e 2f3d 274d a1bd e2c3 99bd 35c3 b3bc
000001c0: 8746 c3bc 1fea 853d 08a5 c7bd 9dde ac3c
000001d0: 4e13 27bc 5794 593d ffe2 3f3c 9e87 183d
000001e0: ac41 fabc ff43 36bd f46b 0abd b7a5 e63c
000001f0: 4fd2 86bd 3836 093d ec1a d9ba cddd a43d
00000200: cceb b43d f830 25bd 274c 94bc 4eba 543d
00000210: af49 a43d 9fc3 983d 9bc8 c7bd 66e8 d6bc
00000220: 02e3 5abd 9eb8 22bd f880 05bd a664 c43d
00000230: d407 b6bd efd1 a73d dd20 333c 9665 53bd
00000240: 42b8 bfbc 2b8d a1bd 41b8 a13d a297 27bd
00000250: 2792 273d f345 99bd 4f2e a5bd 291c 6bbd
00000260: 639f b2bd 784a 7bbd 3b27 9abd 5bdb c83d
00000270: da5e 9b3d 3b91 b6bd 7119 873d ef68 a1bc
00000280: cc13 f53b da1c bfbd 5a02 933c caf1 b7bc
00000290: cbd4 063d ada2 4bbc ae06 8d3d 1919 363c
000002a0: 44de 1abd 1843 ad3d 7650 15bc 7381 6c3d
000002b0: 66e0 b93d bfbf 823d 2c33 bc3c f73e 8abd
000002c0: af8d 90bc af4d 1fbd 0d08 d0bd d30b c23d
000002d0: 46e5 513d fba5 c33d 90a1 5e3d ca95 953d
000002e0: d5a1 983d 81d8 893d 8373 51bd 86a2 71bd
000002f0: b8ba 16bd 6f91 833a 57ae 39bc 7536 a33d
00000300: 6638 ab3c 5653 bfbc 8089 d73d 94c7 c1bd
00000310: 22b5 93bd 4b06 c13d b6ee c53b 7af6 34bd
00000320: 52f3 543d 2d44 02bd c5a7 6f3d 72cd b23d
00000330: eb8f 023d a0a6 c23d 651f b8ba 82c6 c8bd
00000340: 18b5 583c e55b c33c c0f7 cabc 4f61 91bd
00000350: fe57 9bbc 706e 25bd 4019 bdbd 6019 d7ba
00000360: a697 75bc 0104 8f3c 283e ec3c 1d2a 783d
00000370: aa31 bcbc 017c 7a3d 9498 523c 07ef 2dbd
00000380: 1e1b ac3d d284 42bd cb85 03bd e7cb 383d
00000390: 04f3 d6b9 b1a4 cd3b b694 873d fd3e 06bd
000003a0: 5bc3 463d 6ff4 9dbc a87c 96bd 9120 1bbd
000003b0: 0964 97bd 415c 283d 0076 ab3d ddba c7bd
000003c0: 2cd3 093d 7dd6 45bb bf46 ad3d f4fd 9f3d
000003d0: 605a 0fbd 879d 8d3c 9bfa a1bd 7f05 093d
000003e0: 5e20 a53d da37 edbc 7887 d23c b493 03bd
000003f0: 91e4 97bd 9f8c bdbd e9bb 433c 4e88 d43c
-0.08478881 -0.020351723 -0.022321684 0.0790904 -0.05303546 0.08204226 0.09817813 0.026559863
-0.09351447 -0.055520635 0.030984761 0.07799817 0.02485973 0.06114614 0.067748375 0.051987246
0.0798082 0.05866275 -0.014116784 -0.05627365 -0.026103294 -0.05924489 0.013748651 0.001963766
-0.08012288 0.071424834 0.0005581198 0.095460236 0.07418724 0.07588199 -0.1024255 0.0721579
0.059415113 0.020671254 -0.057727024 -0.07183178 0.047189098 -0.029656805 -0.027793026 0.072861455
0.09600041 -0.0877536 0.049344093 -0.06434553 -0.015553445 -0.08820744 -0.028857434 0.01905996
-0.03428756 0.06421637 -0.07833303 0.07780858 -0.017110508 -0.042070497 -0.07248646 0.08724875
0.0143420445 0.070085935 0.062951885 -0.07830677 -0.007700658 0.09587584 0.07814887 -0.038275953
-0.063943915 0.025913028 -0.02373816 -0.060488645 0.08682441 -0.023303986 0.027124243 -0.060848717
-0.09857863 -0.06813386 -0.006541132 0.086805835 -0.06580877 0.05087196 0.086848505 0.031659354
-0.03688282 0.03165357 -0.08571565 0.07519963 -0.064913034 0.07169912 -0.072888225 -0.09680389
-0.06559984 -0.0017893078 -0.002976162 -0.06961297 0.08090315 0.04351259 0.024497917 -0.08834906
0.07004206 -0.038706575 0.098346345 0.0947842 0.049174353 0.058976125 0.017999107 -0.062456504
0.081243984 0.07842702 0.024467189 -0.096922174 0.04282958 -0.07876044 -0.07508065 -0.021943668
-0.023837341 0.06538796 -0.09748274 0.021102244 -0.010197474 0.053119984 0.011711835 0.03723871
-0.030548893 -0.04449844 -0.03379436 0.02815519 -0.06583082 0.033498973 -0.001656381 0.08050118
0.08834037 -0.040329903 -0.018102719 0.051935486 0.080218665 0.07459187 -0.09755059 -0.026233863
-0.053439148 -0.039726846 -0.032593697 0.0958951 -0.08888212 0.081943385 0.010933128 -0.05161055
-0.02340329 -0.07888254 0.07896472 -0.040916093 0.040910866 -0.07484045 -0.08065473 -0.057399902
-0.08721807 -0.061350316 -0.07527014 0.09807464 0.07586451 -0.08914419 0.065966494 -0.019703357
0.0074791666 -0.09331675 0.017945457 -0.022454161 0.03291778 -0.012428922 0.0688604 0.011114382
-0.037809625 0.08460063 -0.009113422 0.05774064 0.09076004 0.06384229 0.02297362 -0.06750291
-0.017645685 -0.038892444 -0.101577856 0.094749115 0.051244043 0.09553143 0.054353297 0.073039606
0.07452742 0.06730748 -0.05113555 -0.058992885 -0.036799163 0.001003785 -0.01133307 0.07969371
0.020900916 -0.023355167 0.10524273 -0.09461895 -0.07212283 0.094250284 0.0060404195 -0.04418037
0.05198986 -0.0318033 0.058509607 0.08730592 0.031875532 0.095044374 -0.0014047442 -0.09803487
0.01322677 0.02384753 -0.02477634 -0.07098638 -0.018962856 -0.040388525 -0.09233332 -0.001641076
-0.014989769 0.017457964 0.028838232 0.060587037 -0.0229729 0.061153416 0.01285376 -0.042464282
0.0840361 -0.04748995 -0.032110017 0.04511633 -0.00040998321 0.0062757363 0.06620161 -0.032774914
0.04852615 -0.019281594 -0.07347995 -0.037872855 -0.07392127 0.041103605 0.08372116 -0.09752438
0.033648655 -0.003018766 0.08460759 0.078121096 -0.034998298 0.017287029 -0.07909127 0.033452507
0.08062814 -0.028957296 0.025699362 -0.032123283 -0.074166425 -0.09255337 0.011946657 0.025943901
