TR_LSTM3/_train/_models/20250924/신세계(004170)_20250924.pt (torch, 831847 bytes, 20 tensors)

enc_p.lstm.weight_ih_l0 f4 [384, 6]
00000000: 96a1 f03c d465 c33d ac08 47bd 5d84 643d
00000010: 99c3 e2bc 26fe ba3c 24c8 353d affc babd
00000020: 86ce 2cbd cc07 13bd e4d0 cabc 5f2a a0bd
00000030: a00c 153c c01d 7bbd 96ee 7cbd cc1e 0f3c
00000040: 96a5 d2bc 11a5 cabd 3abd 42bd 5d80 32ba
00000050: bef4 3d3d eb14 aebd 709c 3e3d 8c07 f4bc
00000060: 812f 6f3d ed01 81bd a993 b4bb a31d 70bd
00000070: b40d 5c3c 8e8d c53c a9d4 71bd 3e36 23bd
00000080: 9b75 b9bd ca46 bbbd 3410 473c 4009 b0b8
00000090: bdeb a8bd 3a09 d43d c933 933b fefe 01bc
000000a0: b3f0 9abd a979 a63c e866 333d ad75 c83d
000000b0: bfbe 903d db48 ca3d 0afc 84bc bfc0 833d
000000c0: b3f3 25bd 2d0c 753d 4de3 333d 5f53 b43c
000000d0: b149 633d a68c d93c 0e8e c0bd 2543 69bd
000000e0: 2dc9 b43c 9de2 3ebd fd4f 923c 01a2 b53d
000000f0: d4b0 583d 769c 09bd d76f 3a3c 02b5 0f3d
00000100: 2452 11bc 7c21 c5bc ae42 b7bc bfba a63d
00000110: e5e0 813d 2b66 bbbd ce27 5dbd 87b9 143d
00000120: 406b c63d 4245 773b f313 b5bd 9a22 adbd
00000130: 7996 7f3d a3ce 813d c5b2 c33d e3c7 51bd
00000140: 7985 1cbd 5dc6 3c3d 8fd0 493d 743e 523a
00000150: 2e85 4dbc 3998 87bd 1df2 bd3d 2e27 3dbd
00000160: 2bf6 e43b 67d3 46bb 7234 773d 172d 2dbd
00000170: f1fb 133d 7177 ecbc 633c 853c c3d1 82bd
00000180: e46b 65bd a6cd 9ebc b0d6 153d 2590 e73b
00000190: a162 843b 5d81 0abd cd71 513b 4661 aa3c
000001a0: eec1 483d ad70 8abd 2a22 ccbd fa37 5b3d
000001b0: 1933 b83d 2f54 8d3d a823 cbbd 01df 223d
000001c0: 3d6a 92bd ea78 383d ae3e 98bd 5a12 c13d
000001d0: f8c6 b83d 0541 a53d c5bb 74bd 4711 88bc
000001e0: eef9 bcbd b1c2 c4bd 0a41 593d 46b2 a1bc
000001f0: ed99 493c a0f1 53bc 9b7a c43d b9a8 8cbd
00000200: fc69 a83d e3cb 573d d87e 533d aaf6 bbbd
00000210: e24b ff3a df21 76bd ee96 643b 48bf 4b3d
00000220: a1be 173c 5235 5abd b313 03bd 6eb2 db3b
00000230: ee22 7dbd 4d57 883d b4cd a93c 03bf 18bc
00000240: 17cd ecbc f40f 853c b671 49bd f108 393d
00000250: 8c81 54bd 0413 a83a 7c05 37bc 906d 2ebd
00000260: 2007 ba3d 3aff 7ebb 917a aa3c cbfb a2bd
00000270: 1eef 233d 6429 45bd b91a 19bd 1bd9 7d3d
00000280: 699e f33c 41ca 893d 7c1e 333d 7eba 053d
00000290: 950b 693c f801 a83d 104e b93d cdcd a33b
000002a0: 8b07 153d 636e 1d3d 142d fb3b a989 bbbc
000002b0: 933b 253d 9a89 9ebd 04ec 75bd 3b0c 36bd
000002c0: 7a5f 3bbd e8f7 c93c a419 a8bd 6385 cdbd
000002d0: 845c 923d 6121 0f3d 9df1 94bd 8220 babd
000002e0: a740 01ba 5ca8 4cbd de84 9cbd d4f4 b3bd
000002f0: 5ccf 4abd 6d85 6dbd 5f5b f9bc 8763 63bc
00000300: 6e4c d1bd a746 923c 820a b5bd 9316 763d
00000310: c957 643d 15d9 b13d b05b cc3d 0893 00bc
00000320: 5d16 0e3d 058e 8d3c 24ed 9cbc 4aab a7bb
00000330: e5e3 b03c 1710 05bd 58c1 dabc fa01 e03c
00000340: e640 1e3d 17ed 60bd 8b11 dabb 432b f2bc
00000350: 45bb 113d d97d b83d e230 d03c 5d4f 92bc
00000360: 2db6 65bc 89a5 8e3d 7a6c 5f3d 315a 76bd
00000370: a470 7fbc a903 51bd 5248 ce3d 54c0 4ebc
00000380: c641 0dbd e682 8f3c 6838 b5bd 0fd9 a6bd
00000390: 8b41 8ebd a0b8 d5bd cdaa 8ebd 924b 983d
000003a0: a442 40bd c566 6a3d 2139 ed3c a7dd 94bb
000003b0: d8d2 4e3d e0c7 c9bd c427 ac3d 4b15 833d
000003c0: e09c 36bd 1952 4a3d 5a07 853c bcc6 913d
000003d0: ab04 87bd be13 a6bd 20eb 10bc 8f6d 1fbc
000003e0: 11a4 65bd 85b5 93bc eb30 13bd 2cbd 9ebd
000003f0: b916 6a3d e197 e3bc 922c 363d a75e b4bd
0.029373925 0.095409065 -0.048592255 0.055790294 -0.027681159 0.022826266 0.044380322 -0.09130227
-0.042189144 -0.035896108 -0.02475781 -0.07820582 0.009097248 -0.06130767 -0.06175097 0.00873537
-0.025713723 -0.09894765 -0.04754374 -0.0006809289 0.046375982 -0.085000835 0.04653591 -0.029788755
0.058394913 -0.062991954 -0.0055107665 -0.058622014 0.013431001 0.02411535 -0.0590407 -0.03984665
-0.090556346 -0.09144361 0.012149859 -8.394057e-05 -0.082480885 0.10353322 0.0044922573 -0.00793433
-0.07565441 0.020321684 0.04379931 0.0978807 0.07067632 0.09877177 -0.016233463 0.06433248
-0.040515613 0.059826065 0.043917943 0.02201241 0.0554902 0.026556324 -0.09402095 -0.0569488
0.022068584 -0.046602834 0.017860407 0.088687904 0.05290301 -0.03359648 0.011379204 0.035084732
-0.0088696815 -0.024063818 -0.022370663 0.08141088 0.06341723 -0.09150346 -0.05399304 0.036309745
0.09688425 0.003773049 -0.08841696 -0.08453865 0.06239936 0.06338241 0.09555582 -0.051216017
-0.038213227 0.04608761 0.049271163 0.00080201705 -0.01254396 -0.06620831 0.09274695 -0.046179943
0.0069873533 -0.0030338408 0.06035275 -0.04227933 0.036128942 -0.028865548 0.016264146 -0.06387665
-0.056011096 -0.01938517 0.036581695 0.007066744 0.004040078 -0.033814777 0.00319587 0.020798337
0.04901307 -0.067597724 -0.09967454 0.05352018 0.08994121 0.06900822 -0.0991891 0.039763454
-0.071491696 0.045037188 -0.0743383 0.094273284 0.09022325 0.08069042 -0.059749383 -0.016609801
-0.09227358 -0.09607447 0.05304054 -0.019738328 0.012304765 -0.012936026 0.09593698 -0.06868119
0.0822334 0.052684676 0.05163464 -0.09177907 0.0019477571 -0.060090896 0.003488 0.049742967
0.009261758 -0.053273506 -0.03200121 0.00670462 -0.06180089 0.06657276 0.02072797 -0.0093228845
-0.028906388 0.016242959 -0.04918071 0.045174543 -0.051881358 0.001282305 -0.011170741 -0.042584956
0.0908339 -0.003890945 0.020810397 -0.07958182 0.04002296 -0.048135176 -0.037379 0.061974626
0.029738622 0.0672803 0.043730244 0.032648556 0.014223953 0.082035005 0.09048092 0.0049988986
0.036384147 0.03843535 0.007665286 -0.02289279 0.040340018 -0.07741089 -0.060039535 -0.044445258
-0.04574535 0.024654344 -0.082080156 -0.10035207 0.07146552 0.034943942 -0.072726466 -0.090882316
-0.00049305934 -0.049965248 -0.0764253 -0.08786932 -0.04951416 -0.057988573 -0.030439077 -0.01387871
-0.10219656 0.017855955 -0.08839895 0.060080122 0.05574778 0.08683983 0.099784255 -0.007847555
0.034689296 0.017279634 -0.019156046 -0.005116855 0.021593044 -0.032486048 -0.026703522 0.027344692
0.03863611 -0.054913606 -0.0066549233 -0.029561644 0.035578985 0.090083785 0.025413934 -0.017860109
-0.014020485 0.06965167 0.05454681 -0.060144607 -0.01559082 -0.05102888 0.10072388 -0.012619097
-0.034486555 0.017518472 -0.08848649 -0.081468694 -0.06946095 -0.10435605 -0.069661714 0.07436289
-0.046938553 0.057226915 0.028957905 -0.0045430246 0.050494045 -0.09852576 0.08406022 0.06400546
-0.0445832 0.0493947 0.016238857 0.07117984 -0.06592687 -0.08109234 -0.008845121 -0.009730711
-0.05606467 -0.018030891 -0.035935324 -0.077509254 0.057150576 -0.027782382 0.0444761 -0.08807116

enc_p.lstm.weight_hh_l0 f4 [384, 96]
00000000: 6f02 3f3d a0ff 86bd ba35 b6bc 3f1d a9bd
00000010: 3525 a9bd 9c95 56bd 750f b93d 7346 c43c
00000020: b103 73bc 2e50 393d 8d33 1b3b dea1 6ebd
00000030: 59a4 413c 4a6a 5fbd 077d 74bb 9f0b 2c3d
00000040: 618c 213d b5f5 473d a2bd babc 3375 24bd
00000050: b370 573c d6ed 7739 10cd 803d e90f 92bd
00000060: 9d6f 863d 58e9 62bc 6ae4 c9bd 3575 c83b
00000070: 87ee 973d 80d6 99bd 79e6 a73d a745 813d
00000080: fef6 c9bd 866a 9b3d f78c e83c bcbd 7ebc
00000090: 657f 15bd f612 8bbd bc29 b33d 05ed ac3d
000000a0: d47a af3d 632c 5c3d 8341 7bbc 4660 acbd
000000b0: 6b62 9b3d 1d35 88bd 98d3 3bbd 49f9 223d
000000c0: 9881 4f3d 8645 bf3d 4282 8c3d ba1d 693d
000000d0: 8951 81bc 1ed5 f53b 7514 a53c f88e fa3c
000000e0: ae3f 9cbd d1de c5bd 9ad5 c13d 5513 cebd
000000f0: acb8 923c 090f c83d 9846 663d dd97 8f3b
00000100: ad3c 243d 0e1a 88bc b227 c53d 0fae f33c
00000110: e858 bc3d 6404 a3bd a3b5 523d 8557 82bd
00000120: db41 41bd f058 c2bc 3636 b03c c00b 8cbd
00000130: 7e8a 133d 70ea fcbc 009a a83d 958e 403d
00000140: 93e8 f53c 5213 10bd 2106 cabc 19f6 ccbc
00000150: 8d69 9d3d 20b7 7f3d 2119 bcbd f5ad 13bd
00000160: 32b9 e03c bfef f43c edda 58bd 06a2 8e3d
00000170: ad27 a33c f2f5 59bd a551 cabd b9f5 853b
00000180: ca17 aa3d e905 cabd b544 843d c90c 3fbc
00000190: 2cee 153d d0fb dc3c dca7 a8bd 2efa b6b8
000001a0: 1355 e4bb faea b0bd 0265 afbd 95ea 813b
000001b0: 368e 6a3c d765 77bd 773a 0abd bc34 7dbd
000001c0: 7a08 bbbd 052e 993d a39b 69bd 2e72 733d
000001d0: a228 e63c 94f4 2c3d de09 b63d fda2 583d
000001e0: 16d9 88bc 0f85 9f3d 469f 703d c8e0 803d
000001f0: 37eb 903d 59e7 a7bd 6e36 0bbd 1c3d 873d
00000200: 2293 7c3c 49ae 673d 510a 47bd b6f0 ef3c
00000210: 23a8 9ebd 9d1f c2bd 20dd 913d 98b4 d13c
00000220: 2f31 a13d a485 2f3d 54f6 babd 02f2 083d
00000230: 966f 813b a1d2 29bc d3a4 b8bd 7b77 8b3c
00000240: 2b1c 103c 98c7 a53d 4af5 b4bd 2255 733c
00000250: 9b4e 2abd 712a 723c 2f98 5cbd a9d9 43bd
00000260: b057 9d3d ddde 8fbd 1718 2d3d 2be0 6ebd
00000270: d24a 46bd e031 8c3d 6d11 433c c893 20bc
00000280: 12cd 2bbc 8447 a8bd fe12 a1bd 137e a1bc
00000290: 91a3 b3bd 8a54 8dbd c773 87bd d862 9bbd
000002a0: f401 4cbd 3b9a 3b3d 2844 3bbd 6504 cabd
000002b0: b584 b4bd d555 65bd 6e0b 27bd be0d aebd
000002c0: 78dc 2f3d fc3f b9bd bfce b6bc 84eb a2bd
000002d0: 7a2b a0bd 5673 8b3b 3695 5bbd f90d cc3d
000002e0: d47d 883d 0aa7 90bc 29ef ae3d f87d 39bd
000002f0: e256 cf3d bb39 a93d 1b38 55bd 3693 3e3d
00000300: 6906 ac3d df7f cbbd 3768 eabc f533 7c3d
00000310: 1f8f 903d 712a a8bd 2076 5f3d 80e9 423d
00000320: e0c3 9b3c 8b18 9d3d 9e19 803d 04d9 673d
00000330: 3c1e c2bc e80d cd3d 93ea 3a3d 6974 793d
00000340: bdf0 7b3d ec86 87bd f3b8 aabb 4682 9e3d
00000350: e73f c83d f776 7cbd 98b8 93bd 7a88 093d
00000360: 8b50 17bd cb20 babc c5f8 d93b 3abc 6b3d
00000370: 8c9f d2bb fa19 43bd d41b b8bd 9469 973d
00000380: 87a8 b8bd 7168 43bd ad21 0dbd b787 ee3c
00000390: da48 a0bd a1e0 263c 4766 813d 0045 82bd
000003a0: c1d0 d83a d8e6 5ebc adad bbbd 3409 69bc
000003b0: aad6 88bd 014a 853d db99 77bd 91af 8cbc
000003c0: 806e 8e3d 4081 71bd eb88 c3bd ed1f d2bb
000003d0: 1d42 88bd d5d6 6c3d 09c9 bcbd e349 cb3d
000003e0: f787 cd3d 509f 853d 6af5 4a3d 89ab ac3c
000003f0: 5afd f83c 5f2a 58bd da18 8c3d 10ab 92bd
0.04663318 -0.06591725 -0.022242416 -0.082575314 -0.0825905 -0.052388772 0.09036151 0.023959374
-0.014832423 0.04524248 0.002368185 -0.058259837 0.011818969 -0.054544725 -0.0037305967 0.04200327
0.039440516 0.04881831 -0.022795502 -0.040150832 0.013149428 0.00023644356 0.062891126 -0.07131941
0.06564257 -0.013849579 -0.0985802 0.006117488 0.07418542 -0.07511616 0.08198256 0.06312113
-0.09861563 0.07588677 0.02838753 -0.015548166 -0.036498446 -0.06790726 0.087481946 0.084436454
0.085683495 0.053753268 -0.015335443 -0.084168 0.07587131 -0.066507556 -0.04585609 0.039788518
0.0506607 0.093394324 0.06860782 0.056913115 -0.01578595 0.007502212 0.020151356 0.030585751
-0.076293334 -0.096616395 0.094645694 -0.10062281 0.017910324 0.09768493 0.056219667 0.004382117
0.040096927 -0.016613986 0.09626712 0.029746084 0.09196645 -0.07959822 0.051442754 -0.06364349
-0.047181945 -0.02372405 0.021510225 -0.06838179 0.03602075 -0.030873507 0.08232498 0.047010977
0.030018127 -0.035174675 -0.024661126 -0.025019692 0.07686148 0.0624305 -0.091844805 -0.03605457
0.027432058 0.029899476 -0.05294316 0.06964497 0.01991638 -0.053213067 -0.09878854 0.0040881303
0.08305319 -0.098644085 0.06458417 -0.011660763 0.03660409 0.026975542 -0.08235142 -8.725036e-05
-0.0069681494 -0.08638568 -0.085641876 0.003964732 0.014316132 -0.060399856 -0.033747163 -0.06181787
-0.09132476 0.07479481 -0.057033192 0.059435062 0.028095547 0.042225435 0.08888601 0.052889813
-0.016705077 0.07789051 0.058745645 0.062928736 0.07076114 -0.08198423 -0.033987455 0.066034526
0.015415939 0.056562696 -0.048593823 0.029289585 -0.07746913 -0.09478686 0.07122254 0.02559881
0.07870709 0.04285206 -0.091290146 0.03343392 0.0039500697 -0.010365159 -0.09015813 0.017024746
0.008795778 0.0809471 -0.08835848 0.01485184 -0.04157887 0.014780627 -0.05385607 -0.047815
0.07682741 -0.0702493 0.042259302 -0.058319252 -0.048411198 0.068454504 0.01190601 -0.009800859
-0.010485904 -0.082167655 -0.078649506 -0.019713437 -0.08771432 -0.0690089 -0.0661388 -0.07587212
-0.04980655 0.045801383 -0.045719296 -0.098641194 -0.08814374 -0.05599006 -0.040782385 -0.08498715
0.042934865 -0.09045407 -0.022315381 -0.07955077 -0.078207925 0.0042556925 -0.053609096 0.099636026
0.06664625 -0.017657775 0.0854171 -0.04528615 0.101239935 0.08262964 -0.05205546 0.04652711
0.0839966 -0.09936499 -0.028614147 0.061572988 0.07058548 -0.0821122 0.054556012 0.047585964
0.019014299 0.07670697 0.06254886 0.056603447 -0.023696057 0.10012418 0.045633864 0.060902033
0.061508883 -0.06617531 -0.005210036 0.077396914 0.097778134 -0.06163689 -0.07212943 0.03357742
-0.036942046 -0.022720715 0.00665197 0.057552554 -0.006427711 -0.047632195 -0.08989683 0.07393184
-0.09016519 -0.047707025 -0.034455944 0.029117448 -0.07826395 0.010185392 0.06318336 -0.06360817
0.0016541706 -0.013604842 -0.091639854 -0.014223386 -0.06681569 0.06508256 -0.060449462 -0.01717356
0.0695467 -0.058961153 -0.095475994 -0.0064124973 -0.06653235 0.057822067 -0.09218032 0.09926202
0.10035699 0.06524527 0.04955045 0.021077888 0.030394245 -0.052774783 0.068406776 -0.07161534

enc_p.lstm.bias_ih_l0 f4 [384]
00000000: 21c5 dabc 93f9 20bd daf9 b2bc 44bd c33d
00000010: 0679 c23d a25f a6bc 7898 933d 655c 943c
00000020: f0ba 73bd 6b42 c8bd 20f1 9c3d dd44 243d
00000030: 148a 00bd 3f1b df3c b87a 9f3d 18db 51bd
00000040: 8d1b b9bd 79a3 243d 6486 a43b 55db 80bd
00000050: 860e 203d b3d9 a93d bc43 abbc 3867 b1bc
00000060: 7d7d 3ebd e2e3 4cbd 94e1 9fbd 6898 7dbc
00000070: 3179 023d 4aa5 c83d eb83 4fbd eab4 a4bc
00000080: 5f04 193c 4b00 bbbc 5cb8 98bd 298b 83bb
00000090: cbf7 c93d 80d2 9b3d c352 86bd 4b7e c5bd
000000a0: 0aa6 a7bc ae62 f83c fc1f 8b3d 418c 103b
000000b0: c885 e23c d957 b63d 782a 933d 602e b8bd
000000c0: 740a bebd 006e a1bd e152 90bd 984e df3b
000000d0: 77e9 cd3c 7940 d4bc 39ce 8a3d 8bdd 063d
000000e0: b2a8 55bd d229 193d f01a 0cbb 919d f33c
000000f0: 2159 9a3d 5c86 6a3d 5975 443d 2d27 ac3c
00000100: a6d2 cfbd 9a14 93bd 39a1 213d a51f 173d
00000110: c165 803d 3bc3 8f3d 0c1c 4fbd 0489 d73c
00000120: f583 cf3c 725f 3d3d 0a52 47bd 5b35 943b
00000130: 74a8 82bd 5f94 afbc 80f8 21bc 998d c0bc
00000140: e973 993d 53d0 c0bd 1c6c 25bd 8a36 953d
00000150: e21f afbd 9640 53bd d584 73bc 2a90 553d
00000160: 105d 02bd a3dc e53c 5af7 c4bd 5115 a13c
00000170: c4c1 45bc 6e82 2e3d 722f c63d 41dd a13d
00000180: edbc 1abd e829 873d d55e 3c3c 7ca3 43bd
00000190: f310 5d3d cb6d 86bd ee30 21bd 95d2 9d3d
000001a0: f1ee 96bc 10f5 9bbd cff9 413d 3d83 853d
000001b0: bc51 943d 7e9e 9f3d ea63 4f3d 9950 29bd
000001c0: f5e2 853d d072 323d 2843 5fbd ee98 bfbd
000001d0: 094d 99bb ee6f 05bd 5c28 cd3b fd19 0f3c
000001e0: 76dd 6fbd f088 cc3c 68d8 e239 dba4 973d
000001f0: e434 b43d 03c7 94bc 9ebc cbbd 5553 60bb
00000200: c0b6 893d 1cee ed3c 681b 8abd b6ef 483d
00000210: 5797 a53d 6712 9ebd b648 663d a494 17bd
00000220: a105 98bd 06e2 ba3c 9bd9 94bd d1d1 cd3d
00000230: 36c5 a7bc ca6a a0bd f8c1 753d c4ec bebd
00000240: 89db 3bbd ec50 82ba 64f6 873d 38e3 b2bd
00000250: 03e8 9c3c c82f a0bd 2830 1c3d 9271 e83c
00000260: 5caa 873d 6228 873d 7fd8 7f3c f891 91bd
00000270: 6111 30bd 431c 17bd 3b73 943d d4c3 c5bd
00000280: f392 a33d 0ba1 323d 9455 b3bc a5bf 863d
00000290: c691 cdbd f38b 183c 5302 4c3d 1292 74bd
000002a0: d4c3 c93d 988a 02bd c686 043c f430 4e3b
000002b0: 4f6a 31bd 1a53 19bd b874 5e3d d9fb 893c
000002c0: c3b9 0e3d d01e cebd aacd 483d 0f67 b73d
000002d0: 8a98 593d cd01 9fbd 385c 23bc 85bc d1bc
000002e0: ab97 a33d 6477 5c3b 5528 c53c cae4 adbd
000002f0: a49e 84bd 6efa 11bd f27c 6ebd 1880 ec3c
00000300: c64c 43bd 7102 873d f6a5 92bd 7d78 0ebd
00000310: eae2 ff3c 8ac3 833d 33b0 123d 6e57 96bd
00000320: 0f3a 9cbd 20ea 5abb 8094 44bd f365 0eb9
00000330: 99ae 56bc d096 68bc 854e 9c3d 939d aa3d
00000340: 7292 c23c cba1 cbbc 8dd4 bb3c 50af dfbc
00000350: c1da 86bd 430c 96bd e792 423d 5901 cbbd
00000360: 95c8 d1bc 3734 58bd 59d8 5b3d fb37 22bd
00000370: 44b9 6bbc 8176 6dbd 080f 2f3d 4543 04bd
00000380: 6f5a 85bd d456 00bd 8a38 f1bc 3a2f 7c3c
00000390: fd7b 71bd 6064 bbbc 8361 febc 5c5b dcbc
000003a0: e1b1 3cbd 9fa2 cebc c051 d23d 2339 bdbd
000003b0: 38ce 9fbd 4df6 ab3c d338 4bbd c9e5 3f3d
000003c0: c243 b2bd d0e5 07bc b5bb 07bd 7f39 ad3d
000003d0: 08d4 9d3d b5c4 45bd 3f57 bc3d ce1c 9b3d
000003e0: b83a 4a3d 560e d43d 399b 723c f211 5e3d
000003f0: df09 9e3d 452e 623d 4171 863d 7c1f 833d
-0.026705327 -0.039300513 -0.021847654 0.09557584 0.0949574 -0.020309273 0.072068155 0.018110463
-0.05950445 -0.09778293 0.076631784 0.040104736 -0.03138168 0.027234672 0.077870786 -0.051234335
-0.09038458 0.040194962 0.0050209034 -0.06291834 0.03907635 0.08293476 -0.020906322 -0.021655664
-0.046506394 -0.050022013 -0.078066975 -0.015478231 0.03185386 0.097971514 -0.050662916 -0.020105798
0.009339421 -0.022827288 -0.07457039 -0.004014392 0.09861716 0.07608509 -0.06558754 -0.09643229
-0.020464916 0.030320492 0.0679321 0.0022056254 0.027651682 0.08903474 0.07185835 -0.0899322
-0.092793375 -0.07882309 -0.07047058 0.006814789 0.025135739 -0.02590965 0.06777615 0.032926124
-0.052162834 0.0373934 -0.002137836 0.02973822 0.07536531 0.05725704 0.047963474 0.021014774
-0.101476 -0.07181664 0.039460395 0.036895413 0.06269408 0.07019659 -0.050563857 0.026310451
0.025331477 0.046233602 -0.048662223 0.004522962 -0.06379786 -0.021433054 -0.009885907 -0.023505019
0.07492811 -0.09414735 -0.040386304 0.07285793 -0.08551003 -0.051575266 -0.014863213 0.05213944
-0.031827033 0.02805931 -0.09617491 0.019663485 -0.012070123 0.042604856 0.09677018 0.07903529
-0.03777783 0.0659979 0.011497219 -0.047763333 0.053971242 -0.0656391 -0.039353304 0.07706181
-0.018424483 -0.07615101 0.047357377 0.06519172 0.07242152 0.07793902 0.050632395 -0.04133663
0.06537429 0.043566525 -0.054507405 -0.09355341 -0.0046783728 -0.032577448 0.0062609147 0.008734223
-0.05856081 0.02496764 0.00043267314 0.074044906 0.087991506 -0.018161302 -0.09948085 -0.0034229357
0.0672431 0.029044203 -0.067435086 0.04905673 0.080855064 -0.07718354 0.056221686 -0.03700699
-0.07422949 0.022812854 -0.072680674 0.10049785 -0.02047978 -0.078328684 0.059999436 -0.09322503
-0.045863662 -0.000994233 0.06638792 -0.08734745 0.0191536 -0.078216136 0.038131863 0.028374467
0.0662429 0.06599499 0.015615582 -0.071079195 -0.042985324 -0.036892187 0.07248541 -0.09656492
0.07987013 0.043610614 -0.021891393 0.06579522 -0.1003757 0.00931071 0.049806904 -0.059709616
0.098518044 -0.031870455 0.008088773 0.0031462284 -0.043314274 -0.037432767 0.05431053 0.016843723
0.034845125 -0.10064471 0.04902426 0.08955204 0.05312399 -0.07764015 -0.009970717 -0.025602588
0.07987913 0.0033640498 0.024067083 -0.08490904 -0.06475571 -0.03563922 -0.058224626 0.028869674
-0.04768064 0.065922625 -0.07160561 -0.034782875 0.03123613 0.064337805 0.035812568 -0.07340895
-0.07628261 -0.003340371 -0.047993183 -0.00013580154 -0.013103151 -0.014196113 0.07632164 0.08330836
0.023751471 -0.024857422 0.0229285 -0.027305275 -0.06584693 -0.073265575 0.04750338 -0.099123664
-0.02560834 -0.05278417 0.053673122 -0.03960417 -0.0143874325 -0.057974342 0.042738944 -0.032290716
-0.065113895 -0.031332806 -0.029445905 0.015392119 -0.058956135 -0.022875011 -0.031052357 -0.026899032
-0.046068076 -0.025224028 0.10269499 -0.092394136 -0.07803005 0.020991469 -0.04961474 0.04685
-0.0870433 -0.008294538 -0.033137996 0.08458232 0.077064574 -0.048283298 0.09196328 0.075738534
0.049372405 0.10354297 0.014807516 0.054216333 0.077167265 0.055219907 0.0656457 0.064024895

enc_p.lstm.bias_hh_l0 f4 [384]
00000000: 63c6 ca3c b30f 95bc e890 ca3d a4a7 c5bd
00000010: 1bbe 333c dd53 52bd 4e6a a6bd 6504 b83d
00000020: 0117 05bd 6494 b7bc 32a6 b33d 2703 08bd
00000030: c66d 843d dc40 833d bad3 383d 2490 24bd
00000040: 3232 09bd d155 9abd 4ade 2e3d b0e7 73bd
00000050: 96e2 dd3b 448b 583d 1542 813d 6532 5b3c
00000060: bec1 5d3d 1096 b43c c48e e03b 1a35 5e39
00000070: 0390 b13d a666 423b 1ab0 cabd 8bda a4bd
00000080: 5a49 823d 67f3 96bc 9905 4b3d 2d86 913d
00000090: 0b7e 67bd 4a91 98bd 206c cb3d 88ea ddbb
000000a0: 0ac7 b03c b6d5 793d cc27 0abc 7329 a8bd
000000b0: 7056 9b3c be1d 10bd 8710 a63c fd05 733d
000000c0: 6b3c 5e3d d286 083d 0417 253d 552a 1bbc
000000d0: 6097 473d 11ff 353c eace e3bc f64c 2a3d
000000e0: 7e99 9e3d b996 6e3c 7676 873c cb30 8abd
000000f0: 1dff ddbb 9a62 923d 990e a2bd 85c1 c8bd
00000100: ffc8 4cb9 de29 7bbd 8657 bebd dd5b 13bd
00000110: b65d 33bd 2fd3 943a fbbd c33d 9539 f13b
00000120: 459e 23bc f6f3 7fbd 968c 5abd b8bf 9f3d
00000130: 88dd f1bb d533 a53d 4608 793d f5f5 c73b
00000140: 8189 953d 903c 673d af20 9e3d 9c06 973c
00000150: 8016 9bbd 913e ec3c 54ec 583d 74a3 56bd
00000160: 1609 103d ed0b 573d 0c15 96bd 29fe fa3c
00000170: 5254 14bd e297 bebc 738f 183d dc35 6bbc
00000180: 2efd 84bc cebe 613d 11f2 b2bd 78f8 ca3c
00000190: f95f cfbd 7fa8 d3bc 6c16 31bd c676 3e3d
000001a0: 63d7 f43c cf12 84bd 8050 16bd fe48 b13d
000001b0: 3e0d bebb 19ed 423d ba30 6cbd 3704 82bb
000001c0: dd78 9dbd 99c2 823a 310f c2bd 364c a43d
000001d0: 6ff6 c0bd 026d 8abd 3fcb 9bbd 767e 8b3d
000001e0: 9c40 583d 2033 96bd 9de7 b83d aff1 c83d
000001f0: 66fb b03c 77cc 0cbd 9303 8c3c e246 99bc
00000200: 73b5 493d ac90 8fbd 4626 be3d aa03 bb3d
00000210: e80c 1c3d e9de 50bd 7a98 5c3c 7094 05bd
00000220: f971 5d3d ab7a adbd 21bd b2bd a25f d73c
00000230: 7aaf 053d 9781 743d a391 e6bb dc77 c23d
00000240: c932 983d dbb7 a3bd 5e68 a53d 39f6 dcbc
00000250: 2034 453d 57ed cf3d 1d6f bab9 be26 e1bc
00000260: 449b da3a d91c 8bbd 7c7f 833b e78a 99bc
00000270: 3993 acbd 073d 8dbd c5ad ac3d fe17 ef3c
00000280: 9cba 36bc c7c1 5ebc 77e9 3f3d 3945 c6bd
00000290: ccd2 5ebd 7d39 39bc a31d 9fbd 7a75 97bd
000002a0: d01a 903d ec25 b43d ba69 5b3c bcba 833b
000002b0: 663d 9dbd dc8b 31bd c591 363c 8d67 633d
000002c0: 5770 603d a3a8 9d3d a4d0 53bc 15b8 16bb
000002d0: 6e5c 313d 8fb3 2a3d 0df0 923d b9b3 acbc
000002e0: da79 893b 2392 f9b9 8ccb 2cbc d138 03bd
000002f0: 5da6 443c 6dc7 b0bd b524 84bd 42f6 783d
00000300: 0654 003d e26a 2e3d b427 53bd 3120 82bd
00000310: b37c b1bc 5469 bdbd b9c0 8fbd 0618 27bc
00000320: 7ef3 0c3d fbfc a0bd 8f31 88bd 44f6 a63d
00000330: 8b03 fa3c c843 43bd a132 04bd f03f fbbc
00000340: 003f b73d f4d0 b0bd 8b19 6ebd d156 a33d
00000350: 8260 2abd a56e d7bd ba63 9dbd 4961 043d
00000360: 29c9 3ebd ac95 8abd 5183 4fbd 67f0 37bd
00000370: 17be 8a3d 350c a93d 4556 843d fdec 313d
00000380: 5d1f d6bc 9471 843d 56f3 2cbd f40c 903c
00000390: d6ec 923d 07ea 71bd d594 3cbd 6e87 a1bd
000003a0: 6576 823d e95a c33d 3ade 453d 6642 753d
000003b0: d020 cd3c e684 09bd 073e 96bd 3057 fe3c
000003c0: 2c15 8b3d aa7a b03d 3106 fbbc 7491 3fbc
000003d0: 7c79 9cbd 3de9 a63d 22d4 cd3c c771 bebd
000003e0: b60b 063d 1cdd 0a3d aa8b 303b 4e58 4d3d
000003f0: ddab 383c 1c8e aabc b3d4 be3d 26e0 c2bd
0.024752801 -0.018195963 0.0989092 -0.096511155 0.010970618 -0.05134951 -0.08125745 0.08985213
-0.03249264 -0.022409625 0.087719336 -0.03320613 0.0646625 0.06408855 0.045123793 -0.040176526
-0.033495136 -0.075358994 0.04269246 -0.059547126 0.006771396 0.05286719 0.06311432 0.013378714
0.054139845 0.022044212 0.0068529565 0.00021191352 0.08670046 0.0029663234 -0.0989687 -0.08049496
0.06361647 -0.01842661 0.049565885 0.0710567 -0.05651669 -0.07449587 0.099327326 -0.006772343
0.021579284 0.060994826 -0.00843234 -0.08211031 0.018962115 -0.035184614 0.020271553 0.059331883
0.054256838 0.0333317 0.040305153 -0.009470542 0.048728347 0.011108176 -0.027808625 0.041577302
0.0774412 0.014562302 0.016535979 -0.06747588 -0.0067747966 0.07147713 -0.079129405 -0.09802536
-0.00019529833 -0.061319225 -0.092940375 -0.03597628 -0.04379054 0.0011354442 0.0955772 0.0073616006
-0.009986465 -0.06248852 -0.05335673 0.07800239 -0.007381145 0.08066527 0.060798906 0.0061023184
0.073016174 0.05645424 0.07721078 0.018435769 -0.07572651 0.028838428 0.052959755 -0.052401975
0.035164915 0.052501608 -0.07328233 0.030638771 -0.036213227 -0.023265783 0.03724618 -0.014356103
-0.016234007 0.055113606 -0.08737577 0.024776682 -0.10125727 -0.025837181 -0.043234274 0.04649999
0.02988786 -0.064489 -0.036697865 0.086565 -0.0057999184 0.047589395 -0.057663657 -0.0039677876
-0.076890685 0.0009976208 -0.09475554 0.080223486 -0.094220035 -0.06759073 -0.076071255 0.0681123
0.05279599 -0.0733397 0.09028552 0.098117225 0.021604251 -0.03437468 0.017091548 -0.018710557
0.04924531 -0.07010016 0.09284644 0.09131558 0.038098246 -0.050993834 0.013464088 -0.032612264
0.05406377 -0.08470663 -0.0872748 0.026290718 0.03263805 0.0596939 -0.007036404 0.094955176
0.074315615 -0.07994052 0.08076547 -0.026972877 0.048145413 0.10152691 -0.0003555947 -0.027484294
0.0016678353 -0.06792612 0.004013 -0.018742992 -0.08426518 -0.06896406 0.084315814 0.029186245
-0.01115289 -0.013596005 0.04685351 -0.09681172 -0.05440025 -0.01130521 -0.07769325 -0.07395454
0.07036364 0.087962955 0.013391906 0.004020063 -0.076777264 -0.04334627 0.011143153 0.055518676
0.054794636 0.076981805 -0.012928162 -0.0022997905 0.04330104 0.041675147 0.07174692 -0.021081792
0.004195434 -0.0004760186 -0.010546576 -0.032036606 0.012002555 -0.086317874 -0.06452314 0.060781725
0.03133013 0.0425824 -0.051551536 -0.06353796 -0.021665907 -0.09248605 -0.07019181 -0.010198599
0.0344119 -0.07860752 -0.066500776 0.0815244 0.030519268 -0.047672063 -0.032274846 -0.030670136
0.08947563 -0.08633605 -0.05812983 0.07975543 -0.041595943 -0.10519151 -0.07685037 0.03231934
-0.04657856 -0.06766829 -0.050662342 -0.044907 0.06774538 0.082542814 0.06461767 0.0434389
-0.026138002 0.06466976 -0.04222425 0.017584302 0.07174079 -0.059061076 -0.046040375 -0.07887159
0.06370238 0.09538824 0.048307635 0.059877776 0.02504006 -0.033574007 -0.073360495 0.031047434
0.067911476 0.08617146 -0.0306426 -0.011692394 -0.07640359 0.081499554 0.025125567 -0.09299045
0.032726012 0.033902273 0.0026938715 0.050133042 0.011271444 -0.020819716 0.09317913 -0.09515409

enc_f.lstm.weight_ih_l0 f4 [384, 4]
00000000: 04fa 87bd 1713 3fbb f0ea a83d f290 8bbd
00000010: 3301 83bc 6962 083d e855 c8bd 7d10 0c3d
00000020: 4cf3 d2bd b332 9ebc f1db 3abd 219b bbbd
00000030: b4c6 213d b02a 9ebd b31c e83c 3dda 26bd
00000040: 0141 023d dec7 c53c 48ce 3bbc 1d25 c43c
00000050: 9da2 7b3d 10c9 26bd 5f09 163c e9cd a5bd
00000060: 2220 2cbd 9a33 8cbb f326 a2bd 6bb6 323d
00000070: 0943 2bbd d967 4a3d d9fa a6bd e73e 95bd
00000080: 297f a3bd ea57 593d 6a84 b1bd d934 bc3d
00000090: 04e2 1e3d 9a21 9d3d e8b2 5cbc 1057 0f3d
000000a0: d70d 2c3c 98be 2c3d babb 99bd 0ed2 36bd
000000b0: 9a92 a43c ca80 9e3c e113 993c b001 c7bc
000000c0: 42a4 3abd 0623 c93d d530 c3bd 06e9 983d
000000d0: da52 81bd 48d7 71bd 9aeb 513d 2bf4 c73d
000000e0: 0403 adbd 3154 583c b45e 8bbc 2910 82bd
000000f0: 6e93 67bd b529 a0bd 1e31 5b3d f853 c33d
00000100: ae8f 38bc 42e4 4e3d fa73 8b3c 2e73 7dbd
00000110: 698b 643d a530 0b3d 0714 c6bb 13f1 9c3c
00000120: b2c4 a83d 14be 163d dbe7 e5bb 8025 13bc
00000130: a7ba 423d b03a af3d 2b15 bc3b ccf1 94bd
00000140: 3a9d e9bc f905 28bd 4b8f d2bd f55f bc3a
00000150: b127 2dbd 26e8 75bc 6c1d 6a3d 9cad 693d
00000160: a8fa 5ebd 0353 25bd 93f3 cabd 99ba bb3d
00000170: 871d c2bc f912 823d 4ee4 803d 390d 833d
00000180: 78ec 4bbd 9796 c83d 4bac c6bd 0d48 073d
00000190: fd07 5f3d 60ae b33d 0268 bf3c 189d 773d
000001a0: e83a bdbc 2fdf acbd 9ea5 993d b4b1 e53b
000001b0: 3910 c6bd caf7 bdbd 7590 3538 427f 983b
000001c0: 7881 a0bd 4dc3 acbc 10d9 1a3d e1ce 533d
000001d0: dfc6 b6bd 4b81 b13d 021e 6dbd 4223 0e3d
000001e0: ea99 c93d 7b5d 333d eb29 bebd 04f1 1b3d
000001f0: 1718 44bd ca2b e9ba a560 c83b 57f2 d43c
00000200: feb9 7d3b 034f b53c 9fbe 72ba 373c 8b3d
00000210: 4b7f be3d 6f11 88bd b706 823d c14e 543d
00000220: edc2 643d ea55 89bc 1813 4bbd 8b7f 523a
00000230: d646 88bd 5ae5 983c abc6 303d a18e 9e3c
00000240: e832 2bbd 0b01 6d3a abef 3abd 98c6 5a3c
00000250: cacf 933d e338 cabd 98d9 34bd 0123 933d
00000260: 9b68 2abc f9c4 b43c 1e9c d73b dbdf 88bb
00000270: b0a3 923d cc02 dbbc e129 51bd 7a26 e13c
00000280: 0ecc 2ebc 1b90 823c a2db b23d 57db 6e3c
00000290: 68f9 f8bc bf7c 26bd d20b 433d 9e91 c83b
000002a0: c8f0 083d 1333 96bd b34d 2cbd fc7e 4b3d
000002b0: 58c0 383d 8700 54bd 2cd4 ab3c 429c 883d
000002c0: 409c 23bd 180d 39bc 888d c43d 7fcf 833d
000002d0: 9b05 793d 0e43 51bd 4aae c53d e49b 643c
000002e0: bfda e8ba 8a62 523d 0649 a43d cacc 1c3d
000002f0: 5b5d 9ebd ccaa b3bd 2088 cf3d 4acc f6ba
00000300: 5479 c53d 158b f43b 335d b9bd 5208 b3bb
00000310: cba1 833d c790 c4bd 2b17 c73d b1cd ebbc
00000320: 6080 8fbd 3d2a 8bbc 01c8 733d 0727 983d
00000330: 7fdd 4a3c f8d5 82bd 75df 00bd c7ef 0d3d
00000340: 3c7b 373c 278f 963b ebf3 50bb 6f86 7e3d
00000350: bdec 7b3d b163 c8bd 687f 203d 5384 fa3b
00000360: cdec d23d f782 433d e76c 9fbd 7e56 ff3c
00000370: b1b5 c93d c6de 9cbd 6dfa 3e3d 7291 3f3d
00000380: b354 b6bd e2fc b13d 46ec 783c abc3 4ebd
00000390: dec4 d1bc d8b5 cb3c 71a0 5dbd a752 c7bd
000003a0: fadb 883c 1060 6d3c f4ef a4bd 90d0 f23c
000003b0: f222 8f3c afa8 9ebd 86ab 9e3d 1f8c 713b
000003c0: f160 40bd 6e7e 5e3c 2567 9e3d 2238 bdbc
000003d0: 2c6b 92bd cb58 21bc c93a ab3d effd cdbd
000003e0: 3285 28bc 9488 15bc 2544 bcbb 8c9d 43bd
000003f0: 5f69 7abd 7759 35bc 4a9a da3c e975 923d
-0.066394836 -0.0029155666 0.08247936 -0.068147555 -0.015991783 0.033296976 -0.0978201 0.034195412
-0.103003114 -0.019311285 -0.04561991 -0.09160448 0.03949614 -0.07722986 0.028333997 -0.040735472
0.031800274 0.024143156 -0.0114627555 0.023943478 0.061434377 -0.040719092 0.009157508 -0.08095915
-0.04202283 -0.0042786123 -0.07917585 0.043631 -0.041811977 0.049415443 -0.08153314 -0.07287388
-0.07983238 0.053062357 -0.08667834 0.091897674 0.038789764 0.076724246 -0.013470389 0.03499514
0.010501347 0.042173952 -0.07506509 -0.044633918 0.020089436 0.01934852 0.018686237 -0.024292797
-0.045566805 0.09821133 -0.09530798 0.07466321 -0.06314631 -0.0590432 0.051250078 0.09763368
-0.08447841 0.013203667 -0.017012931 -0.063507386 -0.056537084 -0.07820455 0.05351364 0.095375
-0.011264725 0.050510652 0.017023075 -0.061877422 0.055797014 0.033981938 -0.006044868 0.019157922
0.08240642 0.036802366 -0.0070161647 -0.008981109 0.047541287 0.085561156 0.005739828 -0.072726816
-0.028517354 -0.04102132 -0.10281237 0.0014371859 -0.04227418 -0.015008962 0.057156965 0.057050332
-0.054438263 -0.04036237 -0.09909739 0.0916645 -0.02369572 0.06351275 0.06293546 0.063990064
-0.04978606 0.09794348 -0.09700831 0.033027697 0.054450978 0.08773494 0.023365024 0.06045255
-0.023099378 -0.084410064 0.07502292 0.0070097093 -0.09671063 -0.09275778 4.32883e-05 0.004653842
-0.07837194 -0.02108922 0.037804663 0.051710967 -0.089246504 0.08667239 -0.057889946 0.034701593
0.0984381 0.04379032 -0.09285339 0.038071647 -0.047874536 -0.0017789539 0.0061150366 0.025994463
0.0038715596 0.022132402 -0.0009259972 0.067985944 0.09301623 -0.0664395 0.06348937 0.051832918
0.05584996 -0.0167646 -0.049578756 0.00080298696 -0.06654136 0.01866405 0.043158215 0.01935512
-0.041796595 0.0009040988 -0.04563872 0.0133530125 0.07217367 -0.098741315 -0.044152826 0.07184411
-0.010400916 0.02206658 0.00657989 -0.0041770763 0.07160127 -0.026734732 -0.05106533 0.027484167
-0.010668768 0.015937855 0.08733298 0.014578662 -0.030392364 -0.04064631 0.047618695 0.0061208745
0.033432752 -0.073339604 -0.042066287 0.04968165 0.04510531 -0.051758315 0.020975195 0.06670429
-0.039943933 -0.011294626 0.095973074 0.06436061 0.06079636 -0.05108934 0.096523836 0.013953183
-0.0017765387 0.051363505 0.080217406 0.03828124 -0.0773265 -0.08772811 0.10133386 -0.0018829193
0.09642282 0.007462869 -0.090509795 -0.0054636383 0.06427344 -0.095979266 0.09721216 -0.028784605
-0.070069075 -0.016987914 0.05951691 0.07429319 0.01238191 -0.063884676 -0.031463105 0.034652498
0.011198815 0.004594702 -0.0031883668 0.062139925 0.061505068 -0.097846396 0.039184004 0.007645169
0.102990724 0.04773232 -0.07784443 0.031169172 0.09849108 -0.07659678 0.046625543 0.046769567
-0.08902874 0.08690812 0.015193051 -0.050479572 -0.025606569 0.024866983 -0.054108087 -0.097325616
0.016706455 0.014488235 -0.0805358 0.029640466 0.017472718 -0.077470176 0.07747559 0.00368572
-0.04696745 0.013579948 0.07734517 -0.023098055 -0.07149348 -0.00984783 0.08360822 -0.100581996
-0.0102856625 -0.009126801 -0.005745428 -0.04775767 -0.061135646 -0.011068693 0.026684899 0.07151396

enc_f.lstm.weight_hh_l0 f4 [384, 96]
00000000: a163 c53c 2ca5 bc3d 2898 2abb 21ad 3dbd
00000010: e620 ba3d c3a4 fc3c 0b09 a93d c0f1 713d
00000020: be97 76bd e194 be3d acd4 b0bb cafb 38bd
00000030: 8e7e 50bd ca20 273d 44b3 753d bb71 593c
00000040: e514 a3bd 5a7c 8cbd 6a7f 39bd 09d5 cabc
00000050: d843 fc3c 8343 99bd c1a0 16bd 20cf 093d
00000060: 32da 073d 8018 c1bd e352 af3d 2848 d43d
00000070: f52e 983d 3cff 45bd 79fa c9bb ba8e c4bc
00000080: b0d9 9a3d 2299 103c 3c3a 363d b789 8abd
00000090: 0011 acbd e165 febc 2104 ad3d 787f b73c
000000a0: 73da 833d 7246 b43d f55e b03d 11ab 2cbd
000000b0: 2b67 16bd 0b1c 3a3d a250 5a3d ee1a 75bd
000000c0: 7bfe bb3d 862d c73d 284b 853c 9f52 223d
000000d0: b1f3 a0bc 32b3 7fbd 5b14 993d 6281 d8bc
000000e0: 11d8 8f3d 4bbd d4bd d1a3 c13a cfc8 163d
000000f0: 46cb 2bbd 1adb cdbd 3405 a3bd 0786 79ba
00000100: 4275 ae3d c706 783b 7538 d13c 6233 acbd
00000110: 9a7d 0d3d 2699 b4bd a77b adbc 47cf 6abd
00000120: 50fb 70bc c979 4b3d 8778 71bd 7f02 92bc
00000130: c641 763d 82d3 093d dac9 c73d 8cdf a1bd
00000140: aafd 5a3b f620 853d ef39 9cbb 470a fc3c
00000150: 7470 613a 5020 04bd cfed c23d ae89 6abd
00000160: 7e0a 4f3d 83d7 91bc 0bbf 5a3d dace 953d
00000170: 742e adbb de21 903c 9745 b83d 2e58 aa3d
00000180: c92e 3ebd 74c6 b93c dae1 b93d 2d01 70bd
00000190: ca00 b33c a0eb cd3d 0761 8fbb d293 78bd
000001a0: 30af f43a 7675 c33d 63b8 72bd ef57 753d
000001b0: da49 2d3b 4b29 52bd 8828 cbbd bdf0 9e3d
000001c0: 1b84 0a3d 35ae 4cbd 39f0 7fbb 6d60 d5bc
000001d0: b300 b63d a3d6 213d dd3c 80bd 2099 9a3d
000001e0: e936 04bc 5ae8 cdbd e617 5d3d 5289 5f3d
000001f0: a73c c3bd d62b 453c 1e03 debb 2469 91bd
00000200: 4eeb 07bd e8d7 863d 5735 a4bc 63b3 44bd
00000210: 13df a73d d1f8 42bb ee91 9e3d 7d0d d13c
00000220: 66f5 a03c c3eb f7bc b7a9 8ebd 19aa 80bd
00000230: 45a9 28bd 6786 aebd 2053 95bd c4df b3bd
00000240: 9d12 b7bc 4418 fd3c 9b53 bb3d 27e7 9fbd
00000250: f719 353d 57e0 5cbd 6878 afbd d175 ff3c
00000260: 2f61 5e3d 0448 4f3c 25d8 173b 6946 b5bd
00000270: fb59 933d 84e0 d3bc f6f6 8dba 9937 cb3c
00000280: 2168 e23b c0ea 4e3c cf30 0a3d 46d8 3f3d
00000290: 07b5 453d 650a cbbd 80ad 47bd e3f0 ae3c
000002a0: a189 0b3d ce16 fabc 07d4 a03d c502 c9bd
000002b0: 8abe 883d 5dee 89bd 1b6b 833d adb4 ce3d
000002c0: b0bd a8bd 79fa 29b9 9bf3 543c 3684 cebd
000002d0: d0be 1f3d dbd0 933c 134b bfbd 90cd b6bd
000002e0: 792c 03bd 78f3 3e3d c02a c33d 38ea bbbd
000002f0: 32a9 cdbd 7c6d e6bc 5888 903d cdf3 823d
00000300: 230b babd 1aa5 39bd 5d10 3abd 7782 a3bd
00000310: 8696 523c 20e8 c13d 1a2e 9abc 5c01 6cbd
00000320: cc2f af3c f0e4 4bbd 0a19 a9bd 5eaa 86bc
00000330: 8678 313d 9fee 993d 22c8 c0bc 5729 5a3d
00000340: 26f4 eabc 8c0f c93d 2426 a83d eee8 903c
00000350: 1ae8 b33d 316d 1f3c d8ea 7b3d 5e46 383d
00000360: bbcc a2bc 8e94 b53d eb4a 63bd 4d05 76bd
00000370: 6538 bfbc 378a dcbc 6dd4 d2bd ecfb bebc
00000380: 6bdd 073d aa4b 6abd 3708 62bd 4d73 4dbd
00000390: 0c17 bc3d 7bca 1a3c 1d03 c23b 739a cfbd
000003a0: 432d b23d deab a0bd 258e dfbc dc7d 563d
000003b0: 4573 bcbc 5709 a7bb c05e aabd 8d95 27bd
000003c0: 57cc a43c 9999 07bd 1ced 87bd 4d3d 89bd
000003d0: ca42 9fbc 0c9a 753d 9e60 42bd b020 ba3d
000003e0: 61ef 6ebc f2c0 603c dfdf d03d 331e 88bc
000003f0: 04dd 253c 3ac6 603d 42b0 ce3d 2d34 293d
0.024095358 0.092111915 -0.0026030634 -0.046307687 0.09088306 0.030840283 0.08253678 0.05906844
-0.060203306 0.0930574 -0.005396446 -0.045162 -0.050901942 0.040802754 0.059985414 0.013271744
-0.0796297 -0.06859656 -0.045287527 -0.024759786 0.03079407 -0.0748358 -0.0367744 0.033644795
0.03316707 -0.09428501 0.08560731 0.10365325 0.07430831 -0.048339114 -0.006163892 -0.023993839
0.07561052 0.008825572 0.04448913 -0.06764548 -0.0840168 -0.031054439 0.08448053 0.022399649
0.0643815 0.08802499 0.086118616 -0.04215533 -0.036719482 0.0454369 0.053299554 -0.059840135
0.09179398 0.0972548 0.016271189 0.039629575 -0.019647451 -0.062426753 0.074745856 -0.026428882
0.07023633 -0.10387667 0.0014773553 0.0368126 -0.041941904 -0.10051556 -0.07959977 -0.0009518568
0.08518459 0.0037845836 0.025539616 -0.08408238 0.03454361 -0.08818273 -0.021177126 -0.05732658
-0.014708355 0.04967669 -0.058952834 -0.017823456 0.06012132 0.033648975 0.09755297 -0.07903966
0.0033415356 0.065004274 -0.0047676484 0.03076662 0.00085998257 -0.032257378 0.09518015 -0.057260208
0.050547116 -0.01780296 0.05340485 0.073148444 -0.0052850787 0.017594274 0.08997648 0.083176
-0.046431337 0.022677638 0.09076281 -0.05859487 0.021850962 0.100547075 -0.00437558 -0.060687847
0.0018667933 0.09543888 -0.059257876 0.059898313 0.0026441724 -0.05130891 -0.0991984 0.07760761
0.03381739 -0.049970824 -0.0039053096 -0.026046956 0.08886852 0.039511334 -0.06261609 0.075487375
-0.008069732 -0.10054083 0.05397787 0.05457432 -0.09533053 0.012034377 -0.006775274 -0.07100132
-0.03318339 0.065841496 -0.020044966 -0.04802264 0.08196845 -0.0029750357 0.07742678 0.025519127
0.019648265 -0.030263787 -0.06965964 -0.062824436 -0.041177053 -0.08521729 -0.072912455 -0.08782914
-0.022347743 0.03089536 0.09146806 -0.07807761 0.044214215 -0.053924885 -0.085678875 0.031184109
0.0542919 0.012651447 0.0023169604 -0.0885132 0.07194897 -0.025863893 -0.0010831046 0.024806784
0.006909386 0.012629211 0.033737954 0.046837114 0.048268344 -0.09914092 -0.048749447 0.021355098
0.0340668 -0.030528452 0.07852941 -0.09814981 0.066769674 -0.06734917 0.06416913 0.10093055
-0.08239305 -0.00016210404 0.012997533 -0.10083811 0.039000332 0.018043926 -0.09340491 -0.08925927
-0.032024834 0.04661891 0.09529638 -0.09175533 -0.10042037 -0.028128378 0.070572555 0.063941576
-0.090841554 -0.04532347 -0.04542576 -0.079838686 0.01285327 0.094681025 -0.018820811 -0.057618484
0.021385096 -0.04977888 -0.08256729 -0.01643866 0.04332783 0.075162165 -0.02353293 0.05326208
-0.028680872 0.098174185 0.082104 0.017689195 0.08784504 0.009730623 0.06150326 0.044988982
-0.019873014 0.08866225 -0.05549137 -0.06006365 -0.02334232 -0.026921375 -0.10294423 -0.023313485
0.033170145 -0.057201065 -0.055183616 -0.050158788 0.09184083 0.009447689 0.0059207813 -0.10136881
0.08700039 -0.07845281 -0.02728946 0.052366123 -0.023004184 -0.005097549 -0.083188534 -0.040914107
0.020116968 -0.033105467 -0.06637022 -0.06701145 -0.019441027 0.059961364 -0.047455423 0.09088266
-0.01458344 0.013717877 0.1019895 -0.016615963 0.010123495 0.054876544 0.10092212 0.041309524

enc_f.lstm.bias_ih_l0 f4 [384]
00000000: 697d 69bc 934f 99bc 1818 bc3d a01a c6bb
00000010: d232 d83c 55bc 9c3d 7eb9 1cbd 8ef2 f9bc
00000020: d15f b5bc 2bed 8e3d 7789 523d 0d87 7e3d
00000030: b875 e2bc 7d1c 613d 9258 a33d 8f49 0ebd
00000040: eafa eb3c 93dd c33d 9d3b b5bc 9f80 6c3d
00000050: a6eb b83d 3c73 3a3c 51be 093d c46e 583b
00000060: cdf7 00bd c0f8 63bc df5f aa3d fffd bdbd
00000070: 16dd 363c b75e 57bd fa8c a73d fd5b ad3d
00000080: 6738 6d3d ab34 2d3d 3806 acbd 6590 463d
00000090: 3ff9 3cbd 90f0 50bd a955 df3c f884 82bd
000000a0: 5c78 a7bc 088a c8bb 1628 6f3d 1444 40bd
000000b0: 4cf9 bd3d 1c1a d43d e19c 1d3d 657c f03c
000000c0: cd1b 3dbd fc04 d73b 9337 573d bca8 003d
000000d0: b93b 7d3d 10f9 3bbc 3b1d 913d c6a6 6c3c
000000e0: 8a55 14bd 510f 473d a7d9 b9bd 9527 bc3c
000000f0: 9874 3fbd 435e 85bc 7346 c73d 63c8 88bb
00000100: 2ec2 24bd d36e 8a3d 8000 d3bc 4963 943c
00000110: 1ab8 ce3c d627 a2bc 7744 213d e6b0 9ebd
00000120: b0f0 abbd 4b78 b73d a85e db3c 258a 733b
00000130: 7389 d13d 4f29 0a3d 22a5 693c 1942 cabd
00000140: 0268 9bbd 3814 0e3d 4ef1 a93d 38b5 0a38
00000150: dc1a cabd 8e11 49bd bede db3c d9d2 d63d
00000160: ba23 0dbd f1cb 5c3d 1920 8e3c a75b 3cbc
00000170: c214 c2bd 95d6 4f3b 297b b6bd 77f9 b53d
00000180: e166 a33d 9e9e a9bc 8c3f b63d 3f43 243c
00000190: 443f 2c3b 1203 4dbd 8129 8bbd 001a 0e3d
000001a0: 6a2b d93b 1f91 6cbb 01bf adbd 7504 eebc
000001b0: e3f7 19bd 2d78 d2bd b21d a93d c7ee 62bd
000001c0: 1954 a4bd 0d0b 993d 1545 87bd b406 28bd
000001d0: f3d5 83bd 95c6 bdbd f7ad a7bd d6e5 313d
000001e0: 7a12 c8bc 058c adbc 6b5f 103b 9481 8fbc
000001f0: 2d69 aebd 4d04 c93d ef04 ffbb b1e3 a93c
00000200: 0d9c 1ebd a98a 673d a327 8dbc c63d b9bd
00000210: 2c25 67bd 1d7a 8fbd 1efd 93bc dd67 893c
00000220: e994 953d 20b6 8b3d 12b0 3d3c d1a9 c3bd
00000230: 3428 e53c 363b 253d a78e 8f3d cf48 c0bd
00000240: 5b54 3c3d f5f3 42bc b036 d93d e07c 15bd
00000250: 2ef5 b1bd d8d3 d5ba 6cf3 8ebb b368 423d
00000260: 3b64 a13d f88e 723d b729 a8bc 3a1e b8bd
00000270: 773b d83c 1b92 c4bc c196 c53d 4b26 5ebd
00000280: 4a13 3abd 2718 a13d 7bd7 5a3c 6016 403d
00000290: f437 d3bd 441e 843d c92d acbc 5253 03bd
000002a0: a814 b9bd 6591 b63d bed5 1839 4748 813b
000002b0: 9aba 983d ea05 6ebd ae38 35bd fa60 653d
000002c0: eaf3 3abc 477c 07bc 9e91 c9bb cd28 c6bc
000002d0: 0e25 84bc e3c6 783d 35e8 323d 23e3 acbd
000002e0: 2eb7 bbbc b02c 26bd 7f08 e83c ebd1 09bd
000002f0: 497a 0a3d 1d15 be3d c5b8 ccbd d7f9 9f3b
00000300: c87b 8abd a5c0 a7bd c446 de3c 28d8 993d
00000310: 45bf a53d 14cf 80bd 5c58 963d 4338 943d
00000320: f62e ce3d 54c7 373b 8426 833c e6f3 a03d
00000330: dcd6 003d 9f17 98bd 954c c6bc e70a b3bd
00000340: b1c3 cbbd f868 9cbd 9b2a 5e3d 0d7d 083d
00000350: 508a 7c3d 45ce f1bc 410e b8bc 0fe7 993d
00000360: 9baa d13d bd32 923d 7cf4 95bd 35c4 5eba
00000370: 5c08 313d fe9d 133c c168 a3bd 3086 8b3d
00000380: d89c b23d 59be b6bc e2d3 94bd c518 933d
00000390: 16fd 853d a525 913d dd0b bc3d ba13 dd3c
000003a0: 1358 80bc 9bac 5c3b 32b7 47bd fd0f c6bc
000003b0: f254 f03a 6925 43bd 7eca a2bd f067 bf3b
000003c0: bebc b53d b88e 5dbd 2cd6 a43d e275 1e3c
000003d0: fda5 b63d 2fa9 80bd 20b3 7b3d 73be 5c3d
000003e0: 17b0 c83d d1da 1c3d 1793 a63d 106a fd3c
000003f0: 7a77 6737 b2b8 82bd c739 5a3d ec46 d63d
-0.0142510915 -0.018714702 0.09184283 -0.0060456544 0.02639142 0.07653109 -0.038262837 -0.030511167
-0.022140415 0.0697883 0.051400628 0.062140513 -0.027644023 0.05495881 0.07975878 -0.03473812
0.028806169 0.09563746 -0.022123152 0.05773985 0.09029321 0.011380013 0.033628765 0.0033025006
-0.03148632 -0.013914287 0.08319067 -0.092769615 0.011161109 -0.05258056 0.08181186 0.08464811
0.057915118 0.042286556 -0.08399624 0.04847755 -0.046136137 -0.05101067 0.027262526 -0.06373018
-0.020443134 -0.00611997 0.05838784 -0.046939924 0.09276065 0.103565425 0.03847969 0.029356191
-0.04616909 0.0065618735 0.052543234 0.031410918 0.061824534 -0.011472955 0.070856534 0.014444059
-0.03621439 0.04859859 -0.09074717 0.022968093 -0.04674205 -0.016280299 0.09730234 -0.0041742786
-0.040224247 0.06759419 -0.025757074 0.01811375 0.02523427 -0.019794386 0.039371934 -0.077485844
-0.08395517 0.08958491 0.026778534 0.0037161198 0.102312945 0.0337308 0.014260562 -0.098758884
-0.07588197 0.03468725 0.08297978 3.3070537e-05 -0.09868404 -0.049089007 0.02683961 0.10489435
-0.0344579 0.05390543 0.01734929 -0.011496461 -0.094766155 0.0031713594 -0.0891021 0.08885472
0.07978607 -0.020705517 0.08898839 0.010025798 0.0026282826 -0.050051756 -0.067950256 0.034692764
0.00662749 -0.003609724 -0.08483697 -0.02905486 -0.03758992 -0.10276828 0.08257617 -0.055403497
-0.08023853 0.07472811 -0.06604973 -0.041022018 -0.06437292 -0.09266392 -0.08187478 0.04343208
-0.024422873 -0.02118493 0.002202953 -0.017517842 -0.085161544 0.098152734 -0.0077825706 0.020738455
-0.03872304 0.05652872 -0.017230814 -0.090449855 -0.056431934 -0.07005713 -0.018065032 0.016773159
0.07303793 0.06821847 0.011577623 -0.09553874 0.027973272 0.04033967 0.07009631 -0.09388887
0.045978885 -0.011898984 0.10606134 -0.036496043 -0.086893424 -0.0016313745 -0.0043625142 0.04746313
0.078804456 0.059218377 -0.020527704 -0.0899014 0.026395543 -0.02399545 0.09647895 -0.054235738
-0.04542855 0.07865935 0.013357039 0.04689634 -0.103134066 0.06451085 -0.021017926 -0.032061882
-0.09037143 0.089144506 0.00014575475 0.0039453837 0.074574664 -0.05811111 -0.044243507 0.056000687
-0.011410693 -0.008269376 -0.006151392 -0.024189377 -0.01613095 0.06073655 0.04367848 -0.084417604
-0.022914495 -0.04056996 0.028324364 -0.03364746 0.033808026 0.09281371 -0.099961795 0.004882078
-0.06761891 -0.08191041 0.027133353 0.07511932 0.080931224 -0.06289497 0.07341072 0.072372936
0.10067551 0.0028042393 0.016009577 0.0785902 0.031454906 -0.0742638 -0.024206439 -0.08742314
-0.099494345 -0.07637209 0.05423985 0.033322383 0.061655343 -0.029517302 -0.022467734 0.07514774
0.102376185 0.07138584 -0.07322022 -0.0008497865 0.043220863 0.009009836 -0.079789646 0.068127036
0.08721322 -0.022307562 -0.07266976 0.07182459 0.06542413 0.07087258 0.0918195 0.026986945
-0.015666997 0.0033672217 -0.048758693 -0.024177546 0.0018335863 -0.0476431 -0.079487786 0.0058412477
0.0887389 -0.054091185 0.080486625 0.00967166 0.089183785 -0.06282269 0.061450124 0.053892564
0.097992115 0.038294617 0.08133524 0.030934364 1.3796491e-05 -0.06382884 0.053277757 0.10462746
