TR_LSTM3/_train/_models/20250924/호텔신라(008770)_20250924.pt (torch, 831847 bytes, 20 tensors)

enc_p.lstm.weight_ih_l0 f4 [384, 6]
0	0xbdc11154	-0.09427133
1	0xbdc1d561	-0.09464527
2	0xbd233521	-0.03984559
3	0xbd82f718	-0.06394786
4	0xbca2f896	-0.019893926
5	0x3dc26d5c	0.09493515
6	0xbdd4f699	-0.10398597
7	0x3db2d8c0	0.08732748
8	0x3cafd2af	0.021462766
9	0x3d541546	0.0517781
10	0xbb83bd77	-0.0040203887
11	0xbc3ab4d6	-0.011395654
12	0xbd62b9e2	-0.055353053
13	0x3c06f924	0.008238111
14	0x3d4276ea	0.047476687
15	0xbcd61a3c	-0.026135556
16	0xbd8267ea	-0.06367476
17	0xbd8e9d06	-0.069635436
18	0xbdafde2c	-0.08587298
19	0x3d683693	0.05669267
20	0xbc5af857	-0.013364873
21	0xbd112676	-0.03543707
22	0x3d43018b	0.047608893
23	0xba74dd59	-0.00093408447
24	0xbd2568a0	-0.04038298
25	0xbdba3267	-0.09091645
26	0x3cb21b91	0.02174166
27	0x3d9b758d	0.075907804
28	0xbdc1fcdf	-0.094720595
29	0x3d5db1a7	0.0541245
30	0xbca430c0	-0.020042777
31	0xba98f3be	-0.001166932
32	0x3d9903dc	0.07471439
33	0xbc4a3910	-0.012342706
34	0xbdb235d2	-0.08701672
35	0xbda9201b	-0.08258077
36	0xbd250dda	-0.040296413
37	0xbdca28b1	-0.098710425
38	0x3dce753e	0.10080956
39	0x3daa58c4	0.08317712
40	0x3d2989e5	0.041391272
41	0x3d33ad32	0.043866344
42	0x3d1000d4	0.03515704
43	0x3d0ce0b2	0.034393974
44	0xbcd62963	-0.026142782
45	0xbd24c46a	-0.040226378
46	0xbd7e707c	-0.062118992
47	0x3d77e760	0.06052339
48	0xbd1a9ad5	-0.037745316
49	0x3d03e0e5	0.032196898
50	0x3d768276	0.06018301
51	0xbdcfa3e5	-0.10138682
52	0x3c8582aa	0.016297657
53	0xbd1c6444	-0.03818156
54	0xbd85be47	-0.06530433
55	0xbd92d009	-0.07168586
56	0xbd340ee5	-0.043959517
57	0xbd8849ec	-0.066547245
58	0x3daa6681	0.08320332
59	0x3d1ee5d5	0.038793404
60	0x3d28f93c	0.041253313
61	0x3c9fef62	0.019523326
62	0x3cf4551f	0.029825745
63	0xbda27aaf	-0.07933556
64	0x3d1b60c0	0.037934065
65	0x3d3ab386	0.045581363
66	0xbd529566	-0.05141201
67	0x3d3791a5	0.04481663
68	0x3d9c9b2a	0.07646783
69	0xbd85320c	-0.06503686
70	0xbc7ae928	-0.015314378
71	0xbd7fc954	-0.06244786
72	0x3dacd319	0.08438701
73	0xbdaf2120	-0.0855124
74	0xbd211c00	-0.039333344
75	0x3cffc4ff	0.031221865
76	0xbd17a581	-0.03702307
77	0x3d58477d	0.05280255
78	0x3d1bcdb4	0.03803797
79	0xbcc6a864	-0.024250217
80	0x3ce6ff45	0.028197894
81	0x3d5412f9	0.051775906
82	0xbca83023	-0.020530766
83	0xbd593841	-0.053032164
84	0xbda84b89	-0.08217532
85	0xbd8dafd2	-0.06918301
86	0xbdbb7b16	-0.09154336
87	0xbdc77696	-0.09739415
88	0xbd1ed57e	-0.03877782
89	0x3c8c024f	0.017090945
90	0xbd5717c8	-0.052512914
91	0x3c6a3252	0.014294224
92	0xbdc6bcc0	-0.0970397
93	0x3d715d08	0.058926612
94	0x3d4e0ead	0.050306965
95	0xbcb4f705	-0.022090444
96	0xbc4af229	-0.012386837
97	0x3c255f19	0.010093474
98	0xbdcd1973	-0.1001462
99	0xbd1e746f	-0.03868526
100	0xbda2511c	-0.07925627
101	0xbb8d3db9	-0.0043103364
102	0xbd15ce2a	-0.036573566
103	0x3da9838e	0.08277045
104	0xbd10d642	-0.035360582
105	0x3d8f6dc5	0.07003359
106	0x3cd7fe72	0.026366446
107	0xbd2c6d19	-0.04209623
108	0xbc94ce59	-0.0181648
109	0x3dc32ffc	0.09530637
110	0xbd9a3ea9	-0.07531483
111	0x3b784cb5	0.0037887518
112	0xbdb08445	-0.086189784
113	0xbd9afe88	-0.07568079
114	0x3d60ddef	0.054899152
115	0x3c1f4c09	0.009722718
116	0xbdb2fcda	-0.08739634
117	0x3da65a5b	0.08122703
118	0x3d5fd404	0.054645553
119	0x3d1fb895	0.03899439
120	0x3d6e531a	0.05818472
121	0xbc4c7668	-0.012479402
122	0xbc856c51	-0.016287
123	0xbcbb1803	-0.022838598
124	0xbdc56d7e	-0.096400246
125	0xbaa02849	-0.0012219037
126	0xbce15404	-0.027505882
127	0x3bb285bc	0.0054480713
128	0xbda03d1b	-0.07824155
129	0x3d93f0cb	0.07223662
130	0x3d8343ad	0.064093925
131	0x3ceba24d	0.028763914
132	0x3d95e435	0.07318918
133	0x3dc663ab	0.09686979
134	0x3d06804b	0.032837193
135	0xbd736dc6	-0.05943086
136	0x3dc856f4	0.0978221
137	0xbce1343f	-0.027490733
138	0xbdbfe933	-0.09370651
139	0x3d0927af	0.03348511
140	0xbb89b30f	-0.0042022537
141	0xbd91f350	-0.07126486
142	0xbc65c310	-0.014023557
143	0x3c96f114	0.018425502
144	0x3d856520	0.06513429
145	0x3b06f391	0.0020591954
146	0x3c8901f3	0.016724562
147	0x3d80b847	0.06285148
148	0xbca5e3f9	-0.020250307
149	0x3d8233b8	0.06357521
150	0x3d8a8df8	0.0676536
151	0x3d76732b	0.060168426
152	0xbdc935ee	-0.098247394
153	0xbd9059b0	-0.070483565
154	0x3c98b0ec	0.01863905
155	0x3d8a2627	0.06745558
156	0x3cffe613	0.031237638
157	0x3d85100b	0.064972006
158	0x3c9ffcf9	0.019529806
159	0x3dba34fb	0.090921365
160	0xbd32b884	-0.043633
161	0x3d4dc69e	0.050238244
162	0xbbf3bd16	-0.0074383123
163	0xbcd89344	-0.02643741
164	0x3d42e215	0.04757889
165	0xbca5bdbd	-0.020232076
166	0xbcb6ee93	-0.022330558
167	0x3ba902c1	0.005157799
168	0x3cc7ddac	0.024397694
169	0xbcb6a1ab	-0.022293886
170	0xbd6f7de6	-0.058469675
171	0x3d5e6983	0.054299843
172	0x3d5d7cc7	0.054074075
173	0xbd38c203	-0.0451069
174	0x3d671b6a	0.05642263
175	0x3cae5d74	0.021284796
176	0xbce7abd6	-0.02828018
177	0xbcb2e830	-0.021839231
178	0x3d9fa4bb	0.07795092
179	0xbc8da97f	-0.017292736
180	0x3d2953f4	0.04133983
181	0xbd01fcb5	-0.03173514
182	0xbdb0c403	-0.08631136
183	0xbcf41cd4	-0.029798903
184	0xbdb2ebb3	-0.08736362
185	0xbc4f8818	-0.012666725
186	0xbdb53900	-0.088487625
187	0x3cd6cca1	0.026220622
188	0x3bdc6760	0.0067261904
189	0x3d9b1321	0.07572008
190	0x3d863f70	0.065550685
191	0x3d58120b	0.052751582
192	0xbd69d23e	-0.05708527
193	0xbc67f32d	-0.014157099
194	0x3ca2c029	0.01986702
195	0xbd9a27f3	-0.07527151
196	0x3d4972b6	0.049181662
197	0xbd9b0ab7	-0.07570403
198	0x3dafd3a9	0.08585293
199	0xbd15d6ff	-0.03658199
200	0x3d2d05f4	0.042242005
201	0xbdcd813d	-0.10034416
202	0xbd346598	-0.0440422
203	0xbd4d1af2	-0.050074525
204	0xb9af02f5	-0.00033380804
205	0xbdb46d2d	-0.08809886
206	0x3d95935a	0.07303496
207	0xbc05f9f5	-0.00817727
208	0xbdcb1e54	-0.09917894
209	0xbdbac7bf	-0.0912013
210	0xbd616f8d	-0.055038024
211	0xbc30dcd3	-0.010794836
212	0x3d5c82a9	0.053835545
213	0x3db0ee68	0.086392224
214	0xbda4ab34	-0.08040467
215	0xbdbc1312	-0.09183325
216	0x3da88793	0.08228984
217	0x3dbb9e41	0.09161044
218	0x3c4b920c	0.012424957
219	0xbbf21ab6	-0.007388438
220	0x3d92a62a	0.071605995
221	0x3bad130c	0.0052818116
222	0x3da742d5	0.08167044
223	0x3d919568	0.07108575
224	0xbd9d1ab2	-0.07671107
225	0xbc83fad0	-0.016110808
226	0xbdc4e2a7	-0.09613543
227	0xbd8eedcf	-0.06978952
228	0x3c2d7a7e	0.010588286
229	0xbd6c6653	-0.05771477
230	0xbdbe8abb	-0.093038045
231	0x3db5cb97	0.08876722
232	0xbd2edd01	-0.042691234
233	0x3d8eb271	0.06967629
234	0xba0b9d7c	-0.0005325896
235	0x3d9632e4	0.07333925
236	0xbd74256f	-0.059606012
237	0x3c31eac9	0.0108592
238	0xbcb02eec	-0.02150675
239	0x3dc16ab6	0.094441816
240	0x3daeb165	0.08529929
241	0x3c90412d	0.017609203
242	0xbc3689cd	-0.011141253
243	0xbb4bdb7f	-0.0031106172
244	0xbd588c3e	-0.05286812
245	0x3d297cc5	0.041378755
246	0x3ccfa962	0.025349323
247	0x3c19a141	0.009376825
248	0x3c813082	0.0157702
249	0x3d2c4f6f	0.04206794
250	0x3d84ceba	0.064847425
251	0xbd8211b7	-0.06351035
252	0x3d868be1	0.065696485
253	0xbb12dbae	-0.0022408771
254	0x3ce0e47e	0.027452704
255	0xbdc89d48	-0.09795624

enc_p.lstm.weight_hh_l0 f4 [384, 96]
0	0x3bc20fea	0.0059223073
1	0x3cf0ac9f	0.029379187
2	0x3be86171	0.007091694
3	0xbc710daa	-0.01471273
4	0x3d93084a	0.071793154
5	0x3d34157d	0.043965805
6	0xbd561ef2	-0.052275605
7	0x3d90a423	0.070625566
8	0xbdbdb488	-0.09262949
9	0xbd9b5f67	-0.07586556
10	0x3d1f7144	0.038926378
11	0xbd803750	-0.0626055
12	0x3d9d5772	0.076826945
13	0xbd3d2310	-0.046176016
14	0x3da7818c	0.08179006
15	0x3dc8d079	0.09805388
16	0x3dc4a349	0.09601457
17	0x3ca9715b	0.020683935
18	0x3c682c9b	0.014170791
19	0x3daa642f	0.0831989
20	0xbc925f28	-0.01786764
21	0x3db28097	0.08715933
22	0x3d8a79ca	0.06761511
23	0x3dbb6248	0.09149605
24	0xbd2d8568	-0.042363554
25	0xbc13c831	-0.009019897
26	0xbd23165a	-0.039816238
27	0xbca8e92e	-0.020619001
28	0x3dbd66b9	0.092481084
29	0xbd37bb95	-0.044856627
30	0xbd2ad872	-0.041710325
31	0x3c60e37a	0.01372611
32	0xbd56f85a	-0.05248294
33	0x3d58d6d1	0.05293924
34	0x3bfc4a2a	0.0076992707
35	0x3bd726dd	0.006565912
36	0xbd977cd8	-0.07396859
37	0x3b9645cc	0.004585957
38	0x3c6085eb	0.0137038035
39	0xbd0f3555	-0.03496297
40	0xbd68729c	-0.056749925
41	0xbbcb59a0	-0.0062057525
42	0x3db00da3	0.08596351
43	0x3cf865aa	0.030321915
44	0x3d75400e	0.05987554
45	0xbd09da5c	-0.03365551
46	0x3d0457bc	0.032310233
47	0x3d8d4c1f	0.068992846
48	0x3daa02d2	0.08301319
49	0xbd34bef3	-0.044127416
50	0xbd1af455	-0.03783067
51	0xbb8d9df5	-0.0043218085
52	0x3d8c9b91	0.068656094
53	0x3c910f96	0.017707627
54	0x3dc2768c	0.09495267
55	0x3c37d983	0.011221292
56	0x3d3a4ed7	0.045485344
57	0xbd2c946b	-0.04213373
58	0xbd0be72a	-0.034156002
59	0xbd3ed3c0	-0.04658866
60	0x3d881cb3	0.06646099
61	0x3d030f7a	0.03199718
62	0xbd254543	-0.040349256
63	0x3d562679	0.052282784
64	0xbba88cb6	-0.005143727
65	0xbc639c69	-0.013892272
66	0x3daad5be	0.08341549
67	0x3d081eaa	0.03323237
68	0x3dcbf458	0.09958714
69	0x3d21b014	0.03947456
70	0x3d3bcb1f	0.04584801
71	0x3d34f459	0.04417834
72	0xbd219948	-0.03945282
73	0x3cd4e81e	0.025989588
74	0x3cadc227	0.021210743
75	0x3d964dde	0.07339071
76	0xbc619ffb	-0.0137710525
77	0xbdc5e15c	-0.096621245
78	0x3d9b451f	0.07581543
79	0x3c41c397	0.011826417
80	0xbd849e3e	-0.06475495
81	0xbda72a03	-0.0816231
82	0xbd175c8a	-0.036953487
83	0x3dc6054f	0.09668981
84	0xbc887ed2	-0.016662035
85	0xbcbea424	-0.023271628
86	0x3d2da69c	0.04239522
87	0x3c3a99d0	0.011389211
88	0xbdaae2d3	-0.083440445
89	0xbd6a4092	-0.057190485
90	0x3dad8996	0.08473508
91	0x3d34212e	0.043976955
92	0xbd8969d9	-0.06709642
93	0x3cfd052b	0.030886253
94	0xbdc4d9eb	-0.09611877
95	0xbc0f168d	-0.008733404
96	0x3cc485f0	0.023989648
97	0x3d320f41	0.04347158
98	0x3d9985f1	0.074962504
99	0x3d99719f	0.07492375
100	0xbb99eddf	-0.004697546
101	0xbd96453f	-0.073374264
102	0xbc5cd59d	-0.013478664
103	0xbdb1afd8	-0.08676118
104	0xbd815184	-0.06314376
105	0x3cc0ab2a	0.023519117
106	0xbd96392d	-0.07335124
107	0x3da94a29	0.08266098
108	0xbdb818ee	-0.0898913
109	0x3da4f8f3	0.08055296
110	0x3ace7e0d	0.0015754119
111	0xbb3922f1	-0.0028249586
112	0x3dc62f66	0.09677009
113	0xbd46f8a8	-0.04857698
114	0xbdca736e	-0.09885298
115	0x3d741790	0.059592783
116	0xbd3ab416	-0.0455819
117	0x3c95cc14	0.018285789
118	0xbd1af01d	-0.037826646
119	0x3c595a6e	0.013266189
120	0xbd4389dc	-0.047738895
121	0xbd87c397	-0.06629103
122	0xbc205f85	-0.009788399
123	0xbdaf52bc	-0.08560702
124	0x3d527515	0.05138119
125	0xbcee18ce	-0.029064562
126	0x3d044063	0.032287966
127	0x3d9550a6	0.07290773
128	0x3d8b5b01	0.06804467
129	0x3d873c41	0.066032894
130	0xbd920f57	-0.07131832
131	0xbc9fd5ac	-0.019511066
132	0xbd498378	-0.049197644
133	0x3d74a91e	0.059731595
134	0x3dca0dd6	0.0986592
135	0x3ce0df2f	0.027450172
136	0x3b872468	0.004124213
137	0x3d881ed8	0.06646508
138	0xbd82218d	-0.063540556
139	0x3d76e4a9	0.06027666
140	0xbca48ce1	-0.020086708
141	0xbd437de4	-0.04772748
142	0x3ba0266e	0.0048873937
143	0xbd6e6a63	-0.058206927
144	0x3d170c87	0.03687718
145	0x3d82f85f	0.06395029
146	0x3d535abb	0.0516002
147	0x3cf95a89	0.030438678
148	0xbcea8c2b	-0.02863129
149	0x3d99dfb5	0.07513372
150	0x3db8a41e	0.09015678
151	0x3d09019f	0.03344881
152	0xbd13847d	-0.036015023
153	0x3ca7eb6b	0.020497998
154	0x3d9e9028	0.077423394
155	0x3d8ef97f	0.06981181
156	0x3d2f9a85	0.04287197
157	0x3d603863	0.054741275
158	0x3db81696	0.08988683
159	0xbdbb8efa	-0.0915813
160	0x3da61393	0.08109202
161	0xbd66e159	-0.056367252
162	0x3dbdb30a	0.092626646
163	0x3d6a877d	0.057258118
164	0x3d039d01	0.032132152
165	0xbc2fcb8b	-0.010729681
166	0xbbac2d34	-0.005254412
167	0xbdad49ad	-0.08461318
168	0xbda3964c	-0.07987651
169	0xbd1299a8	-0.03579107
170	0xbdb47940	-0.08812189
171	0x3cd344c2	0.025789622
172	0x3d4c67ff	0.049903866
173	0x3ca306f9	0.019900786
174	0xbd8058d3	-0.06266942
175	0x3dc8ae05	0.097988166
176	0x3d826406	0.06366734
177	0x3dbe8a9f	0.093037836
178	0x3dd2f1b1	0.10300005
179	0xbcd0fc8f	-0.025511054
180	0xbcce2cf6	-0.025167923
181	0x3d3192e8	0.04335299
182	0x3d1a1f17	0.037627306
183	0x3d1ea5ca	0.038732328
184	0xbc725ce2	-0.014792653
185	0x3dc92000	0.09820557
186	0xbad3260d	-0.0016109362
187	0xbce83533	-0.02834568
188	0xbd56b334	-0.052416995
189	0x3dbe1031	0.09280432
190	0xbd3f6cf1	-0.046734754
191	0xbd45972d	-0.048239876
192	0xbd0f1bc4	-0.03493859
193	0x3cc6c9cc	0.024266146
194	0x3d2b92d9	0.04188809
195	0x3c43f840	0.011961043
196	0x3daf20e8	0.08551198
197	0x3d8951d9	0.06705064
198	0x3d43fe70	0.047850072
199	0xbd98a679	-0.07453627
200	0xbdae7ac4	-0.085195094
201	0x3d1d6aed	0.03843205
202	0xbcb950f9	-0.022621619
203	0xbcf35a59	-0.029706167
204	0xbbea2327	-0.007145304
205	0x3d768f14	0.060195044
206	0xbd8e4c95	-0.069482006
207	0xbd6f49b2	-0.05841989
208	0x3d5a4550	0.053288758
209	0x3d6a3d5d	0.057187427
210	0xbd242932	-0.04007835
211	0xbc548b40	-0.012972653
212	0x3b6d17b5	0.003617746
213	0x3dc2f0f0	0.095186114
214	0x3d8d9181	0.06912518
215	0x3d2e9020	0.042617917
216	0xbda1b020	-0.07894921
217	0x3d3a242f	0.045444664
218	0xbdd59365	-0.10428504
219	0xbd3f7069	-0.046738062
220	0xbc8a085c	-0.01684969
221	0x3d12a3ce	0.035800748
222	0xbdaa7bdb	-0.08324405
223	0xbb872676	-0.004124458
224	0x3b898c31	0.0041976203
225	0xbd3f0f4c	-0.046645448
226	0x3cd22b67	0.025655461
227	0xbdb5ef92	-0.08883585
228	0xbd72c76f	-0.059272226
229	0x3d8af41a	0.0678484
230	0x3d81dcc7	0.06340938
231	0xbd53fe50	-0.051756203
232	0x3d8d2bc4	0.06893113
233	0x3ca4bd24	0.02010972
234	0xbdaf5868	-0.08561784
235	0x3d6899b3	0.056787204
236	0xbda17f9c	-0.07885668
237	0xbd8b2f70	-0.06796157
238	0xbdca6e0e	-0.098842725
239	0xbd10f3cc	-0.035388753
240	0x3cbda1ac	0.02314838
241	0xbb06f4ec	-0.0020592762
242	0xbd830f3f	-0.06399392
243	0xbd1af6b0	-0.037832916
244	0xbd84698e	-0.064654455
245	0xbd1b3f7a	-0.037902333
246	0x3d12ed94	0.035871103
247	0xbdc3488c	-0.095353216
248	0x3c80da76	0.01572917
249	0xbbb5a92a	-0.0055438476
250	0xbb20457d	-0.002445548
251	0x3c073c6d	0.008254153
252	0xbcce0298	-0.025147721
253	0x3cba20da	0.022720743
254	0x3da4d281	0.08047963
255	0x3da65c9a	0.08123131

enc_p.lstm.bias_ih_l0 f4 [384]
0	0xbdaf9ced	-0.08574853
1	0x3d5b6f71	0.053573076
2	0xbbe4a816	-0.006978045
3	0xbca0be8b	-0.019622108
4	0xbdc92c79	-0.098229356
5	0x3ce84afe	0.028356072
6	0x3b439f8a	0.0029849731
7	0xbd9cf296	-0.07663457
8	0x3c1ca8df	0.009561746
9	0xbd532965	-0.05155315
10	0xbda7ecf7	-0.08199494
11	0x3c3a9d16	0.011389991
12	0x3d6bbb14	0.05755146
13	0xbd7908c9	-0.060799394
14	0xbd8cc18a	-0.06872852
15	0xbd2131b5	-0.039354045
16	0x3cf61f84	0.030044325
17	0xbbed940b	-0.007250314
18	0xbcfbae0c	-0.03072264
19	0x3d2da5c2	0.042394407
20	0x3ce377e9	0.027767139
21	0x3d8d63a3	0.0690377
22	0x3d0684c5	0.032841463
23	0x3d4c20a9	0.049835835
24	0xbd959221	-0.073032625
25	0xbdb3b645	-0.087749995
26	0x3d7d79ef	0.061883863
27	0x3dc78f61	0.09744144
28	0xbd7607c7	-0.06006601
29	0x3c7b7b1d	0.015349177
30	0xbd3d9941	-0.046288732
31	0x3d80948b	0.06278332
32	0xbc08d45e	-0.0083514135
33	0xbdb3cbfa	-0.0877914
34	0xbd882f41	-0.06649638
35	0x3dc3c6d6	0.09559409
36	0xbd3328d0	-0.043740094
37	0x3d34ef09	0.044173274
38	0xbd3543ce	-0.044254117
39	0x3afa4611	0.0019094368
40	0x3c932e76	0.01796649
41	0xb8dd001b	-0.00010538121
42	0xbcdf6c4a	-0.027273316
43	0xbda60398	-0.08106154
44	0xbc5e1624	-0.013555083
45	0x3cd70b61	0.026250543
46	0x3d1188b3	0.035530757
47	0x3db397c5	0.08769182
48	0xbce3e332	-0.027818296
49	0xbbfb96e2	-0.0076778987
50	0x3d509182	0.050920017
51	0x3ccf76d3	0.025325214
52	0xbd877bcc	-0.06615409
53	0xbc8337c1	-0.016017796
54	0xbc01a4ae	-0.007912798
55	0x3d843b26	0.06456594
56	0xbd3de81e	-0.046363942
57	0x3dbb6f7a	0.09152122
58	0xbdcd41ef	-0.100223415
59	0x3d9fd732	0.07804717
60	0x3d650463	0.055912387
61	0xbdb826d0	-0.08991778
62	0xbbf82408	-0.0075726546
63	0xbdaadffb	-0.08343502
64	0xba980e15	-0.0011600876
65	0xbcd879e2	-0.026425306
66	0x3dc5d0b6	0.09658949
67	0x3db7e1c4	0.08978608
68	0xbdc9f51f	-0.09861206
69	0xbc908203	-0.01764012
70	0x3dd11089	0.10208232
71	0xbcdd8d38	-0.027044877
72	0xbdbac35b	-0.09119292
73	0xbbc5c519	-0.0060354588
74	0x3dba768e	0.09104644
75	0xbc134e7b	-0.008990879
76	0xbdc9f248	-0.098606646
77	0xbd26406b	-0.040588778
78	0x3da7cb20	0.0819304
79	0x3d5ea3ce	0.054355435
80	0x3d82d241	0.06387759
81	0xbcb69e8b	-0.022292396
82	0x3dbe6e9e	0.09298442
83	0xbdbb3e28	-0.09142715
84	0x3d19f0a9	0.037583027
85	0xbd034b6e	-0.032054357
86	0x3c139b51	0.009009198
87	0x3d00661e	0.031347387
88	0xbd47a716	-0.04874333
89	0x3d2006bf	0.039068934
90	0xbdac6c96	-0.084191486
91	0x3dbe54bd	0.09293506
92	0xbd06e9f8	-0.032937974
93	0x3d9ae98e	0.07564078
94	0xbd605a81	-0.05477381
95	0x3db8beeb	0.0902079
96	0xbdc7cf7e	-0.09756373
97	0xbda89b0c	-0.08232698
98	0x3c1c7c3f	0.009551107
99	0x3da97742	0.082747
100	0xbd83ea82	-0.06441213
101	0xbda714df	-0.08158278
102	0x3d90d478	0.07071775
103	0x3d0442ed	0.032290388
104	0xbc5c4164	-0.013443325
105	0xbd9a6957	-0.07539623
106	0x3d374522	0.044743665
107	0x3db63aba	0.0889792
108	0xbdb0fb13	-0.086416386
109	0x3d78f78c	0.060782954
110	0x3d4564be	0.04819178
111	0x3ccab3b9	0.024743902
112	0xbda132b3	-0.07870998
113	0xbdd1239a	-0.102118686
114	0xbca4e8fc	-0.020130627
115	0x3c7b0d40	0.015322983
116	0x3d6aca38	0.057321757
117	0xbd58c0bd	-0.052918185
118	0x3cd8f514	0.02648405
119	0xbcc3663f	-0.023852466
120	0x3cc52dfb	0.024069777
121	0xbd026014	-0.03182991
122	0x3db8f3e4	0.090308934
123	0x3da1b76f	0.07896315
124	0xbd0c9813	-0.034324717
125	0x3d20e369	0.039279375
126	0xbd3f7802	-0.046745308
127	0xbd880aea	-0.06642707
128	0xbcd46cf2	-0.025930855
129	0x3d4a33ac	0.049365684
130	0x3dbd63c3	0.09247544
131	0xbc6c5579	-0.014424675
132	0x3d67e100	0.05661106
133	0x3cb5178d	0.022105956
134	0x3d9380e0	0.07202315
135	0x3d62d8ad	0.05538242
136	0xbd9e8ccb	-0.07741698
137	0x3d979797	0.0740196
138	0xbc683698	-0.014173172
139	0xbcff5f57	-0.031173391
140	0x3d9dd8ee	0.07707392
141	0xbd239c23	-0.039943825
142	0xbdca09e3	-0.09865167
143	0x3d830423	0.063972734
144	0x3c8939af	0.016751138
145	0x3d9ca69b	0.07648965
146	0xbd62d4ba	-0.055378653
147	0x3c6eaa7c	0.014567014
148	0xbdbc1315	-0.09183327
149	0xbcafd20e	-0.021462467
150	0xbd46f3cb	-0.048572343
151	0x3cb814c5	0.022470841
152	0x3a0d2914	0.0005384844
153	0xbd57e1db	-0.052705627
154	0x3d022fbc	0.031783804
155	0xbd8c4a72	-0.06850137
156	0xbb50dbf0	-0.0031869374
157	0xbdc25959	-0.09489698
158	0x3cbb413e	0.022858258
159	0x3c3f3893	0.011671203
160	0xbd829b5e	-0.0637729
161	0x3d2124a7	0.039341595
162	0x3c6302f6	0.013855686
163	0xbbfd55a4	-0.0077311564
164	0x3dc9cf3e	0.098539814
165	0x3d85e89e	0.06538509
166	0x3c6d2d96	0.014476201
167	0xbd3e321d	-0.04643451
168	0x3dac7da8	0.084224045
169	0x3b88db9b	0.0041765696
170	0x3dcab0e9	0.09897024
171	0x3cf41fdd	0.02980035
172	0xbda2e5b8	-0.079539716
173	0x3d9691f6	0.073520586
174	0x3d4f8fae	0.050674133
175	0xbdb2348a	-0.08701427
176	0x3db6abe7	0.089195065
177	0xbd748ec5	-0.059706468
178	0x3a50864d	0.00079545827
179	0x3d3fc2a0	0.04681647
180	0x3d53a421	0.051670197
181	0xbd85cae3	-0.06532838
182	0x3dc0f48a	0.09421642
183	0xbcd576c0	-0.026057601
184	0x3d234407	0.039859798
185	0x3d043873	0.032280397
186	0xbbeecd1c	-0.0072876345
187	0x3d848b93	0.06471934
188	0x3da99e63	0.08282163
189	0x3c140895	0.009035249
190	0x3dbd3ca6	0.092400834
191	0x3d90d5c9	0.07072026
192	0xbdc771a1	-0.0973847
193	0x3d0460a2	0.03231872
194	0x3d91e0e4	0.071229726
195	0x3c8d5e2c	0.017256819
196	0x3c804769	0.015659051
197	0xbd746c12	-0.059673376
198	0xbd9fd22b	-0.07803758
199	0x37901f6a	1.7180766e-05
200	0xbb8a8c69	-0.004228164
201	0xbdcc9594	-0.09989467
202	0x3db2695c	0.08711502
203	0x3d3c78b8	0.046013564
204	0x3acc36cb	0.0015580294
205	0x3cebe7b2	0.028797004
206	0x3d06c977	0.032906976
207	0xbd6fd378	-0.05855128
208	0x3bfd2f02	0.007726551
209	0xbd72d2dc	-0.059283122
210	0x3db8ba1d	0.09019873
211	0x3d8315cf	0.06400644
212	0x3dac0ee9	0.084012814
213	0x3db518b8	0.08842605
214	0x3da2b432	0.07944526
215	0xbbc30388	-0.0059513487
216	0xbb52b9d9	-0.003215423
217	0x3d95e76a	0.07319529
218	0x3db429f9	0.08797068
219	0xbd01b084	-0.03166248
220	0x3cafc3f7	0.021455748
221	0x3bcd6e83	0.0062692775
222	0xbcbe5913	-0.023235833
223	0x3d8a7b6c	0.06761822
224	0xbd8e713e	-0.06955193
225	0xbddb5230	-0.107090354
226	0xbd18fbaa	-0.03734938
227	0x3cc77f0f	0.024352578
228	0x3db9c12b	0.09070047
229	0x3db8a2cb	0.09015425
230	0xbce9d4b2	-0.028543804
231	0xbd0e02b0	-0.03467053
232	0x3cd8c393	0.026460445
233	0x3a7820dd	0.0009465346
234	0x3dcc57c5	0.09977678
235	0xbdc28fd1	-0.09500087
236	0x3d887b43	0.06664135
237	0x3c803a0c	0.015652679
238	0xbd98f5bf	-0.07468747
239	0x3dc524ee	0.096261844
240	0x3d9c70cb	0.07638701
241	0x3b9ac5d1	0.0047232886
242	0xbda83072	-0.08212365
243	0xbb6424d3	-0.0034811988
244	0x3d892238	0.0669598
245	0x3d42d12a	0.047562756
246	0x3dafb4fb	0.08579441
247	0x3dc9c2ce	0.09851609
248	0xbd75a7c2	-0.05997444
249	0x3daa4e02	0.0831566
250	0x3d57cf39	0.052687857
251	0x3dcdd5e2	0.100505605
252	0x3dc54f5c	0.09634277
253	0x3d91fa46	0.07127814
254	0xbda3ce37	-0.07998317
255	0xbd0ff0c8	-0.035141736

enc_p.lstm.bias_hh_l0 f4 [384]
0	0x3dd8cb5c	0.10585663
1	0x3db59d9b	0.088679515
2	0x3dc376fc	0.09544179
3	0x3d170af0	0.036875665
4	0x3ca6f3c1	0.020379903
5	0xbcedcfda	-0.029029775
6	0xbd9e30a3	-0.077241205
7	0x3dc87056	0.097870514
8	0xbd9ad405	-0.07559971
9	0x3d5892b9	0.0528743
10	0x3d460d41	0.048352484
11	0x3dbaae54	0.09115282
12	0xbdaad199	-0.08340759
13	0xbd408ef7	-0.047011342
14	0xbd0c55e8	-0.034261614
15	0x3dcdcac4	0.1004844
16	0xbda97e98	-0.08276099
17	0x3d585c6e	0.052822523
18	0x3d9a754e	0.07541905
19	0xbc7159f4	-0.014730919
20	0xbdb6675d	-0.08906434
21	0x3dc6bd01	0.097040184
22	0x3bdde984	0.006772222
23	0xbdb2feb0	-0.08739984
24	0x3db30c37	0.08742564
25	0x3a797bcd	0.0009517044
26	0x3d9eeb89	0.077597685
27	0x3dbfd9cb	0.093677126
28	0x3d3f6e4d	0.04673605
29	0x3d94f196	0.07272641
30	0x3d241726	0.04006114
31	0x3d3cc9eb	0.046091
32	0xb9b5376a	-0.00034564297
33	0xbd147ed1	-0.036253754
34	0x3cc961c6	0.024582755
35	0xbdb19cdd	-0.086724974
36	0xbd2c1e69	-0.04202119
37	0x3d628585	0.055303115
38	0x3dc6cde3	0.097072385
39	0xbd2ba0ff	-0.041901585
40	0xbd672580	-0.056432247
41	0x3d0ca9b3	0.034341525
42	0xbd9e6816	-0.077346966
43	0xbd389221	-0.045061234
44	0x3d05a95c	0.032632217
45	0x3c4bf166	0.012447691
46	0xbda4d1de	-0.080478415
47	0xbd96191e	-0.073290095
48	0x3dc4dfd7	0.096130066
49	0xbdc3f24a	-0.09567697
50	0xbb816470	-0.0039487407
51	0x3c310d97	0.010806463
52	0xbcfe45bb	-0.03103911
53	0x3d69b3f9	0.0570564
54	0x3cdf738f	0.027276782
55	0x3d40522e	0.046953373
56	0xbcb82c23	-0.022481984
57	0x3d85eb4c	0.0653902
58	0xbdb2183e	-0.0869603
59	0xbd8110c1	-0.06302024
60	0x3d577917	0.052605715
61	0xbcc3f9b3	-0.023922777
62	0x3d3f20a1	0.046661977
63	0x3d4a4c39	0.049389098
64	0xbc0e5eb9	-0.008689576
65	0x3dbc1710	0.09184086
66	0x3da2413c	0.07922599
67	0x3d4bf92f	0.049798187
68	0x3d8652f4	0.06558791
69	0xbd3f0d4d	-0.046643544
70	0x3dc2841f	0.09497856
71	0xbd571aa4	-0.05251564
72	0x3d587235	0.05284329
73	0xbbc63a99	-0.006049466
74	0xbcf02f2d	-0.02931937
75	0xbd37f209	-0.044908557
76	0xbda12d6d	-0.078699924
77	0x3b2f1c4a	0.0026719742
78	0x3d61f452	0.055164643
79	0xbcb726fe	-0.02235746
80	0x3d935603	0.0719414
81	0xbc8a3d55	-0.016874949
82	0x3d8a4c56	0.06752841
83	0x3ce72d8d	0.028219962
84	0xbd93e30c	-0.0722104
85	0xbd90081a	-0.07032795
86	0xbc17363c	-0.009229239
87	0x3dbc27d3	0.09187283
88	0xbcda1e63	-0.026625818
89	0xbd6a9a40	-0.05727601
90	0xbda0de50	-0.07854903
91	0xbd825c99	-0.06365318
92	0x3c96d60e	0.018412616
93	0xbd9ed082	-0.077546135
94	0xbdc001c1	-0.093753345
95	0xbd9bf993	-0.07615962
96	0x3d6cbea2	0.05779899
97	0x3ab842cb	0.0014057992
98	0x3d6dbcf9	0.058041546
99	0x3ca53d26	0.02017076
100	0x3dd2d3ce	0.10294305
101	0xbdcf7c26	-0.10131101
102	0x3d1e7c88	0.03869298
103	0x3c72c9fe	0.0148186665
104	0x3d3d7da0	0.046262383
105	0x3d06f70e	0.032950453
106	0xbcfa3f33	-0.030547714
107	0x3d304ec7	0.043043878
108	0xbd53e11a	-0.051728345
109	0x3daec8ee	0.08534418
110	0xbce4d055	-0.027931372
111	0xbdbbcef6	-0.09170334
112	0xb812b286	-3.4975375e-05
113	0x3ce2ab97	0.027669711
114	0xbce47114	-0.027885951
115	0x3cd4fd68	0.02599974
116	0xbd888c26	-0.06667356
117	0x3bf4a0a3	0.0074654385
118	0x3d2a402c	0.041565105
119	0xbabb725e	-0.0014301052
120	0x3d578ea7	0.05262628
121	0xbdc9b513	-0.0984899
122	0xbcba341d	-0.022729928
123	0x3d0dd146	0.034623407
124	0xbdbe66cb	-0.0929695
125	0x3c54083a	0.0129414145
126	0xbd83635b	-0.06415435
127	0x3d922dd0	0.07137644
128	0xbd87a7e7	-0.06623822
129	0x3dd3caff	0.10341453
130	0x3bc08e7e	0.0058763614
131	0x3db8a4ba	0.09015794
132	0xbdc81220	-0.09769082
133	0x3b253b87	0.0025212483
134	0xbdbf590d	-0.09343157
135	0x3cd29ee6	0.025710534
136	0x3da1453b	0.07874533
137	0xbd854663	-0.06507566
138	0x3d63d7d2	0.055625744
139	0xbc5e1e64	-0.01355705
140	0xbdae154d	-0.085001566
141	0x3d14ca07	0.03632548
142	0xbda9542a	-0.08268006
143	0x3da41695	0.0801212
144	0x3d53c8bf	0.05170512
145	0x3d425554	0.047444656
146	0x3db1f151	0.086886056
147	0xbdb86351	-0.09003318
148	0xbdaf1d4e	-0.08550511
149	0xbcaa059e	-0.020754632
150	0x3d12d4b4	0.03584738
151	0xbcec0763	-0.028812116
152	0xbd7c119f	-0.061540242
153	0xbbaabb74	-0.0052103344
154	0xbcd85783	-0.026408916
155	0x3dc825dd	0.09772847
156	0x3ceecca9	0.029150324
157	0x3d9d666c	0.07685551
158	0xbc8f4c72	-0.017492507
159	0xbd8a746e	-0.067604885
160	0x3d5493e0	0.051898837
161	0xbbfa057a	-0.0076300474
162	0xbd926abb	-0.071492635
163	0x3ba58aac	0.0050519314
164	0xbcb6f1b1	-0.022332044
165	0xbd8930ce	-0.06698762
166	0x3da4e84e	0.08052121
167	0xbd87024d	-0.06592236
168	0xbd369242	-0.044573076
169	0xbd72cca5	-0.059277195
170	0x3b201a55	0.0024429758
171	0x3d9b4361	0.07581211
172	0x3daeae10	0.085292935
173	0x3b98d219	0.0046637175
174	0x3d625666	0.055258177
175	0x3dab135c	0.08353302
176	0xbce36d7e	-0.02776217
177	0x3d9a9c83	0.075493835
178	0x3cdd21f9	0.026993738
179	0xbcd308b7	-0.025760991
180	0xbd0431c5	-0.032274026
181	0xbd93f218	-0.0722391
182	0x3cb59828	0.02216728
183	0x3dc6197f	0.09672832
184	0x3c7a0047	0.015258855
185	0xbcb140d4	-0.021637358
186	0xbdc377d6	-0.09544341
187	0xbc30fe08	-0.010802753
188	0xbd48ac26	-0.0489923
189	0xbce5b7d6	-0.028041761
190	0xbdcea26b	-0.100895725
191	0xbdad44db	-0.08460399
192	0xbd2dfa0e	-0.0424748
193	0x3d947d33	0.07250442
194	0xbdc970c5	-0.09835962
195	0x3d19f371	0.03758568
196	0xbd9592b9	-0.07303376
197	0x3cb710d8	0.022346899
198	0x3d759c9c	0.059963807
199	0xbdab9049	-0.083771296
200	0xbdc139f2	-0.0943488
201	0xbb692125	-0.0035572734
202	0xbd7147e0	-0.058906436
203	0xbda2e6f6	-0.079542086
204	0xbd835d86	-0.064143226
205	0x3d998b9f	0.07497334
206	0xbdb6cf81	-0.08926297
207	0x3db200e6	0.086915776
208	0xbdba0588	-0.09083086
209	0x3daa7cb0	0.083245635
210	0xbdad2c0b	-0.08455666
211	0x3c72fa3b	0.014830167
212	0x3d221b39	0.039576743
213	0x3db4486a	0.088028744
214	0x3da729e2	0.081622854
215	0xbcc0e871	-0.023548337
216	0x3d75fc98	0.060055345
217	0xbd7be77f	-0.06150007
218	0x3ce45385	0.027871856
219	0x3d96e24a	0.0736738
220	0xbd88bae6	-0.06676273
221	0xbaa5292d	-0.0012600772
222	0x3db0eb12	0.08638586
223	0x3da0970e	0.078413114
224	0x3db73184	0.08944991
225	0x3d32b813	0.043632578
226	0x3d27857a	0.040898778
227	0xbdb463f2	-0.088081256
228	0xbd4095dd	-0.04701792
229	0xbcaed3ba	-0.021341193
230	0xbdb00cd6	-0.08596198
231	0x3d5201ec	0.051271364
232	0xbc94cfbd	-0.018165464
233	0xbdac3976	-0.08409397
234	0x3d7f0f6a	0.06227056
235	0xbd028c35	-0.031871993
236	0x3d56b02e	0.05241411
237	0xbdc217d7	-0.09477203
238	0x3d4a9305	0.049456615
239	0xbdc3a62a	-0.09553178
240	0x3bdbf16a	0.0067121284
241	0x3da4b15a	0.080416396
242	0xbdce50ad	-0.100739814
243	0xbd990c47	-0.07473045
244	0x3be2bc3d	0.0069194124
245	0xbd1e51b4	-0.038652137
246	0xbc47a33d	-0.012184915
247	0x3d87c618	0.0662958
248	0x3dc757da	0.09733553
249	0x3d5f40dc	0.054505214
250	0xbd3073a3	-0.04307903
251	0xbda27374	-0.07932177
252	0xbd019802	-0.031639107
253	0x3d2353f4	0.039874986
254	0x3d67210c	0.056428
255	0xbd35b5d3	-0.044362854

enc_f.lstm.weight_ih_l0 f4 [384, 4]
0	0xbc3f167c	-0.011663076
1	0x3d53c8f8	0.05170533
2	0x3db61115	0.08889977
3	0x3d257c5b	0.040401798
4	0x3db8e92d	0.0902885
5	0xbdc592e9	-0.096471615
6	0xbcf32d3f	-0.029684661
7	0xbdb6ae1e	-0.08919929
8	0xbd925b8b	-0.07146367
9	0x3d60bda7	0.054868367
10	0x3d39bdd7	0.04534706
11	0x3d6ec67f	0.05829477
12	0x3caef185	0.0213554
13	0x3d6465eb	0.05576126
14	0x3d85acab	0.065270744
15	0xbd2d8f3a	-0.04237292
16	0x3d8598d2	0.06523289
17	0xbdbdf286	-0.09274773
18	0x3db66083	0.08905127
19	0xbd25199f	-0.040307637
20	0x3d845c30	0.06462896
21	0xbbef1392	-0.007296034
22	0x3c34bc69	0.011031249
23	0x3d997b27	0.074941926
24	0x3ae31da1	0.0017327556
25	0xbdcaef2a	-0.09908898
26	0x3cc843ac	0.024446331
27	0x3d51f55c	0.051259384
28	0x3ca9b216	0.0207148
29	0xbc5871eb	-0.013210754
30	0xbda37731	-0.07981718
31	0x3ad935a9	0.0016571778
32	0xbc54161f	-0.012944727
33	0xbb53f71a	-0.003234333
34	0xbcf69afc	-0.0301032
35	0xbd8b3e9a	-0.0679905
36	0x3dcc1875	0.09965602
37	0xbd5a31f1	-0.053270284
38	0x3d680ba5	0.05665173
39	0x3dd161c9	0.10223729
40	0x3d042603	0.032262813
41	0x3d9378ef	0.072008006
42	0xbc9ff89e	-0.01952773
43	0x3d938d25	0.072046556
44	0xbdb0c606	-0.0863152
45	0x3da28f58	0.07937497
46	0x3d0e1064	0.0346836
47	0x3c432b55	0.011912187
48	0x3cb03e9a	0.021514226
49	0xbda62f76	-0.08114521
50	0xbd868191	-0.065676816
51	0xbd2f1c39	-0.042751525
52	0x3b13d31a	0.0022556246
53	0x3cdfbb20	0.027310908
54	0x3d0aeefa	0.033919312
55	0x3d6d106d	0.057876993
56	0x3c83f34d	0.016107226
57	0xbd217a46	-0.03942325
58	0x3d14bf87	0.036315467
59	0xbd4c0305	-0.049807567
60	0xbdb266df	-0.08711027
61	0xbcff2b37	-0.031148536
62	0xbd3b3d80	-0.045712948
63	0x3d266cc9	0.04063109
64	0xbcb075f7	-0.021540625
65	0x3d5a71d0	0.053331196
66	0xbd6ace32	-0.05732555
67	0x3be11f7a	0.0068702074
68	0x3da858da	0.08220072
69	0x3ccf7b1f	0.025327263
70	0xbda577aa	-0.08079465
71	0xbcfdc6df	-0.030978618
72	0xbd8a916f	-0.067660205
73	0xbd4c8ea5	-0.049940724
74	0xbd67e355	-0.056613285
75	0x3d29bf00	0.041441917
76	0x3db9cc01	0.09072114
77	0xbc0385ff	-0.008027553
78	0x3d802e0d	0.062587835
79	0x3d22385f	0.03960454
80	0xbd579fd3	-0.052642655
81	0x3b938c0a	0.004502778
82	0xbd939984	-0.07207015
83	0x3dc36176	0.095400736
84	0xb9db2192	-0.00041795947
85	0xbdadcea4	-0.08486679
86	0x3bdcc98f	0.006737895
87	0x3d8f07d2	0.069839135
88	0x3ce0f180	0.027458906
89	0x3c159ae9	0.009131172
90	0x3db3f55f	0.08787035
91	0xbd4851c5	-0.048906107
92	0xbdbcf66f	-0.09226691
93	0xbd0d5641	-0.034506086
94	0xbdbd383d	-0.09239242
95	0xbd0a4cee	-0.033764772
96	0xbca8b138	-0.020592317
97	0x3c26cd5e	0.010180799
98	0xbba8a6bd	-0.00514683
99	0x3cf91b11	0.030408414
100	0x3dc29e52	0.095028535
101	0xbd6f9a38	-0.058496684
102	0x3d74d19b	0.059770208
103	0xbc9aa75e	-0.018878635
104	0x3d7ab74a	0.061209954
105	0x3d920aaa	0.0713094
106	0x3d9ef285	0.07761101
107	0xbcf6effd	-0.030143732
108	0x3c7e6a7d	0.0155283185
109	0x3c87a2c1	0.0165571
110	0xbdd3a517	-0.10334223
111	0xbdb2e4b6	-0.087350294
112	0xbda3a9d3	-0.07991376
113	0xbd97609a	-0.07391472
114	0x3d484308	0.04889205
115	0xbd0023a5	-0.031283993
116	0xbd884924	-0.066545755
117	0x3d6f060f	0.058355387
118	0x3c91a9a5	0.017781088
119	0xbdb119b0	-0.086474776
120	0x3d7be4ff	0.061497685
121	0x3c3efd27	0.011657036
122	0x3c8b405c	0.016998462
123	0x3d9182ba	0.07105012
124	0x3d08addf	0.03336894
125	0xbd8c239a	-0.06842728
126	0xbda8a881	-0.082352646
127	0xbda09963	-0.07841756
128	0x3ba23532	0.004950189
129	0x3dc86aaf	0.09785973
130	0x3d9ad36e	0.07559858
131	0x3dc0fc67	0.09423142
132	0xbd82d452	-0.06388153
133	0x3dc1398a	0.09434803
134	0xbcf48ea3	-0.02985317
135	0xbd012451	-0.031528775
136	0xbdc46d7b	-0.09591194
137	0x3d06ec56	0.03294023
138	0x3dc0f9c2	0.094226375
139	0xbcfe95e0	-0.031077325
140	0x3ca96ffa	0.020683277
141	0xbdaa16f7	-0.083051614
142	0x3d5868d1	0.052834336
143	0xbd0596db	-0.03261457
144	0x3d7cea67	0.06174698
145	0xbaf1a435	-0.0018435778
146	0x3d38f68a	0.045156993
147	0xbd23b3ef	-0.03996652
148	0x3d9d6c18	0.07686633
149	0x3ca16038	0.019699201
150	0xbda1749a	-0.07883568
151	0x3d899560	0.06717944
152	0xbd9516e2	-0.07279755
153	0xbd7ac879	-0.061226342
154	0x3cc9c576	0.02463029
155	0x3d76d851	0.06026489
156	0xbd565274	-0.052324727
157	0x3d72b568	0.059255034
158	0x3d45f851	0.048332516
159	0x3d9abcd5	0.07555548
160	0xbdb63987	-0.08897691
161	0xbbaba656	-0.0052383346
162	0x3cba3871	0.022731991
163	0x3dc4403e	0.09582566
164	0xbd20be8f	-0.03924423
165	0xbc8c94ad	-0.017160738
166	0x3d760c72	0.060070463
167	0xbd48f837	-0.04906484
168	0xbd0b452f	-0.034001525
169	0xbdbb733d	-0.09152839
170	0x3d05f18e	0.032701068
171	0xbc08f4da	-0.008359158
172	0x3d0fcc37	0.035106864
173	0xbafc10fa	-0.0019231134
174	0x3cc4b7de	0.024013456
175	0x3cc5e2e4	0.024156041
176	0xbdaddcac	-0.084893554
177	0x3d8b9653	0.068157814
178	0x3c95dfb1	0.018295141
179	0x3d84a79b	0.06477281
180	0xbdb28d49	-0.08718354
181	0xbc859f82	-0.01631141
182	0xbd22ac66	-0.039715193
183	0x3d99ed30	0.07515943
184	0xbd472efd	-0.048628796
185	0x3dd3b5ad	0.10337386
186	0xbcf3de20	-0.029769003
187	0xbdb63f08	-0.08898741
188	0xbc8db5cc	-0.017298602
189	0x3d50760b	0.050893825
190	0xbdb15439	-0.08658642
191	0xbdc9bf6d	-0.09850965
192	0x3d6cec27	0.0578424
193	0x3d8eeebf	0.06979131
194	0xbdcfe591	-0.10151208
195	0xbbf905a2	-0.0075995484
196	0x3d88e854	0.06684938
197	0x3c620e2a	0.013797322
198	0x3d8d5f7f	0.0690298
199	0xbd9c4e92	-0.076321736
200	0xbd8e094c	-0.06935367
201	0x3db2cc7f	0.08730411
202	0x3d47e31c	0.048800573
203	0x3d25c06f	0.040466722
204	0x3cf80d63	0.03027982
205	0xbd3dc46e	-0.046329908
206	0xbd99efd6	-0.07516448
207	0xbd43b3bc	-0.04777883
208	0x3da12ba9	0.07869656
209	0x3d85f92f	0.065416686
210	0xbae08c25	-0.001713161
211	0xbdb28953	-0.08717599
212	0xbd81a0a5	-0.06329469
213	0xbd9b09c5	-0.07570223
214	0xbcb6068f	-0.022219924
215	0xbc123a9f	-0.008925109
216	0xbdb71b77	-0.089407854
217	0xbd28dca2	-0.041226037
218	0x3d12d8c6	0.035851263
219	0x3ca8ee0c	0.020621322
220	0x3d2adab9	0.041712496
221	0x3d9d0fa9	0.076690026
222	0xbda09a84	-0.078419715
223	0x3db6c179	0.08923621
224	0xbd99a250	-0.07501662
225	0x3d448b81	0.047984604
226	0xbdca621e	-0.098819956
227	0xbd6ee88b	-0.05832724
228	0xbd60c9b8	-0.054879874
229	0x39883380	0.00025978312
230	0x3d44c94b	0.04804353
231	0xbd2ab209	-0.041673694
232	0x3d863e68	0.06554872
233	0xbd04d914	-0.032433584
234	0x3d90f395	0.070777096
235	0x3dc34d65	0.09536246
236	0x3da99c69	0.08281786
237	0xbd95d62d	-0.073162414
238	0xbd290614	-0.041265562
239	0x3dbd0030	0.092285514
240	0x3ceb3859	0.028713392
241	0xbb842572	-0.004032784
242	0x3dbaab5f	0.09114718
243	0x3d730099	0.05932674
244	0x3d9e2fae	0.07723938
245	0x3d01af1c	0.031661138
246	0xbd2e21cb	-0.042512696
247	0x3c46fa5f	0.012144654
248	0x3c842647	0.016131533
249	0x3d8894f7	0.06669038
250	0xbda70aa0	-0.081563234
251	0x3d9cfa80	0.076649666
252	0xbc0d5f40	-0.008628666
253	0xbcd3da44	-0.025860913
254	0xbd58cfea	-0.052932657
255	0xbdcbef85	-0.09957794

enc_f.lstm.weight_hh_l0 f4 [384, 96]
0	0xbc005679	-0.007833117
1	0x3dd407b8	0.10353035
2	0x3d734da8	0.05940023
3	0x3dced815	0.10099808
4	0x3d1fb4fd	0.038990963
5	0xbd65ed65	-0.0561346
6	0xbdb49033	-0.08816566
7	0xbd5c81f9	-0.05383489
8	0xbd7e5837	-0.062095847
9	0xbd28da30	-0.041223705
10	0x3b45026c	0.0030061258
11	0xbd26cb4c	-0.040721223
12	0xbd23537b	-0.039874535
13	0x3d054070	0.032532156
14	0xbd97303e	-0.07382248
15	0xbc4260dc	-0.011863913
16	0xbdc3be49	-0.095577784
17	0xbd8851db	-0.06656238
18	0x3d59aa33	0.05314083
19	0xbdd72063	-0.10504224
20	0xbd9c137b	-0.07620903
21	0xbcf3435f	-0.029695211
22	0xbd4bfab0	-0.04979962
23	0xbc9a4648	-0.01883234
24	0xbd924019	-0.07141132
25	0xbc80d614	-0.01572708
26	0x3db221c5	0.08697847
27	0x3ca282af	0.019837705
28	0xbd4dab54	-0.05021222
29	0x3d9c2e71	0.076260455
30	0xbd4bb579	-0.049733613
31	0x3d9fee33	0.07809105
32	0xbcc5d03a	-0.024147142
33	0x3d4430a8	0.047897965
34	0xbd6108d8	-0.054940075
35	0x3d984ebb	0.07436892
36	0x3bc5f87d	0.006041585
37	0xbc3aea34	-0.011408377
38	0x3d57bace	0.052668385
39	0x3d94c2de	0.072637305
40	0xbc18eb08	-0.00933338
41	0x3d3d9e51	0.04629356
42	0xbda13144	-0.07870725
43	0x3d0ac230	0.033876598
44	0x3d99ffd6	0.075195
45	0xbb174f85	-0.0023088169
46	0xbd683290	-0.056688845
47	0x3da44ff6	0.08023064
48	0x3d85fc74	0.06542292
49	0xbc9ab920	-0.018887103
50	0x3dc1c451	0.094612725
51	0xbd7ce7c1	-0.061744455
52	0xbdd0fba0	-0.10204244
53	0x3cd1d3a6	0.025613617
54	0x3dc071c9	0.09396703
55	0x3b8f0746	0.0043648807
56	0x3ced8b09	0.028996961
57	0x3db0cfe7	0.08633404
58	0x3dbbde2a	0.09173234
59	0x3d50fa37	0.051019873
60	0xbbffc09c	-0.0078049432
61	0xbd068b91	-0.032847945
62	0x3dc4a4d6	0.096017525
63	0x3cf99509	0.030466573
64	0x3d837bb9	0.064200826
65	0xbca492cf	-0.020089535
66	0x3d3c0f2b	0.045912903
67	0x3d345def	0.044034895
68	0xbdbc7941	-0.09202815
69	0x3d2187a1	0.039435986
70	0xbdbaeb10	-0.09126866
71	0x3daa52ef	0.083165996
72	0xbd7f3042	-0.06230188
73	0xbc8ee4ea	-0.01744314
74	0x3dadc614	0.08485046
75	0x3daed17b	0.08536049
76	0x3bf734c1	0.0075441306
77	0x3d1d536c	0.038409635
78	0x3d70d95e	0.058801048
79	0x3d9b7e16	0.07592408
80	0x3c6e6864	0.014551256
81	0x3d4d9815	0.050193865
82	0xbcd09ca3	-0.025465315
83	0xbd25c93d	-0.04047512
84	0x3d10528f	0.035234984
85	0x3db3a893	0.08772387
86	0x3d4d9285	0.05018856
87	0x3d0223f7	0.03177258
88	0x3d13ce6c	0.03608553
89	0xbdad9787	-0.08476167
90	0xbb668de6	-0.0035179793
91	0xbd9ab496	-0.07553975
92	0xbd3fa5b3	-0.046788882
93	0x3cc11b22	0.023572508
94	0xbdbf0054	-0.093262345
95	0x3d99523b	0.07486387
96	0xbd58ee44	-0.052961603
97	0xb9e5b64d	-0.00043814108
98	0x3d3368a9	0.043800984
99	0x3d9b8dc7	0.07595401
100	0x3d5e4782	0.054267414
101	0xbdd21f11	-0.10259832
102	0x3d965ed3	0.07342305
103	0xbcdd8382	-0.027040247
104	0xbd536cc2	-0.05161739
105	0x3d07c780	0.033149242
106	0x3c8c7a37	0.01714812
107	0xbc985e54	-0.018599667
108	0xbc2be0be	-0.010490594
109	0xbc989a66	-0.01862831
110	0x3d7ccf37	0.061721053
111	0xbbc1cc60	-0.005914256
112	0x3d2aa329	0.041659508
113	0xba803b7e	-0.0009783355
114	0x3d875cc6	0.06609492
115	0xbdbb3129	-0.09140236
116	0xbd003e4f	-0.031309422
117	0xbbb2c851	-0.0054560085
118	0x3dad0226	0.084476754
119	0x3d49b74f	0.049247082
120	0x3d7f8c68	0.06238976
121	0xbce3f38e	-0.027826097
122	0x3cd0364c	0.025416516
123	0x3d826e42	0.06368686
124	0x3da2bb4c	0.0794588
125	0x3d2aede3	0.041730773
126	0xbd2959ce	-0.04134541
127	0x3d010e73	0.03150792
128	0x3d1ad722	0.037802823
129	0x3d7cf61f	0.061758157
130	0x3d5e2276	0.054232083
131	0xbd458a2a	-0.048227467
132	0x3d03cb41	0.03217626
133	0x3d1f673c	0.03891681
134	0x3cf58d02	0.029974464
135	0x3c60e1d2	0.013725715
136	0x3bbed3df	0.005823597
137	0x3da41ae0	0.080129385
138	0xbd8e49ae	-0.06947647
139	0x3d83eaa5	0.06441239
140	0x3d9f1ee4	0.07769564
141	0x3da3996b	0.079882465
142	0xbda673e3	-0.081275724
143	0xbd01b37f	-0.03166532
144	0x3d6a0504	0.05713369
145	0x3d848d5e	0.06472276
146	0x3d154832	0.036445804
147	0xbdc6eedc	-0.097135276
148	0xbdba92eb	-0.09110054
149	0x3d8a3b00	0.067495346
150	0xbd39ae6f	-0.04533237
151	0xbc5adc5b	-0.013358201
152	0xbda1e9f7	-0.079059534
153	0xbc8c898a	-0.017155427
154	0x3dc5b570	0.09653747
155	0x3c15a991	0.009134666
156	0xbdc40d13	-0.09572806
157	0xbca49c7a	-0.020094145
158	0x3dce8a04	0.10084918
159	0x3dce8d0f	0.100854985
160	0x3d0d2236	0.034456454
161	0xbd894cb1	-0.06704081
162	0x3cfbfa61	0.030759038
163	0x3d2fd6bd	0.0429294
164	0xbd96b832	-0.07359351
165	0x3d921138	0.071321905
166	0x3c1c8a96	0.009554526
167	0xbdc67b5b	-0.09691497
168	0xbdc82b52	-0.09773888
169	0xbc7e21f6	-0.015511027
170	0x3daf1b6d	0.08550153
171	0xbbd78726	-0.0065773902
172	0x3ce894c0	0.028391242
173	0xbd74b7d0	-0.05974561
174	0x3dcedf71	0.10101212
175	0x3d88390d	0.066515066
176	0xbd2ecef5	-0.04267784
177	0xbd60222b	-0.054720085
178	0xbbde676e	-0.006787232
179	0xbda96004	-0.08270267
180	0x3cef82ad	0.029237116
181	0x3d700eb8	0.058607787
182	0x3c3eabb1	0.011637614
183	0xbcd7d840	-0.026348233
184	0xbd1ebdcd	-0.038755227
185	0x3d9997c6	0.074996516
186	0xbd909922	-0.07060458
187	0x3da47204	0.08029559
188	0xbd797b0c	-0.060908362
189	0x3c13a9fc	0.009012695
190	0xbdbf50d9	-0.09341592
191	0xbd159e33	-0.036527824
192	0xbd75ef9c	-0.060042962
193	0x3dcff167	0.10153466
194	0x3dd039a1	0.10167242
195	0x3d8988ab	0.067155205
196	0x3c803ffd	0.015655512
197	0x3ce50a4d	0.027959013
198	0xbdc4eabc	-0.096150845
199	0xbbde97ce	-0.006792999
200	0xbc276c25	-0.010218655
201	0xbd07b92f	-0.03313559
202	0x3d6c7429	0.057727966
203	0x3d8346c6	0.06409983
204	0xbd5a95e9	-0.05336562
205	0x3d2aac78	0.041668385
206	0x3d68f5a3	0.056874882
207	0xbd99d046	-0.07510428
208	0xbca929f5	-0.02064989
209	0xbdc33ef7	-0.09533494
210	0x3cb72db8	0.022360668
211	0xbad85803	-0.0016505722
212	0xbc277734	-0.010221291
213	0x3d23a9a1	0.039956693
214	0x3c24073c	0.01001149
215	0x3d3efa1e	0.04662525
216	0xbcdbbdfb	-0.026823988
217	0x3c975799	0.018474387
218	0xbcc6660c	-0.024218582
219	0xbd9eaa94	-0.07747379
220	0xbdb62de2	-0.0889547
221	0x3d22cf7b	0.03974865
222	0xbca4940c	-0.020090126
223	0xbd300865	-0.042976756
224	0xbd03d919	-0.032189462
225	0x3cb56b13	0.022145784
226	0x3c8dc16a	0.017304141
227	0xbd6bc9aa	-0.05756537
228	0x3d14cdcc	0.036329076
229	0x3bf09935	0.0073424825
230	0x3cc8818b	0.024475833
231	0x3d7b2d65	0.06132259
232	0xbd847472	-0.06467523
233	0x3d4508b0	0.04810399
234	0xbbcade42	-0.006191046
235	0xbd3e6a79	-0.04648826
236	0x3c5cee31	0.013484524
237	0x3d9fe694	0.07807651
238	0xbd246cee	-0.040142946
239	0xbdbd947e	-0.09256838
240	0xbdc711a6	-0.09720163
241	0xbd073ad1	-0.033015076
242	0x3c281fcc	0.010261487
243	0xbd6a9b26	-0.057276867
244	0xbd8a4eb8	-0.06753296
245	0x3ccea023	0.025222844
246	0x3c9aca6e	0.018895354
247	0xbd204932	-0.039132304
248	0xbd824824	-0.06361416
249	0x3cdbe85b	0.026844194
250	0x3db49082	0.08816625
251	0x3d93e438	0.07221264
252	0x3d151bad	0.036403347
253	0x3cd0f8bc	0.02550923
254	0x3d3911fa	0.04518316
255	0xbc060ccd	-0.008181763

enc_f.lstm.bias_ih_l0 f4 [384]
0	0xbd2796b6	-0.040915214
1	0xbc873303	-0.016503816
2	0x3cdd6945	0.027027735
3	0x3d8fd3bd	0.07022808
4	0x3d01c019	0.03167734
5	0x3d7efb5d	0.062251437
6	0x3d7438a9	0.059624348
7	0xbd8a1c13	-0.06743636
8	0x3d9221dc	0.071353644
9	0xbaf5af94	-0.0018744343
10	0xbdc59cb3	-0.09649029
11	0x3ce214e0	0.027597845
12	0x3d4cb0fd	0.049973477
13	0x3c74a759	0.014932477
14	0x3d978c19	0.073997684
15	0x3d2267c7	0.03964975
16	0xbd48ecf3	-0.049054097
17	0x3dc09c38	0.09404796
18	0xbcefc635	-0.029269317
19	0x3c858c81	0.016302349
20	0x3d143811	0.03618628
21	0x3db01449	0.08597619
22	0xbc489c4d	-0.012244296
23	0xbdba8aeb	-0.09108528
24	0x3dabbec3	0.08385994
25	0xbd9a610c	-0.075380415
26	0x3d0f339a	0.03496132
27	0xbd6fb036	-0.058517657
28	0xbd9f3650	-0.07774031
29	0xbd91a812	-0.07112135
30	0xbc066e6e	-0.008205039
31	0xbc93319f	-0.017967997
32	0xbcfe4bbc	-0.031041972
33	0x3cde9826	0.02717216
34	0xbd34d402	-0.0441475
35	0x3d9858de	0.07438825
36	0x3d69cc74	0.057079747
37	0x3d7588ec	0.059945032
38	0x3d167bcc	0.036739156
39	0x3c9ff3fb	0.019525519
40	0xbd41b8d1	-0.047295395
41	0xbdbf4fbd	-0.09341381
42	0xbd113488	-0.03545049
43	0xbcd6e36a	-0.026231486
44	0x3d879f78	0.06622213
45	0x3d012c41	0.031536344
46	0x3cd0fce6	0.025511216
47	0xbcae53ed	-0.021280253
48	0xbd832e31	-0.06405295
49	0x3d9659f2	0.073413745
50	0xbd18c584	-0.03729774
51	0xbc268f02	-0.010165932
52	0x3da473f6	0.0802993
53	0xbb16ac4a	-0.0022990876
54	0x3c37a0b8	0.011207752
55	0x3db5650b	0.08857163
56	0xbd1157f2	-0.03548426
57	0x3d8a3e1e	0.06750129
58	0x3cc5573c	0.024089448
59	0xbd54e71c	-0.051978216
60	0x3da9d0b6	0.082917616
61	0xbd910287	-0.0708056
62	0xbd81d841	-0.06340075
63	0x3d3325a9	0.043737087
64	0x3d976f87	0.07394319
65	0xbc616bde	-0.013758628
66	0x3d846546	0.06464629
67	0xbd9cb297	-0.07651251
68	0xbd8f758d	-0.07004843
69	0x3d93f013	0.07223525
70	0xbd44318c	-0.047898814
71	0x3db39e7c	0.08770463
72	0x3c25b0a5	0.010112916
73	0xba56e748	-0.0008197916
74	0x3dac3380	0.0840826
75	0xbca4c138	-0.020111665
76	0x3d0fa8ee	0.035073213
77	0x3d695c75	0.05697294
78	0x3d5693c1	0.052387003
79	0x3d83dc49	0.064385004
80	0xbc89b0d1	-0.016807945
81	0x3dbc619f	0.09198307
82	0xbd856e70	-0.06515205
83	0x3d71ce25	0.059034485
84	0x3db6233b	0.088934384
85	0xbce234ee	-0.02761313
86	0xbcf9c2e0	-0.030488431
87	0xbd3adb6f	-0.045619424
88	0xbcd23761	-0.025661172
89	0xbda8a8d3	-0.08235326
90	0xbb39a6ee	-0.0028328258
91	0xbda94660	-0.08265376
92	0xbd92be66	-0.07165222
93	0xbdb67a10	-0.0891
94	0xbdb467c3	-0.088088535
95	0x3da91aa3	0.08257034
96	0xbabd7b9c	-0.0014456394
97	0xbd80c394	-0.062873036
98	0xbd1ef737	-0.03880998
99	0x3b6fa022	0.0036563952
100	0x3db02aa5	0.08601884
101	0xbcbc4382	-0.022981409
102	0xbcdabae1	-0.026700439
103	0x3daba0de	0.08380292
104	0x3ba895fb	0.005144832
105	0x3bafbcc0	0.005363077
106	0xbca3308c	-0.01992061
107	0x3d9a377d	0.07530115
108	0x3db5e687	0.0888186
109	0xbd997f6f	-0.07495009
110	0x3d500d34	0.05079384
111	0xbcfb8c1a	-0.030706454
112	0xbd4ffd7f	-0.050778862
113	0xbc37a1a5	-0.011207973
114	0x3d5fcf61	0.05464113
115	0x3db4b6a1	0.08823896
116	0xbda55ed3	-0.08074727
117	0x3d9f933b	0.07791754
118	0x3b544fe0	0.0032396242
119	0x3cb80d3d	0.02246725
120	0xbd7ee330	-0.06222838
121	0x3d2ecb24	0.0426742
122	0x3d1ace66	0.037794493
123	0x3dacb3ab	0.084327064
124	0xbd1ab822	-0.03777326
125	0xbdc3b8fe	-0.09556769
126	0xbd61db19	-0.05514059
127	0xbacc6df9	-0.0015596739
128	0xbbe5232f	-0.0069927196
129	0x3dc560cb	0.096376024
130	0x3cf60e49	0.030036109
131	0x3ccf18ec	0.025280438
132	0xbcc193d4	-0.02363006
133	0x3d5d2558	0.053990692
134	0xba313bb6	-0.0006760912
135	0xbdd28a67	-0.102803044
136	0xbcdf864a	-0.027285714
137	0xbd251eb8	-0.0403125
138	0x3dc608b5	0.096696295
139	0xbdc48aa2	-0.095967546
140	0xbda1fa21	-0.079090364
141	0x3db75d08	0.08953291
142	0xbadeaae4	-0.0016988185
143	0x3c6c39c8	0.014418073
144	0xbd05ec04	-0.032695785
145	0x3d6cc0bb	0.05780099
146	0x3d781f0c	0.060576484
147	0x3d13881c	0.036018476
148	0xbb91449e	-0.0044332286
149	0x3d118b28	0.0355331
150	0xbd3cdc8a	-0.04610876
151	0x3dbc9f9a	0.09210129
152	0x3d08679d	0.03330194
153	0x3c72f5b7	0.014829091
154	0x3ca6ebc4	0.020376094
155	0x3cdd08ee	0.026981797
156	0xbdc7538e	-0.09732734
157	0xbdbfef1f	-0.093717806
158	0xbca5cc11	-0.020238908
159	0x3d29a543	0.04141737
160	0xbd8260eb	-0.06366142
161	0x3d385cee	0.0450105
162	0xbd53e3f8	-0.05173108
163	0x3d9d603a	0.076843694
164	0x3d4d5ee4	0.050139323
165	0xbd27138f	-0.040790137
166	0x3d9ac2a6	0.075566575
167	0x3d27eedc	0.04099928
168	0xbc9f0dca	-0.019415755
169	0x3d07bdae	0.033139877
170	0x3dd33a3b	0.10313841
171	0xbd48676c	-0.048926756
172	0xbc194353	-0.00935443
173	0x3dbf9054	0.093537
174	0x3da835bd	0.08213375
175	0xbd59de0e	-0.053190283
176	0xbcdb7a9f	-0.026791869
177	0xbd7cb0e2	-0.061692126
178	0x3d49ae90	0.04923874
179	0x3d297f09	0.041380916
180	0x3da1ec92	0.0790645
181	0x3dac1e3d	0.08404205
182	0x3dae86b2	0.08521785
183	0x3ab3e18f	0.0013723838
184	0xbcbecaa0	-0.023289979
185	0x3d57efb6	0.05271884
186	0x3c118a24	0.008883033
187	0x3d0f370c	0.034964606
188	0xbb6d68a6	-0.0036225705
189	0x390921ac	0.00013077882
190	0x3da80f69	0.08206064
191	0x3d848b56	0.06471889
192	0xbda16f3f	-0.07882547
193	0x3dd39286	0.103306815
194	0xbd1fa3fa	-0.03897474
195	0xbd572843	-0.05252863
196	0x3da3c64e	0.07996808
197	0xbdbb59d4	-0.09147993
198	0xbd514340	-0.051089525
199	0x3d310b5f	0.043223735
200	0xbd045a0f	-0.03231245
201	0xbd0b01d9	-0.03393731
202	0x3dc2d447	0.09513145
203	0xbd5b5488	-0.053547412
204	0x3d32a319	0.043612573
205	0x3cb75992	0.022381578
206	0x3cc21913	0.023693597
207	0xbc315342	-0.010823073
208	0xbda2b99a	-0.07945557
209	0x3dc79a21	0.09746195
210	0xbdc2e830	-0.095169425
211	0xbda7fce0	-0.08202529
212	0x3d2ff6f6	0.04296013
213	0x3d2008b8	0.039070815
214	0xbcefe27f	-0.029282806
215	0xbd4d7e26	-0.050169133
216	0x3d9208a7	0.071305566
217	0x3c4a946e	0.01236449
218	0xbd9123fc	-0.070869416
219	0x3ddc622e	0.10760914
220	0x3dcd2626	0.10017042
221	0x3d3eb429	0.046558533
222	0xbbf3ac9a	-0.007436347
223	0x3c0825ed	0.008309823
224	0xbcac4164	-0.021027274
225	0x3d1dc75f	0.038520213
226	0x3d7a1ba9	0.061061535
227	0xbaf78f68	-0.0018887343
228	0x3cc68b5b	0.024236372
229	0xbd0d95d8	-0.03456673
230	0xbd8dab75	-0.069174685
231	0xbdbcdca7	-0.092217736
232	0x3d927b3a	0.0715241
233	0xbda5c746	-0.08094649
234	0x3d37c2d3	0.044863533
235	0x3dae1223	0.08499553
236	0x3da0c339	0.07849736
237	0xbd1f935c	-0.038958892
238	0xbd9ff15f	-0.0780971
239	0xbc44d906	-0.012014633
240	0xbdc5675c	-0.09638855
241	0x3db47b46	0.08812575
242	0x3dc01289	0.09378535
243	0xbdba41fa	-0.09094615
244	0xbd06603c	-0.03280662
245	0x3da64e93	0.081204556
246	0x3dbaac65	0.09114913
247	0x3d96413f	0.073366635
248	0xbcb249af	-0.02176365
249	0x3d1c6b12	0.038188048
250	0x3d8343cc	0.064094156
251	0xbdc67169	-0.096896
252	0x3d8868e2	0.0666063
253	0x3c7bfd65	0.015380238
254	0x3db8a678	0.090161264
255	0xbb962b3f	-0.004582792
