TR_LSTM3/_models/삼성전자(005930)_20250911.pt (torch, 831847 bytes, 20 tensors)

enc_p.lstm.weight_ih_l0 f4 [384, 6]
0	0xbdc4b8f2	-0.09605588
1	0x3d50eeb1	0.051008884
2	0xbdc2f2d1	-0.0951897
3	0x3d6667ff	0.056251522
4	0x3ce2c4a3	0.027681654
5	0xbd928f78	-0.07156271
6	0x3d94f294	0.072728306
7	0x3ce89583	0.028391605
8	0xbdb5902d	-0.0886539
9	0x3d9fd69b	0.078046046
10	0x3d9a32ce	0.075292215
11	0x3cfe7081	0.031059505
12	0x3dcd1824	0.1001437
13	0xbd28dfa7	-0.041228916
14	0x3d2cb964	0.04216899
15	0xbdd2c0a8	-0.102906525
16	0xbcbb9dc3	-0.022902375
17	0x3918dc6a	0.0001457796
18	0xbd8c8970	-0.068621516
19	0xbd3829c5	-0.04496171
20	0xbd82837a	-0.063727334
21	0x3c91f119	0.01781516
22	0xbdc8e667	-0.09809571
23	0xbdb78562	-0.08960988
24	0xbca9e663	-0.02073974
25	0x3d1c6e72	0.038191266
26	0x3d84fada	0.06493159
27	0xbd6e9abc	-0.058253035
28	0xbad41b5b	-0.0016182469
29	0x3d10baab	0.03533427
30	0xbb9a6c41	-0.004712612
31	0xbc8c102f	-0.01709756
32	0xbd18fe31	-0.03735179
33	0xbbfa8cd8	-0.0076461844
34	0xbdc1e9ff	-0.09468459
35	0x3db50d10	0.08840382
36	0xbd3bb4e4	-0.045826808
37	0x3dbdc7fd	0.0926666
38	0x3dab538a	0.08365543
39	0xbc4445e9	-0.0119795585
40	0x3d2b915a	0.041886665
41	0x3d86cda6	0.06582193
42	0x3da38340	0.07984018
43	0xbc933c79	-0.017973172
44	0xbd5ac616	-0.053411566
45	0x3c40cf5b	0.011768187
46	0xbd01b58d	-0.03166728
47	0x3dbd2637	0.092358045
48	0xbb83bc52	-0.0040202523
49	0x3d702425	0.05862822
50	0xbd30c6f9	-0.043158505
51	0x3b31ef16	0.0027150563
52	0x3dc22ab1	0.09480799
53	0xbb86f84e	-0.0041189557
54	0x3ca91c65	0.020643422
55	0x3daffa3b	0.085926495
56	0x3d8a825d	0.06763146
57	0xbd34500e	-0.04402166
58	0x3d4c4bb4	0.049876884
59	0xbd9a49a2	-0.075335756
60	0x3bc50a9f	0.006013229
61	0x3d74525f	0.059648868
62	0x3d26a546	0.04068496
63	0xbd346d45	-0.04404952
64	0x3d992cb6	0.07479231
65	0xbd49f0e1	-0.049301986
66	0xbd85447b	-0.06507202
67	0xbb19e9cc	-0.00234853
68	0x3db59784	0.0886679
69	0xbd8dcb37	-0.06923526
70	0x3ce59077	0.028022988
71	0x3cfcc22d	0.030854309
72	0x3dbf5734	0.093428046
73	0x3dccb200	0.09994888
74	0x3da5a84f	0.08088743
75	0x3cb2413a	0.021759618
76	0x3d2fbafa	0.042902924
77	0x3cee2646	0.029070985
78	0x3d8676cf	0.0656563
79	0x3ca74554	0.0204188
80	0x3c9700a9	0.018432932
81	0xbd9b9c77	-0.07598203
82	0xbc8af715	-0.016963521
83	0x3d1513fb	0.036396008
84	0x3cfaab3f	0.030599235
85	0x3d883b65	0.066519536
86	0x3cd3c40a	0.025850315
87	0xbd3321be	-0.04373335
88	0xbd6db914	-0.058037832
89	0x3db64052	0.08898987
90	0xbdc9e78f	-0.098586194
91	0x3dad6a5d	0.08467553
92	0x3d844250	0.064579606
93	0xbcffa374	-0.03120587
94	0x3c1c5a32	0.009542989
95	0xbdcd3801	-0.100204475
96	0xbc855ef6	-0.016280632
97	0x3d2a4c0a	0.041576423
98	0xbd6bc8ea	-0.057564653
99	0x3d91ac8f	0.07112991
100	0xbce4b446	-0.027917992
101	0x3d82beab	0.06384023
102	0xbdd29e65	-0.102841176
103	0xbceb45ce	-0.028719809
104	0xbd779122	-0.060441144
105	0xbda0d852	-0.0785376
106	0xbda9d3c6	-0.08292346
107	0xbd024521	-0.031804208
108	0x3d9228c3	0.07136681
109	0x3db94438	0.09046215
110	0x3d20b91a	0.039239027
111	0x3db20177	0.08691686
112	0xbd9b3ef7	-0.07580369
113	0x3dc5249a	0.09626122
114	0xbdadff5d	-0.08495972
115	0xbda6cb7d	-0.08144281
116	0xbc1d572d	-0.009603304
117	0xbc8d181c	-0.01722341
118	0xbdc45692	-0.095868245
119	0xbce3106a	-0.027717788
120	0xbd8ce46f	-0.06879508
121	0xbd15f17a	-0.036607243
122	0xbdb2afa7	-0.08724909
123	0x3c4e9040	0.012607634
124	0x3d75c095	0.059998114
125	0xbd40600b	-0.046966594
126	0xbd2f9837	-0.042869773
127	0x3bfcf2e7	0.007719386
128	0x3d022f14	0.03178318
129	0x3d2c5c88	0.042080432
130	0x3cc60087	0.024170173
131	0xbd565ead	-0.052336384
132	0x3b319b93	0.0027100786
133	0xbb6125cd	-0.0034354806
134	0xbdc964c1	-0.098336704
135	0x3cc0bee8	0.023528531
136	0x3db9718f	0.09054863
137	0xbd2ea43f	-0.042637106
138	0x3d4386c4	0.047735944
139	0x3dc4053c	0.09571311
140	0x3a950ab9	0.0011370993
141	0x3d9d9ec1	0.076962955
142	0x3cfad1ab	0.030617556
143	0x3d783474	0.0605969
144	0xbd192943	-0.037392866
145	0xbd896994	-0.067095906
146	0xbd28daea	-0.041224398
147	0xbdbe4457	-0.092903785
148	0xbdc92ae4	-0.09822634
149	0x3dc468cf	0.09590303
150	0xb5a2fa2f	-1.2142754e-06
151	0xbc99c2eb	-0.018769702
152	0xbcb2a002	-0.021804813
153	0xbc82da34	-0.015973188
154	0xbda2fe12	-0.07958616
155	0xbc4b8325	-0.012421404
156	0xbdc42eb7	-0.09579223
157	0x3d5dd90c	0.05416207
158	0xbd1c41d5	-0.03814872
159	0xbcef78d2	-0.029232416
160	0xbdb0e4ff	-0.086374275
161	0x3d0663d1	0.032810036
162	0xbd480765	-0.048835177
163	0xbc9baf7f	-0.019004581
164	0xbcdaf495	-0.026727954
165	0xbda7c526	-0.081919
166	0x3c8f7e48	0.01751627
167	0xbdd41d1e	-0.10357116
168	0xbdd3294b	-0.103106104
169	0xbc8163bc	-0.015794627
170	0x3dba936b	0.09110149
171	0xbd8d906b	-0.06912311
172	0x3d559b76	0.052150212
173	0xbdbb1b89	-0.09136111
174	0xbdb3ed0a	-0.08785446
175	0x3c2b59fb	0.010458465
176	0x3c2d7371	0.010586605
177	0x3d06b2c8	0.032885343
178	0xbc5f4182	-0.013626458
179	0x3db221c1	0.08697844
180	0x3b47dcdf	0.003049664
181	0x3d8c7b18	0.06859416
182	0x3c48e501	0.01226163
183	0xbda22a13	-0.07918181
184	0x39e74b75	0.00044115973
185	0x3cc4cf81	0.024024727
186	0x3bd72352	0.00656549
187	0xbdc82057	-0.09771793
188	0x3d1c5019	0.038162325
189	0xbd93c012	-0.07214369
190	0x3c9ddc32	0.019270036
191	0x3dce8813	0.10084548
192	0xbdb9892f	-0.09059369
193	0xbae91381	-0.0017782302
194	0x3d26d32e	0.04072874
195	0x3d967626	0.07346754
196	0xbd3dcdf3	-0.046338987
197	0x3d71990e	0.058983855
198	0xbc497bf8	-0.012297623
199	0xbc05ece4	-0.008174155
200	0xbdc83cc0	-0.09777212
201	0xbdba3d19	-0.09093685
202	0xbd6d5d06	-0.057950042
203	0x3da9315f	0.0826137
204	0x3d82b940	0.0638299
205	0xbd95e382	-0.07318784
206	0xbd6b0e3a	-0.057386614
207	0xbd97e150	-0.07416022
208	0xbd126705	-0.03574278
209	0x3d004337	0.0313141
210	0x3d99fa09	0.075183935
211	0xbd14f843	-0.036369573
212	0xbd895195	-0.06705014
213	0x3da546f6	0.08070175
214	0x3db8b3f7	0.090187006
215	0x3dbce840	0.09223986
216	0x3d16571a	0.03670416
217	0xbc4c0928	-0.012453355
218	0x3d326440	0.043552637
219	0xbcd4f8cd	-0.025997544
220	0xbdc6f884	-0.09715369
221	0x3d8fb4b1	0.07016886
222	0xba0c9c9e	-0.0005363914
223	0xbdce50fa	-0.10074039
224	0xbbf5264a	-0.007481371
225	0x3c3c7b0f	0.011503949
226	0x3cbdc295	0.023164073
227	0x3d373a04	0.044733062
228	0xbdc55692	-0.096356526
229	0x3dac1573	0.084025286
230	0xbc8beaa3	-0.017079657
231	0xbc047f88	-0.008087046
232	0xbd5d846e	-0.054081373
233	0xbd29e00a	-0.041473426
234	0x3da527c8	0.08064228
235	0x3888ff8b	6.532584e-05
236	0x3d1b469c	0.037909135
237	0x3d4cbbb6	0.049983703
238	0xbb55af4c	-0.0032605706
239	0x3d305437	0.043049064
240	0x3ce7a267	0.028275682
241	0x3d108581	0.03528357
242	0xbd7cfe43	-0.06176592
243	0xbdb8d6b7	-0.090253286
244	0x3d8590ef	0.065217845
245	0x3c6c87e4	0.014436696
246	0xbda69ad2	-0.081349984
247	0xbd5836cc	-0.052786633
248	0x3b1f642f	0.0024321189
249	0x3d921bc1	0.071342
250	0x3dc9cc1d	0.09853385
251	0x3db1e41d	0.08686087
252	0xbd9f3d5e	-0.07775377
253	0x3d5d35b2	0.054006286
254	0xbd9c4a8c	-0.07631406
255	0xbc1b9817	-0.00949671

enc_p.lstm.weight_hh_l0 f4 [384, 96]
0	0xbd48452d	-0.048894096
1	0x3dccfa7b	0.10008713
2	0x3d7c69ef	0.061624464
3	0xbcfa38b0	-0.030544609
4	0xbc987677	-0.018611176
5	0x3d32f5ee	0.043691568
6	0x3cd66fcb	0.026176354
7	0xbd0989c5	-0.033578653
8	0x3d1320d8	0.035919994
9	0x3b394652	0.0028270674
10	0xbd1c0569	-0.038091097
11	0x3db42820	0.08796716
12	0x3dbe3d41	0.09289027
13	0x38bd0192	9.012515e-05
14	0xbdcea99b	-0.100909434
15	0xbdadb768	-0.084822476
16	0xbbcf6408	-0.0063290633
17	0x3d60fa91	0.05492646
18	0x3d23d56a	0.03999845
19	0xbd3712e0	-0.044695735
20	0xbd54ba88	-0.051935703
21	0x3b899d03	0.0041996255
22	0xbd196acf	-0.037455376
23	0x3d30d61e	0.043172948
24	0x3db61a54	0.088917404
25	0x3c832f0b	0.016013643
26	0xbd047c56	-0.03234514
27	0x3d92525d	0.07144616
28	0x3dd0a470	0.10187614
29	0xbda9d459	-0.08292455
30	0x3d76a6ab	0.06021754
31	0xbcbaf098	-0.022819802
32	0x3ce5e25d	0.02806204
33	0xbd1b2ae2	-0.037882693
34	0x3dbc5206	0.09195332
35	0xbdc92a1f	-0.09822487
36	0x3d43f7c5	0.047843713
37	0xbd8c8384	-0.06861022
38	0xbd98bf8a	-0.07458408
39	0x3d407258	0.046984047
40	0xbdc6c514	-0.097055584
41	0xbc6a1f4c	-0.014289688
42	0xbd1be888	-0.038063556
43	0x3d0cc889	0.034370933
44	0x3c11f5d8	0.008908711
45	0xbdbc5d41	-0.09197474
46	0xbd8ada4d	-0.06779919
47	0xbd8ebaf4	-0.06969252
48	0x3ca37563	0.019953435
49	0xbdbec287	-0.09314447
50	0x3cc60faa	0.024177391
51	0x3da64980	0.08119488
52	0x3dcebd8a	0.100947455
53	0xbcb6feda	-0.02233832
54	0xbd2b3148	-0.041795045
55	0x3dca1287	0.09866815
56	0xbdb7843c	-0.089607686
57	0xbd8017ca	-0.062545374
58	0x3c996a09	0.01872732
59	0xbd218340	-0.03943181
60	0xbd9ecec0	-0.07754278
61	0xbd19cb80	-0.03754759
62	0xbb90cf3b	-0.004419235
63	0x3d86fe39	0.06591458
64	0x3d2b61b1	0.041841213
65	0x3c0b003f	0.008483945
66	0xbd25a6f0	-0.040442407
67	0xbda2fdae	-0.07958542
68	0xbcb86395	-0.022508422
69	0x3c4a779e	0.0123576205
70	0xbcac9922	-0.021069113
71	0x3cb606cc	0.022220038
72	0xbdbd0af2	-0.09230603
73	0x3cbebe86	0.023284208
74	0xbd9b802c	-0.07592806
75	0xbd78ff57	-0.060790386
76	0x3d752b1f	0.059855577
77	0x3dbfd6a8	0.09367114
78	0x3daaf507	0.083475165
79	0x3da0a140	0.07843256
80	0xbdaaacdc	-0.083337516
81	0x3c93ac3d	0.018026466
82	0xbdad5d62	-0.08465077
83	0xbd623865	-0.055229563
84	0x3dae297d	0.08504007
85	0x3d3430a3	0.043991696
86	0xbdc7db04	-0.09758571
87	0xbd758593	-0.05994184
88	0x3d98438e	0.0743476
89	0x3d17a44a	0.037021913
90	0x3d0ca786	0.03433945
91	0x3da9ec76	0.082970545
92	0x3d7d5717	0.061850633
93	0x3dab0a2c	0.083515495
94	0x3d7e9daa	0.06216208
95	0xbd965c04	-0.07341769
96	0x3d927928	0.07152015
97	0x3d0ef211	0.03489882
98	0x3d954a3a	0.07289548
99	0xbd22cb82	-0.03974486
100	0xb9f1092d	-0.00045973939
101	0xbdae3f5d	-0.08508179
102	0xbd337c39	-0.04381964
103	0xbc8853a1	-0.01664144
104	0x3dcfd81e	0.10148643
105	0xbd8b057f	-0.06788158
106	0xba944f2f	-0.0011315102
107	0xbd6afc7f	-0.057369705
108	0x3c2cf4c7	0.010556406
109	0xbcdecf3f	-0.027198432
110	0x3d8d7ffe	0.06909178
111	0x3d7e2031	0.06204242
112	0x3caa2771	0.02077076
113	0x3b31ba18	0.0027118977
114	0xbcfe70a4	-0.03105957
115	0xbbb586bf	-0.0055397446
116	0xbdcd5e3d	-0.1002774
117	0x3d908f67	0.07058602
118	0x3d27dc20	0.040981412
119	0x3dab2bb4	0.08357945
120	0xbd0fb2d0	-0.03508264
121	0x3db8beaa	0.09020741
122	0x3d84bdfd	0.0648155
123	0xbd0e0924	-0.034676686
124	0xbdb4b5fe	-0.08823775
125	0x3dbc20c1	0.09185935
126	0x3d6b8246	0.057497285
127	0x3da53548	0.08066803
128	0xbd375ee2	-0.04476822
129	0x3b909cc5	0.0044132196
130	0x3c8d6107	0.01725818
131	0x3dadf1e3	0.08493402
132	0x3c88cc52	0.01669899
133	0xbd8ad9b2	-0.06779803
134	0xbdcbf54a	-0.099588946
135	0xbc99c9c9	-0.018772976
136	0xbdb18bc9	-0.0866924
137	0xbd9969e9	-0.07490904
138	0xbdbfe1bc	-0.09369227
139	0x3d5439f5	0.051813085
140	0xbd70aa8b	-0.058756392
141	0x3c8ac190	0.016938
142	0x3c31397c	0.010816928
143	0xbdb3fba3	-0.0878823
144	0xbd9b1518	-0.07572383
145	0x3b95289b	0.0045519597
146	0x3cddd006	0.027076732
147	0xbda4898c	-0.080340475
148	0xbce5e42e	-0.028062906
149	0x3d1d6d4e	0.03843432
150	0xbcbcf543	-0.023066169
151	0x3d305e8b	0.043058913
152	0xbd9f01df	-0.07764029
153	0xbbd4fb49	-0.006499682
154	0xbc958b07	-0.01825477
155	0xbd6b6295	-0.057467062
156	0x3da41507	0.08011823
157	0xbd01e47a	-0.031712033
158	0xbd218b2a	-0.039439358
159	0xbd062dda	-0.03275857
160	0xbc277da8	-0.01022283
161	0xbd616fc6	-0.055038236
162	0xbd82472c	-0.06361231
163	0xbd8485ef	-0.06470858
164	0x3c6818fc	0.014166113
165	0xbc0e51df	-0.008686512
166	0xbcad3803	-0.021144873
167	0x3c1cf192	0.009579079
168	0x3c992c47	0.01869787
169	0xbb9cb163	-0.0047818883
170	0xbdc49676	-0.09599011
171	0xbdc38f5e	-0.095488295
172	0x3d5a3aa3	0.053278577
173	0x3cec6683	0.028857475
174	0x3cd79741	0.02631724
175	0xbcc66117	-0.024216218
176	0xbd9c6cff	-0.07637977
177	0xbd9b19c1	-0.075732715
178	0xbdcc11e3	-0.09964349
179	0x3da6d4c5	0.08146051
180	0x3d872083	0.06597998
181	0x3d39a777	0.045325723
182	0x3d8fe2fa	0.07025714
183	0x3d851bd5	0.06499449
184	0xbdc0e08c	-0.09417829
185	0x3dac65cd	0.084178545
186	0x3dca4e40	0.09878206
187	0xbdd2290f	-0.102617376
188	0x3d17f2b0	0.03709668
189	0x3d9236e0	0.07139373
190	0x3d4d251a	0.05008421
191	0x3d99ce48	0.07510048
192	0x3cda37d4	0.026637949
193	0x3d8d4229	0.06897385
194	0x3d907dbb	0.07055231
195	0x3d8a6312	0.067571774
196	0xbd09bf17	-0.033629503
197	0x3da0dd89	0.078547545
198	0x3c9d3df8	0.019194588
199	0x3d2eaaca	0.042643346
200	0x3da7363c	0.08164641
201	0x3d8ed246	0.069737
202	0xbd265951	-0.040612523
203	0x3d6d2099	0.057892416
204	0xbd750870	-0.0598225
205	0xbd04c901	-0.032418255
206	0x3cf7771b	0.030208161
207	0xbc089fce	-0.008338882
208	0xbca7267f	-0.020404099
209	0x3d7f2b79	0.062297318
210	0x3d60adbe	0.054853193
211	0x3dae129a	0.08499642
212	0x3dc7544d	0.09732876
213	0xbbfb1f7f	-0.0076636667
214	0x3dbca939	0.09211964
215	0x3d99b239	0.075046964
216	0xbdad0815	-0.08448807
217	0xbd57a2e0	-0.052645564
218	0x3d8fd8ae	0.0702375
219	0xbd585f05	-0.052824993
220	0x3cc55c64	0.024091907
221	0x3dc6c88a	0.097062185
222	0xbd26465a	-0.040594436
223	0x3d09569f	0.033529874
224	0xbdaf5a2e	-0.08562122
225	0x3cb380d9	0.021912025
226	0x3d5ed6b9	0.054403994
227	0x3dcba5e0	0.099437475
228	0xbc552e29	-0.013011494
229	0x3cdb6941	0.026783587
230	0xbc66f1fc	-0.0140957795
231	0x3cf893b3	0.030343866
232	0xbc53da7b	-0.012930508
233	0xbb4286c9	-0.002968239
234	0xbdbac95d	-0.09120438
235	0xbd8316d0	-0.064008355
236	0x3d5e87f3	0.05432887
237	0xbb31c255	-0.0027123888
238	0x3d0856c0	0.033285856
239	0x3dd0993a	0.10185476
240	0xbd6c8841	-0.05774713
241	0xbdbd5c59	-0.092461295
242	0xbd0258ac	-0.031822845
243	0x3bcbe8bd	0.006222813
244	0xbcf9210b	-0.030411264
245	0x3ce5dc2f	0.028059093
246	0xbd605f79	-0.05477855
247	0x3d50f86a	0.051018156
248	0xbd9b553d	-0.07584617
249	0x3c5bf0fb	0.013424153
250	0xbd97b8f1	-0.07408322
251	0x3c756529	0.014977732
252	0x3d3a33db	0.04545961
253	0x3b8a464d	0.0042198063
254	0xbbc0afeb	-0.005880346
255	0x3c8d0dac	0.017218433

enc_p.lstm.bias_ih_l0 f4 [384]
0	0xbcfb0d03	-0.030645853
1	0xbceef7dd	-0.029170925
2	0xbd80f1de	-0.062961325
3	0xbdcff881	-0.1015482
4	0x3d95e615	0.07319275
5	0xbdb7fdea	-0.08983977
6	0x3ba0b970	0.0049049184
7	0xbd244af4	-0.040110543
8	0xbd73c70c	-0.059515998
9	0x3dc11607	0.094280295
10	0x3ca15cad	0.019697512
11	0xbd36b373	-0.04460473
12	0xbd2f2a92	-0.042765208
13	0xbdb5896b	-0.08864101
14	0xbd677cd9	-0.05651555
15	0x3c8632ae	0.016381588
16	0x3cde5553	0.027140295
17	0x3d9914b8	0.07474655
18	0x3c406c97	0.01174464
19	0xbd57e73b	-0.052710753
20	0x3dae5326	0.08511953
21	0x3d870b0b	0.06593903
22	0xbd2de481	-0.042454246
23	0x3d8424b2	0.064523116
24	0x3cc8659e	0.024462517
25	0xbca8be25	-0.02059848
26	0xbd8498ca	-0.06474455
27	0x3d666d65	0.05625667
28	0xbca5c545	-0.020235667
29	0x3d346ce8	0.044049174
30	0xbd55bebd	-0.052183855
31	0xbd724d28	-0.059155613
32	0xbdbc2d17	-0.09188288
33	0xbdaa5986	-0.083178565
34	0x3cf5730c	0.029962085
35	0xbd7a5f54	-0.06112607
36	0x3dc552d0	0.09634936
37	0xbc8bb570	-0.01705429
38	0xbce2aba4	-0.027669735
39	0xbbfa3511	-0.0076357205
40	0x3c091a21	0.008368046
41	0x3c881a44	0.016614087
42	0xbd656a3b	-0.056009512
43	0xbda11946	-0.07866149
44	0x3c54b212	0.012981908
45	0x39b79c17	0.00035020776
46	0xbdb641d7	-0.08899277
47	0xbd32f39a	-0.043689348
48	0xbcfbc4c8	-0.030733481
49	0xbd585a30	-0.052820385
50	0x3d7af529	0.06126896
51	0x3d23a646	0.039953493
52	0xbda7de23	-0.08196666
53	0xbcc8b5c6	-0.024500739
54	0x3da52835	0.080643095
55	0xbdcad100	-0.09903145
56	0x3d994843	0.07484486
57	0x3c37fdf1	0.011229978
58	0x3daaa9b2	0.08333148
59	0xbccbfa87	-0.024899734
60	0xbc0b4a96	-0.008501669
61	0xbd0064a4	-0.03134598
62	0xbd9477e0	-0.07249427
63	0x3d35963b	0.044332724
64	0xba8d32cb	-0.0010772584
65	0xbb2d1df2	-0.0026415554
66	0xbd4e1a12	-0.05031783
67	0xbd0b882f	-0.03406542
68	0x3d165e88	0.036711246
69	0xbdbda815	-0.09260575
70	0xbc6ce680	-0.014459252
71	0x3dca0f14	0.09866157
72	0x3d0e902a	0.034805454
73	0x3cb8b088	0.022545114
74	0xbd0ff664	-0.035147086
75	0x3d3d45ad	0.046209026
76	0xbdad85d0	-0.08472788
77	0xbd91aefd	-0.071134545
78	0xbd422ddd	-0.04740702
79	0x3db4bbf6	0.08824913
80	0xbd5c155d	-0.05373131
81	0x3d3c517b	0.045976143
82	0x3c285b6b	0.010275702
83	0x3da59225	0.080845155
84	0x3d85a731	0.0652603
85	0x3d2e6220	0.042574048
86	0xbdb350a0	-0.087556124
87	0xbd078a7c	-0.033091053
88	0x3d4e65b9	0.05038998
89	0xbda24372	-0.079230204
90	0x3c58bf0d	0.013229144
91	0x3dc7a921	0.09749056
92	0x3d9044bf	0.07044362
93	0x3d9e1a07	0.07719808
94	0xbc21eff8	-0.009883873
95	0x3d0014f0	0.031269968
96	0xbd3da444	-0.046299234
97	0xbd4bd790	-0.049766123
98	0xbdabaace	-0.08382188
99	0xbd822a44	-0.06355718
100	0xbd88e16c	-0.06683621
101	0xbc4b1a7c	-0.012396451
102	0xbdd40235	-0.103519835
103	0x3da15e0f	0.078792684
104	0x3d36f429	0.044666443
105	0xbd814459	-0.063118644
106	0xbda78b9b	-0.081809245
107	0x3d9660db	0.073426925
108	0xbd894729	-0.06703026
109	0x3dc5c9c3	0.096576236
110	0x3ba66a6b	0.005078604
111	0x3d6cbc27	0.057796624
112	0x3d569fc7	0.05239847
113	0x3dae8486	0.085213706
114	0x3d8a0f3e	0.067411885
115	0xbc281922	-0.010259898
116	0x3daa751f	0.0832312
117	0xbd932d0f	-0.071863286
118	0xbdc92bb7	-0.09822791
119	0xbd8c12a8	-0.06839496
120	0x3c905ac5	0.017621407
121	0x3cd7a214	0.026322402
122	0xbdbca544	-0.092112094
123	0xbdc9a6b1	-0.09846247
124	0xbdaa7d3b	-0.08324667
125	0xbdc6aec3	-0.09701302
126	0xbd254358	-0.040347427
127	0xbd9e81a2	-0.07739569
128	0x3d183b04	0.037165657
129	0xbd955f39	-0.07293553
130	0xbd9c8696	-0.07642858
131	0x3d93d646	0.07218604
132	0xbcd52d85	-0.026022682
133	0xbd7ee96f	-0.06223434
134	0x3d00ff91	0.031493727
135	0xb959f7c7	-0.00020787037
136	0xbd3aa18a	-0.045564212
137	0xbbd8bc45	-0.0066142404
138	0xbd8366df	-0.064161055
139	0x3bf378ae	0.0074301576
140	0xbce1cd15	-0.027563611
141	0x3c45d24b	0.0120740635
142	0x3d867bab	0.065665565
143	0xbbbff25e	-0.00585775
144	0x3d659538	0.05605051
145	0xbd2a48a3	-0.041573178
146	0x3d8c2fb6	0.06845038
147	0x3d9cc9f1	0.07655705
148	0x3b9f3019	0.0048580286
149	0xbd87c182	-0.066287056
150	0xbdc5f103	-0.0966511
151	0x3d027659	0.031851146
152	0xbc8be8bf	-0.017078755
153	0x3b9eb26c	0.004843047
154	0x3d2a8fe8	0.041641146
155	0xbdb4e751	-0.088331826
156	0x3d74baa3	0.059748303
157	0xbc651e4e	-0.013984276
158	0xbdb0dbd7	-0.08635681
159	0x3db19a2b	0.08671983
160	0xbdabd440	-0.08390093
161	0x3d8995c7	0.06718021
162	0xbce909b9	-0.028447019
163	0x3db38664	0.08765867
164	0x3daa6dd6	0.08321731
165	0x3d8c7b6f	0.068594806
166	0x3d948dcc	0.07253608
167	0x3d9b240c	0.07575235
168	0xbd78947f	-0.060688492
169	0x3d512a2b	0.051065605
170	0xbc168e23	-0.0091891615
171	0xbd87cad3	-0.066304825
172	0xbd31fd18	-0.04345426
173	0xbbbc2f96	-0.0057429774
174	0xbc185805	-0.009298329
175	0xbcc7a8eb	-0.024372539
176	0x3d28b99a	0.04119263
177	0x3c9cd31a	0.01914363
178	0x3d671210	0.05641371
179	0xbd846e6e	-0.06466375
180	0xbca19314	-0.019723453
181	0xbd040341	-0.032229666
182	0x3db660ca	0.0890518
183	0xbd78c833	-0.0607378
184	0xbd27179f	-0.04079401
185	0x3d8da949	0.06917054
186	0xbce5cf59	-0.028052973
187	0x3a8c8c0e	0.0010722892
188	0x3d94a46c	0.072579235
189	0xbd51ef3f	-0.051253553
190	0xbd47eee7	-0.04881182
191	0xbdcea7f1	-0.10090626
192	0x3dc708cb	0.09718474
193	0xbd8d8450	-0.06910002
194	0x3d76558a	0.06014017
195	0xbd225f25	-0.03964152
196	0x3dc815a9	0.09769756
197	0xbdb30157	-0.0874049
198	0x3b968c54	0.004594365
199	0x3cb9bb64	0.022672363
200	0x3db53aac	0.088490814
201	0x3cf401c8	0.029786006
202	0x3da1bf08	0.078977644
203	0x3dcad7f4	0.09904471
204	0xbd184ee6	-0.03718462
205	0xbcc819e4	-0.024426408
206	0x3db9218f	0.09039604
207	0xbd68d899	-0.05684719
208	0x3a97a378	0.0011569103
209	0x3d7fa02e	0.06240862
210	0xbc38d336	-0.011280825
211	0xbdb4a548	-0.088205874
212	0x3cde69be	0.027150031
213	0x3d5f4e58	0.054518074
214	0xbd066da2	-0.032819398
215	0x3c87f02a	0.016594011
216	0xbd036e9e	-0.032087915
217	0xbd903b5b	-0.07042571
218	0x3d86ff92	0.06591715
219	0x3d2fab08	0.042887717
220	0xbdafd5a3	-0.0858567
221	0x3d91fc5e	0.07128213
222	0xbd9d0490	-0.07666886
223	0xbcd5a0a1	-0.02607757
224	0x3d04a60f	0.03238493
225	0xbcba39f7	-0.022732718
226	0xbcedef2c	-0.02904471
227	0xbd64e667	-0.05588379
228	0x3d834fa3	0.06411674
229	0xbd9fb9b0	-0.07799089
230	0xbd6b1b27	-0.05739894
231	0x3da99b1d	0.08281539
232	0xbdac800f	-0.08422863
233	0xbd81b7b9	-0.063338704
234	0x3d25ee29	0.04051033
235	0x3c7d85da	0.015473807
236	0x3db29217	0.08719271
237	0x3dbd92f3	0.09256544
238	0xbd262d32	-0.040570445
239	0xbcce9a67	-0.02522011
240	0x3dcaa028	0.09893829
241	0x3d13c419	0.036075685
242	0x3d06697d	0.032815445
243	0x3d155531	0.036458198
244	0xbcf2f5d5	-0.029658237
245	0xbdc57791	-0.09641946
246	0xbc7f08d7	-0.015566072
247	0x3c4848f9	0.012224429
248	0x3da7b361	0.08188511
249	0xbd966afd	-0.07344625
250	0x3d4dcc6b	0.050243776
251	0x3db368be	0.08760212
252	0x3c8f8229	0.01751812
253	0x3da4c6ca	0.080457285
254	0x3dbd1750	0.09232962
255	0xbd616d4c	-0.055035874

enc_p.lstm.bias_hh_l0 f4 [384]
0	0xbdbe2d37	-0.09285968
1	0xbd38b787	-0.0450969
2	0x3ccaba04	0.024746902
3	0xbc999a62	-0.018750373
4	0xbd854dea	-0.065090016
5	0x3da6498f	0.08119499
6	0x3d5d89e5	0.054086585
7	0x3cf14cf2	0.029455636
8	0xbd573d71	-0.05254883
9	0xbd577ff7	-0.05261227
10	0x3db110fb	0.08645817
11	0xbc0d00fd	-0.008606193
12	0x3d27e167	0.040986445
13	0xbd0595ed	-0.032613683
14	0xbc205c67	-0.009787655
15	0xbd991f23	-0.07476642
16	0xbc093057	-0.0083733415
17	0x3bf50db5	0.0074784406
18	0x3c467c87	0.012114651
19	0xbd736970	-0.059426725
20	0xbdb3acab	-0.08773168
21	0x3ce28f4e	0.027656224
22	0xbd507bfc	-0.05089949
23	0xbb153487	-0.0022766904
24	0x3d40fecb	0.04711799
25	0xbcae98b9	-0.021313058
26	0x3d668199	0.056275938
27	0x3cdb8bb4	0.026800014
28	0x3cf3dc27	0.029768063
29	0x3d184c08	0.037181884
30	0x3bf314bb	0.0074182427
31	0x3d9184d9	0.07105417
32	0x3dbaa115	0.09112755
33	0x3c594683	0.01326144
34	0xbd8d919c	-0.069125384
35	0x3d3e5ffc	0.046478257
36	0x3d49b385	0.04924347
37	0x3b9349f0	0.004494898
38	0xbd314402	-0.043277748
39	0x3d3f3ef9	0.046690915
40	0x3dbc4750	0.09193289
41	0x3c3b4464	0.01142988
42	0x3d5c3378	0.053760022
43	0xbce5c920	-0.028050005
44	0xbdacb270	-0.08432472
45	0xbd8513af	-0.06497895
46	0x3ce324fa	0.027727593
47	0xbd8b7bc1	-0.068107136
48	0x3d6c10b5	0.05763312
49	0x3c16fd00	0.009215593
50	0xbdc0a6b2	-0.094067946
51	0x3d88f2a8	0.06686908
52	0x3d621531	0.05519599
53	0xbd0905ae	-0.033452682
54	0x3da1c771	0.078993686
55	0x3d6c27d2	0.057655163
56	0x3d9be991	0.07612909
57	0xbd93af04	-0.07211116
58	0xbd8c1b1a	-0.06841107
59	0x3dca6691	0.09882844
60	0x3d8c00e8	0.0683611
61	0x3d85739d	0.06516192
62	0xbd5e8dd1	-0.054334465
63	0xbc27e609	-0.010247716
64	0xbd775987	-0.060388114
65	0x3c97113a	0.018440831
66	0x3d9b9f21	0.07598711
67	0xbbf7f2d3	-0.0075667887
68	0xbc6172d7	-0.01376029
69	0xbd4610cd	-0.048355866
70	0x3d00ba70	0.0314278
71	0x3d87cbc0	0.06630659
72	0xbd986697	-0.074414425
73	0x3d600819	0.054695223
74	0x3d1cb3d4	0.038257435
75	0x3c140bcf	0.0090360185
76	0x3cc28c45	0.023748526
77	0x3dc20aa3	0.09474685
78	0xbdbf479e	-0.09339832
79	0x3c6e0274	0.014526952
80	0x3dc8787f	0.09788608
81	0x3d0803ab	0.033206623
82	0xbd4c166a	-0.049826063
83	0xbc95664b	-0.018237254
84	0x3d988530	0.074472785
85	0x3db578be	0.0886092
86	0xbd03871a	-0.032111265
87	0x3d163d42	0.036679514
88	0x3d8f43cb	0.06995352
89	0xbdd17567	-0.10227471
90	0x3dc12b73	0.094321154
91	0xbd674b5e	-0.05646836
92	0xbd850227	-0.06494551
93	0x3c3c9b7f	0.0115116825
94	0xbbc43995	-0.0059883096
95	0xbc9b81e7	-0.01898284
96	0xbcf1ee9f	-0.029532729
97	0x3c81331b	0.01577144
98	0xbd09682e	-0.03354662
99	0xbd5bab8c	-0.053630397
100	0xbd78b0db	-0.060715538
101	0x3dc05ce3	0.09392717
102	0x3cf3d47c	0.029764406
103	0x3d92d279	0.07169051
104	0xbb89fb30	-0.004210852
105	0xbdcb54b8	-0.09928268
106	0xbda691a1	-0.08133245
107	0xbdc19017	-0.09451311
108	0xbd9341ff	-0.07190322
109	0x3d1e0aaf	0.038584407
110	0x3b16ae1a	0.0022991956
111	0xbdc74381	-0.09729672
112	0xbd865279	-0.06558699
113	0x3db525f8	0.088451326
114	0x3d1f814a	0.03894166
115	0x3d7dfa66	0.062006377
116	0xbda1df7a	-0.07903953
117	0xbd48e522	-0.049046643
118	0x3c5e09a8	0.013552107
119	0xbd3e1309	-0.046404872
120	0xbdad51a1	-0.08462835
121	0xbd49c426	-0.049259327
122	0xbc8bbe48	-0.017058507
123	0x3d99769a	0.074933246
124	0xbdaa36a4	-0.08311203
125	0xbdd083ee	-0.101814136
126	0xbcc6cade	-0.024266656
127	0x3d56f048	0.052475244
128	0xbda8f18f	-0.08249199
129	0x3d3bb541	0.045827154
130	0x3c6330ea	0.0138666425
131	0x3d8e3bb8	0.06944984
132	0xbd66ca88	-0.056345493
133	0x3db3c6b0	0.08778131
134	0x3db93ffd	0.09045408
135	0xbbdaed86	-0.006681147
136	0xbd42336e	-0.04741233
137	0xbd88b008	-0.066742
138	0xbd5f65eb	-0.054540556
139	0xbc16d047	-0.009204931
140	0x3b4a2f71	0.0030851031
141	0xbd00694c	-0.03135042
142	0x3cc22470	0.023699015
143	0xbd505e8f	-0.050871428
144	0xbda5824b	-0.08081492
145	0xba64e695	-0.0008731869
146	0xbda60231	-0.08105887
147	0x3d50e477	0.05099913
148	0xba83a56c	-0.0010043806
149	0xbd972c21	-0.07381464
150	0x3c881013	0.016609227
151	0xbd9573d4	-0.07297483
152	0x3d5d9917	0.054101076
153	0xbd0d27a9	-0.03446165
154	0x3dbb0e6d	0.09133611
155	0xbd690d3b	-0.056897383
156	0x3dc2d2d5	0.09512869
157	0xbcc4e01b	-0.024032643
158	0xbc1bcfd4	-0.009509999
159	0x3d318879	0.04334304
160	0xbd62a74a	-0.05533532
161	0x3d145905	0.03621771
162	0x3d137b8c	0.036006495
163	0xbd892dce	-0.0669819
164	0xbd522242	-0.051302202
165	0xbbeb5e8e	-0.0071829027
166	0x3bbf252c	0.0058332887
167	0x3db894fa	0.0901279
168	0xbcfa35e1	-0.03054327
169	0x3cc380bb	0.023865094
170	0x3cb12bb2	0.02162728
171	0xbc58f1f0	-0.013241276
172	0xbd2f8cc8	-0.04285887
173	0xbdc956ae	-0.09830986
174	0x3b08867f	0.002083212
175	0x3d87727b	0.06613632
176	0xbd9a12b1	-0.07523096
177	0xbcfc6c8a	-0.030813474
178	0x3cfe453c	0.031038873
179	0x3d1173fe	0.03551101
180	0xbdb8a919	-0.09016628
181	0xbd927d5c	-0.07152817
182	0x3bf47f7b	0.007461486
183	0x3d500f35	0.050795753
184	0xbda05f60	-0.07830691
185	0xbd9bc06e	-0.076050624
186	0x3d6fc2a5	0.058535237
187	0xbc425a1a	-0.011862302
188	0xbd48eba1	-0.04905284
189	0xbd964e46	-0.07339148
190	0xbd8cbc23	-0.06871822
191	0x3bf29476	0.007402952
192	0xbd54d50d	-0.051960994
193	0xbcc32e59	-0.023825811
194	0xbb8628ce	-0.0040942198
195	0x3cf5f810	0.030025512
196	0x3d3f3dee	0.04668992
197	0x3d4416d1	0.047873322
198	0xbc6431b4	-0.013927866
199	0x3d201318	0.03908071
200	0xbdb99618	-0.09061831
201	0xbdcfb840	-0.10142565
202	0xbd85a0aa	-0.06524785
203	0xbcc2ff01	-0.023803236
204	0xbd6a26e7	-0.057166006
205	0x3dbcacfd	0.092126824
206	0x394e0385	0.00019647002
207	0x3d6a50d6	0.057205997
208	0x3daaffdd	0.08349583
209	0x3ca8279e	0.020526703
210	0x3b1791a6	0.0023127585
211	0xbc9496a0	-0.01813823
212	0x3db11ecc	0.08648452
213	0x3dabd789	0.083907194
214	0xbdc6cb9e	-0.09706806
215	0x3dc405c7	0.095714144
216	0x3cf32c15	0.029684106
217	0xbd82a8df	-0.06379866
218	0x3d5a033d	0.053225745
219	0x3d31153c	0.04323314
220	0x3d908c21	0.070579775
221	0xbb982f29	-0.004644294
222	0xbd884c0c	-0.0665513
223	0xbdcde298	-0.10052985
224	0x3d75912f	0.05995291
225	0x3d55aae3	0.052164923
226	0xbd89f6f3	-0.06736555
227	0x3d67e980	0.056619167
228	0x3d3c4467	0.04596367
229	0x3b9bcbd4	0.004754523
230	0xbd49cefa	-0.049269654
231	0xbca51cf8	-0.020155415
232	0xbd6b037c	-0.05737637
233	0xbd9bf13b	-0.076143704
234	0x3d4ecb25	0.050486702
235	0x3b022116	0.0019856147
236	0x3da5f457	0.08103245
237	0xbdacda92	-0.084401265
238	0x3d9d365e	0.07676385
239	0x3caed085	0.021339664
240	0x3ce1955d	0.027537042
241	0xbb00d4ea	-0.0019658157
242	0x3d6650d4	0.056229427
243	0xbd038fa1	-0.032119397
244	0x3d1967f4	0.037452653
245	0x37f7c8c7	2.9538189e-05
246	0xbd830a9f	-0.0639851
247	0xbcdc1ac5	-0.026868233
248	0xbce84b51	-0.028356226
249	0xbd942b51	-0.072348244
250	0x3c465ddb	0.012107338
251	0x3d40c4c2	0.047062643
252	0x3da18332	0.07886352
253	0xbdbafe96	-0.0913059
254	0xbbced78f	-0.0063123177
255	0x3d1862f9	0.037203763

enc_f.lstm.weight_ih_l0 f4 [384, 4]
0	0xbd84725d	-0.064671256
1	0xbcca99ba	-0.024731506
2	0x3d2e620e	0.04257398
3	0xbd9ac193	-0.075564526
4	0x3db6465f	0.08900141
5	0x3db24eaf	0.08706414
6	0xbd78d554	-0.06075032
7	0x3aff35b9	0.0019470967
8	0x3dc3eabd	0.09566257
9	0x3cd037d9	0.025417255
10	0x3d1a119b	0.037614446
11	0x3d822dfe	0.063564286
12	0xbdcb698c	-0.09932241
13	0x3d99f376	0.075171396
14	0xbd4cb3a8	-0.04997602
15	0xbcc961ad	-0.024582708
16	0x3d388e0c	0.04505734
17	0xbd582661	-0.052770976
18	0xbd431643	-0.047628652
19	0xbc602dba	-0.013682777
20	0x3d402d25	0.046918053
21	0x3dc6daec	0.09709725
22	0xbb750a23	-0.0037390075
23	0xbc335929	-0.01094655
24	0xbc73e553	-0.014886218
25	0xbcfef451	-0.031122359
26	0x3da2a3f4	0.07941428
27	0x3ba3de12	0.005000838
28	0xbd04c122	-0.03241075
29	0x3da1999d	0.078906275
30	0xbc3d56d3	-0.011556345
31	0x3da4aeba	0.08041139
32	0x3ce17351	0.027520807
33	0xb8951b13	-7.1099166e-05
34	0xbca7e949	-0.020496981
35	0xbda045fd	-0.07825849
36	0x3dc17a89	0.094472
37	0x3d58b6f6	0.05290886
38	0xbd701fa0	-0.05862391
39	0x3db0364f	0.086041085
40	0xbcbb25d1	-0.02284518
41	0x3c89162e	0.016734209
42	0x3d95eb7c	0.07320306
43	0xbcd570fe	-0.026054855
44	0x3d80627f	0.06268787
45	0xbda6c7f5	-0.081436075
46	0x3dd1a315	0.102361836
47	0x3dc2de68	0.09515077
48	0xbd5cf465	-0.05394401
49	0x3c688289	0.014191278
50	0x3d13b764	0.036063567
51	0xbc1b5a37	-0.009481958
52	0xbda75b7a	-0.08171745
53	0xbb258361	-0.002525531
54	0xbd98b5b4	-0.07456532
55	0x3d3e58b8	0.046471328
56	0x3cf2b601	0.029627802
57	0x3ca40ab0	0.020024627
58	0xbccc6cc8	-0.024954215
59	0x3dadbf19	0.084837146
60	0x3ccae07d	0.024765247
61	0x3c4cd8c8	0.012502857
62	0x3d142db7	0.03617641
63	0x3d92cc10	0.07167828
64	0x3caf0a5c	0.021367244
65	0xbd768418	-0.06018457
66	0x3dcff9a0	0.10155034
67	0x3d999e33	0.07500877
68	0xbdb0325d	-0.08603356
69	0xbda9f14b	-0.08297976
70	0xbd512c64	-0.051067725
71	0x3d2dc9c1	0.042428736
72	0xbd48d4dd	-0.049031127
73	0xbdb8ec49	-0.09029443
74	0x3da0a03b	0.078430615
75	0x3da7b929	0.08189613
76	0xbdc5af43	-0.09652569
77	0x3da54f6b	0.080717884
78	0x3c09dbd8	0.008414231
79	0x3cf3a846	0.029743325
80	0x3dc67c7e	0.09691714
81	0x3d14cc23	0.036327492
82	0x3cd060ec	0.025436841
83	0xbd3fdbb1	-0.046840373
84	0xbd8d18ad	-0.06889472
85	0x3dc69e80	0.096982
86	0x3dc5dc3b	0.09661146
87	0xbd55f5a0	-0.0522362
88	0x3dca631b	0.09882184
89	0xbc999419	-0.018747376
90	0xbd2bb56b	-0.04192106
91	0x3bce9b7f	0.0063051577
92	0xbb0c2d8a	-0.0021389448
93	0x3c97882d	0.01849755
94	0xbdccd09f	-0.10000729
95	0xbd98b41e	-0.074562296
96	0xbc94ba5d	-0.018155271
97	0xbd1b797c	-0.037957653
98	0x3daae5c1	0.08344603
99	0xbd0b508d	-0.034012366
100	0xbd04cb95	-0.032420713
101	0xbd8124d5	-0.06305853
102	0x3bf56eaa	0.007489999
103	0x3d8f752e	0.07004772
104	0xbd8fe9ba	-0.07027002
105	0xbd4aa37d	-0.04947232
106	0x3d07280d	0.03299718
107	0xbcb697a4	-0.022289105
108	0x3d05be88	0.032652408
109	0xbcce48be	-0.02518117
110	0xbd365946	-0.04451873
111	0xbdc072aa	-0.093968704
112	0x3dbb1778	0.09135336
113	0x3cca4010	0.02468875
114	0x3d9002e4	0.07031801
115	0x3c5623e1	0.013070078
116	0xbca12571	-0.019671174
117	0xbd4becaa	-0.049786247
118	0x3b118079	0.002220182
119	0xbdb24118	-0.08703822
120	0x3bda5080	0.0066624284
121	0x3d658352	0.05603344
122	0xbc0a4e53	-0.0084415255
123	0xbcb309df	-0.021855293
124	0x3db05e91	0.08611787
125	0x3d7aeff0	0.06126398
126	0x3d9b8fb2	0.07595767
127	0x3cf114b7	0.029428823
128	0x3c827fdb	0.015930107
129	0x3dcd4abd	0.10024021
130	0xbc795d6a	-0.015220026
131	0xbda5d877	-0.08097928
132	0xbd43faf1	-0.04784674
133	0x3d83a8ba	0.064286664
134	0x3d009b22	0.031397946
135	0x3dbe591d	0.09294341
136	0x3d2e9dfd	0.042631138
137	0x3c81f1ac	0.015862308
138	0x3d205f8e	0.039153628
139	0xbca4b238	-0.020104513
140	0xbd73b4d4	-0.059498623
141	0xbd95345c	-0.072853774
142	0x3dd45a83	0.10368826
143	0xbda01480	-0.0781641
144	0xbd389fc4	-0.04507424
145	0xbd940b96	-0.07228772
146	0x3ce3354f	0.02773538
147	0x3b8a0436	0.0042119278
148	0xbdb19a29	-0.08671982
149	0x3dc8d731	0.098066695
150	0xbcaad435	-0.020853141
151	0x3da0c94f	0.078508966
152	0xbdcd3567	-0.10019951
153	0x3d4d8639	0.050176833
154	0x3d81c304	0.063360244
155	0xbdc2f468	-0.09519273
156	0x3c52c627	0.012864626
157	0xbc999308	-0.018746868
158	0x3d41f397	0.047351446
159	0x3c977bcd	0.01849165
160	0xbcc181e3	-0.023621505
161	0x3bf4a4f6	0.007465954
162	0xbdae3d34	-0.08507767
163	0x3dc4e29e	0.09613536
164	0x3d03c47f	0.032169815
165	0xbdaeb58d	-0.08530722
166	0xbd3cca9e	-0.04609167
167	0x3d1bfc15	0.0380822
168	0x3d7c1f18	0.06155309
169	0xbd57c8c7	-0.05268171
170	0xbdba5128	-0.090975106
171	0x3dbaa869	0.09114153
172	0x3db5cded	0.08877168
173	0x3d91ae76	0.07113354
174	0x3d85fd81	0.06542493
175	0xbd399f45	-0.045317907
176	0xbdbdb863	-0.092636846
177	0xbd995f7d	-0.07488916
178	0x3db3e389	0.08783633
179	0x3d392b7b	0.04520748
180	0xbd957749	-0.072981425
181	0x3db72dc3	0.08944275
182	0x3dba5b9a	0.09099503
183	0xbd206488	-0.039158374
184	0xbdc07e3c	-0.09399077
185	0xbd725541	-0.059163336
186	0x3dbf8d39	0.09353108
187	0xbc10c96a	-0.008837083
188	0xbb323f63	-0.0027198426
189	0x3cce61a0	0.025193036
190	0x3d0bb40e	0.03410726
191	0x3d40c90b	0.04706673
192	0x39bb4975	0.0003572215
193	0x3c6ba2a5	0.014382039
194	0xbccbe0d0	-0.024887472
195	0x3cb94b01	0.022618772
196	0xbbbbab05	-0.005727174
197	0xbd696584	-0.05698158
198	0x3c1a2c3d	0.009409961
199	0xbd06c1e1	-0.03289974
200	0x3b25b4eb	0.0025284837
201	0xbb4886be	-0.003059789
202	0xbdafc9d3	-0.08583417
203	0xbd893c37	-0.06700938
204	0xbdcd5e16	-0.10027711
205	0x3d03c561	0.032170657
206	0x3d15f31d	0.036608804
207	0x3dcae616	0.09907167
208	0xbd30c75e	-0.04315888
209	0xbcf6294e	-0.030048992
210	0x3ce09d9f	0.02741891
211	0xbd9f1c1f	-0.077690355
212	0x3d9418e2	0.072313085
213	0xbd267ccb	-0.040646356
214	0xbd489ce6	-0.048977755
215	0x3cbeaaab	0.02327474
216	0x3dce57d7	0.10075348
217	0x3d63e451	0.05563766
218	0x3d85496d	0.065081455
219	0xbdc84a40	-0.09779787
220	0x3db7c203	0.08972552
221	0xbd1828d6	-0.03714832
222	0x3d8ea696	0.069653675
223	0x3dc18087	0.09448343
224	0x3db58372	0.08862962
225	0xbc029228	-0.007969417
226	0x3d7bcff1	0.061477605
227	0x3b604fbd	0.0034227215
228	0x3da8a077	0.08233731
229	0xbd03cd1e	-0.032178037
230	0xbcefd82b	-0.029277882
231	0x3c32836b	0.01089559
232	0xbcaf1241	-0.021371009
233	0xbc5d7a5e	-0.013517944
234	0xbd9dc56e	-0.07703672
235	0x3ccae5de	0.024767812
236	0xbd09c8b5	-0.033638675
237	0xbcbc621a	-0.022995997
238	0xbd924798	-0.07142562
239	0x3d99eed9	0.0751626
240	0x3c79a792	0.015237706
241	0xbd075d5e	-0.033048026
242	0x3c5f8f52	0.01364501
243	0xbc81c272	-0.015839789
244	0xbd520d95	-0.051282484
245	0xbd9149a6	-0.070941254
246	0x3d3f2d95	0.04667433
247	0xbd8396c8	-0.064252436
248	0xbd1af9b1	-0.03783578
249	0x3d315838	0.043297023
250	0x3d12af85	0.03581192
251	0x3da10f35	0.07864229
252	0x3d8fac76	0.07015316
253	0x3c5daa49	0.013529369
254	0x3ba3e73b	0.00500193
255	0xbdbc98df	-0.09208845

enc_f.lstm.weight_hh_l0 f4 [384, 96]
0	0xbd2f9dfb	-0.04287527
1	0xbccfc820	-0.025363982
2	0x3ccd5f8f	0.02506998
3	0x3d5fbba1	0.054622296
4	0xbd567c07	-0.052364375
5	0x3d105c10	0.035244048
6	0x3a2f79b5	0.0006693856
7	0xbc0d9065	-0.008640383
8	0x3d9c1a7c	0.07622239
9	0x3dc576f4	0.09641829
10	0x3db711c9	0.08938939
11	0xbd3e8870	-0.046516836
12	0xbc346009	-0.011009225
13	0x3c85f297	0.016351027
14	0x3c561406	0.013066297
15	0xbd1db480	-0.038502216
16	0xbdb2ee26	-0.087368295
17	0xbd116a13	-0.03550155
18	0x3d8a25b6	0.06745474
19	0x3b3b1d5e	0.002855144
20	0xbdcf1350	-0.101111054
21	0xbbb2e4b7	-0.005459394
22	0xbdab6b9e	-0.08370136
23	0x3d2fbba9	0.042903576
24	0x3dcc5a11	0.09978116
25	0xbd24d48a	-0.040241756
26	0xbdbc5e0e	-0.09197627
27	0x3d344f96	0.04402121
28	0xbd866518	-0.06562251
29	0x3d9d60b5	0.07684461
30	0xbcd43cf5	-0.025907973
31	0x3d8d850d	0.06910143
32	0xbce42860	-0.027851284
33	0xbd3a1191	-0.04542691
34	0x3d35be4d	0.044370938
35	0x3d1bc798	0.038032144
36	0xbda804f5	-0.082040705
37	0xbd844099	-0.064576335
38	0x3c9f2fab	0.01943191
39	0xbd9aee0a	-0.075649336
40	0xbdcacbba	-0.09902139
41	0xbd86c3f4	-0.06580344
42	0xbdc56e36	-0.09640162
43	0x3d3f6c50	0.046734154
44	0xbd662066	-0.05618324
45	0x3da8bed6	0.08239524
46	0x3d1992f9	0.03749368
47	0x3dc2e5f1	0.09516514
48	0xbd333579	-0.043752167
49	0xbd6e7141	-0.058213476
50	0xbc6b07e0	-0.014345139
51	0xbd9ad9c8	-0.0756107
52	0x3da3669a	0.07978554
53	0xbd83d5d1	-0.064372666
54	0x3cd94d0c	0.026525997
55	0x3d3b6f79	0.045760605
56	0x3d947854	0.07249513
57	0xbcb849d5	-0.022496143
58	0xbbc0368f	-0.005865879
59	0xbbba4770	-0.0056847855
60	0x3d80b23f	0.06283998
61	0xbc1790b0	-0.009250805
62	0x3d0838b8	0.033257216
63	0x3ca8dd50	0.020613343
64	0x3cd0a184	0.025467642
65	0x3d3b8b7d	0.045787323
66	0x3d397056	0.045273148
67	0xbd0b9e9c	-0.03408681
68	0xbced9b45	-0.029004702
69	0xbd314e4d	-0.043287564
70	0x3cea42b1	0.028596254
71	0x3d5f51d6	0.054521404
72	0x3d46108e	0.04835563
73	0xbcf9899b	-0.030461123
74	0x3c143e39	0.009048038
75	0xbc9a1c29	-0.018812256
76	0x3db6dc39	0.08928723
77	0x3d889160	0.06668353
78	0xbc581806	-0.013189321
79	0x3d126d53	0.03574879
80	0x3dbd6ac2	0.09248878
81	0xbdcaaed0	-0.09896624
82	0xbd2aece0	-0.041729808
83	0x3d938198	0.072024524
84	0x3d942c11	0.072349675
85	0x3cb67346	0.022271764
86	0x3da3fc5e	0.080071196
87	0x3d8257f5	0.06364433
88	0x3dc272be	0.094945416
89	0xbdb55481	-0.088540085
90	0x3d6f8f42	0.05848623
91	0x3dc348d2	0.09535374
92	0x3db488e1	0.0881517
93	0x3dc4794e	0.095934495
94	0x3ac19de9	0.0014771792
95	0x3d2a899b	0.041635137
96	0x3d7de702	0.061987884
97	0x3a90fc4e	0.0011061521
98	0xbd791074	-0.060806707
99	0xbcd0889f	-0.025455771
100	0xbb82945e	-0.003984972
101	0xbdc1b0d9	-0.09457559
102	0xbd56e4d2	-0.052464314
103	0x3d8aac89	0.0677119
104	0x3d3303a1	0.043704633
105	0xb9ab34c0	-0.00032654963
106	0x3b815644	0.0039470512
107	0xbd894bf1	-0.06703938
108	0xbbfcd259	-0.007715505
109	0x3dc0b1d9	0.09408922
110	0xbc879121	-0.016548695
111	0x3d93e2a1	0.072209604
112	0xb8ab0dc6	-8.156481e-05
113	0x3ca34e16	0.019934695
114	0x3db33ee2	0.08752228
115	0x3be8d167	0.007105041
116	0x3d796d6a	0.06089536
117	0xbd3f973c	-0.046775088
118	0x3d01936e	0.03163474
119	0x3d9e423f	0.07727479
120	0xbcb96b24	-0.022634096
121	0x3cc41531	0.023935886
122	0xbcc03b48	-0.023465768
123	0xbd5e5039	-0.054275725
124	0x3d355046	0.044266008
125	0xbd878243	-0.06616642
126	0x3d87b947	0.06627136
127	0xbd901c6b	-0.0703667
128	0xbd48cf84	-0.049026027
129	0x3d4b72e4	0.049670115
130	0xbcfcd3f4	-0.030862786
131	0xbbbe7078	-0.005811747
132	0x3d6a609e	0.057221048
133	0x3a67f79c	0.00088488474
134	0xbdbbb026	-0.09164457
135	0xbca1f1a0	-0.019768536
136	0xbd794eee	-0.06086629
137	0xbc5dd936	-0.013540557
138	0x3ccb3d95	0.024809638
139	0x3d0c9548	0.034322053
140	0xbc2ba9ce	-0.010477496
141	0x3d6e49c8	0.058175832
142	0x3d681fde	0.056671016
143	0xbbaff8e8	-0.005370248
144	0x3dbf0f10	0.09329045
145	0x3b6c46b5	0.0036052887
146	0xbd192737	-0.037390914
147	0x3d090333	0.033450317
148	0xbd022b78	-0.031779736
149	0x3cabf0e8	0.020988896
150	0x3d571e3b	0.052519064
151	0x3d42c193	0.047547888
152	0x3c6c48d7	0.014421663
153	0x3c320659	0.010865771
154	0xbda52b92	-0.08064951
155	0x3ccaa8b5	0.024738649
156	0xbc3e4448	-0.011612959
157	0x3da5d1c4	0.0809665
158	0xbd846c01	-0.064659126
159	0x3dd0306f	0.10165488
160	0x3c986f31	0.018607708
161	0xbbd81997	-0.0065948474
162	0xbc71d843	-0.0147610335
163	0x3d9c0aaf	0.07619225
164	0xbce384e4	-0.027773328
165	0xbd8cf0da	-0.06881876
166	0xbd2025b5	-0.03909846
167	0xbd0cc1e3	-0.034364592
168	0x3d3e3fa0	0.046447396
169	0xbd2e18ae	-0.042504005
170	0xbd55901b	-0.052139383
171	0xbca50446	-0.02014364
172	0x3d3a6709	0.04550842
173	0xbd831d33	-0.06402054
174	0xbbf3e0f0	-0.007442586
175	0xbd9c169b	-0.07621499
176	0x3c767ea1	0.015044839
177	0x3d8b20f7	0.06793397
178	0x3d1d243e	0.03836464
179	0xbd85db2d	-0.06535945
180	0xbda34b1b	-0.079733096
181	0xb99b7c28	-0.00029656407
182	0x3d4b7065	0.049667735
183	0x3d53bb0d	0.051692057
184	0xbcf61ec3	-0.030043965
185	0xbdb8efaa	-0.09030087
186	0x3d912f8c	0.07089147
187	0xbd8109fa	-0.06300731
188	0x3d8fc073	0.07019129
189	0x3cd50e27	0.026007725
190	0xbb4780eb	-0.0030441831
191	0x3d15d46d	0.036579538
192	0x3d41e735	0.047339637
193	0xbd905917	-0.070482425
194	0x3d10fa7e	0.035395138
195	0xba577906	-0.0008219633
196	0xbd9c2919	-0.07625026
197	0xbd005ad1	-0.03133661
198	0x3d34f285	0.044176597
199	0x3c9f53e7	0.019449187
200	0xbd07c723	-0.033148896
201	0x3d3e3f58	0.046447128
202	0xbbd82590	-0.0065962747
203	0xbd622f0d	-0.055220652
204	0xbdb798dc	-0.089647025
205	0xbcbd7988	-0.02312924
206	0x3dc09091	0.09402574
207	0xbce7b020	-0.028282225
208	0xbca17781	-0.019710304
209	0x3d6cb1e5	0.05778684
210	0xbc27e882	-0.010248305
211	0x3d5c62b1	0.053805057
212	0xbd79f24e	-0.061022095
213	0x3d756527	0.05991092
214	0xbd352355	-0.04422315
215	0x3c25cba1	0.01011935
216	0x3d146629	0.03623024
217	0x3d793f01	0.0608511
218	0xbd9abec7	-0.07555919
219	0xbd972d73	-0.073817156
220	0xbdc4ab51	-0.096029885
221	0x3d2155b4	0.039388373
222	0x3b8951a2	0.0041906396
223	0xbdcdf643	-0.10056736
224	0x3d605d6c	0.054776594
225	0xbd7a0d66	-0.061047934
226	0xbce56173	-0.028000569
227	0x3ccdb0f6	0.025108796
228	0x3d05bd23	0.032651078
229	0x3ca1b211	0.019738229
230	0x3d7f0a98	0.062265962
231	0x3d85b487	0.065285735
232	0xbc02bc3e	-0.007979451
233	0x3d9cc2c5	0.07654337
234	0xbdadad48	-0.084803164
235	0xbd0c2249	-0.034212384
236	0x3d1cb27e	0.03825616
237	0x3d1845fe	0.037176125
238	0xbc9a5554	-0.018839516
239	0xbb8c9ff7	-0.0042915302
240	0xbdd493c5	-0.10379747
241	0xbc7f6931	-0.015589044
242	0xbd45909b	-0.04823361
243	0xbdcf0dd9	-0.10110063
244	0xbccb57b1	-0.024822088
245	0xbdb4a5ef	-0.08820712
246	0xbb69f40a	-0.0035698437
247	0x3b9b3444	0.004736455
248	0xbd164499	-0.036686514
249	0xbce396f4	-0.027781941
250	0x3d9a2880	0.07527256
251	0xbdac2b37	-0.0840668
252	0x3d201c26	0.039089344
253	0xbd2458ab	-0.040123623
254	0x3dc6960b	0.09696587
255	0xbc38e0cf	-0.011284067

enc_f.lstm.bias_ih_l0 f4 [384]
0	0xbdcadbb0	-0.09905183
1	0xbcb3325f	-0.021874605
2	0x3da48714	0.080335766
3	0xbcff7230	-0.031182379
4	0xbda8482a	-0.08216889
5	0xbc8cf08a	-0.017204542
6	0xbd49aadd	-0.049235214
7	0x3d2888c6	0.041146062
8	0xbdad934e	-0.08475362
9	0x3d9b126b	0.07571872
10	0xbdcf6314	-0.101263195
11	0x3d7b5ac1	0.061365847
12	0xbd1f8d8c	-0.03895335
13	0x3da0d267	0.07852631
14	0x3be29cab	0.006915649
15	0xbd8f289f	-0.0699017
16	0xbd10781d	-0.0352708
17	0x3d6a460b	0.057195704
18	0xbd8388b1	-0.06422556
19	0xbd8c71a8	-0.06857616
20	0x3d23f265	0.040026087
21	0xbdb7b8eb	-0.08970817
22	0xbcd72854	-0.026264347
23	0xbd1527fb	-0.03641508
24	0xbca91262	-0.020638648
25	0xbcf06b53	-0.029348051
26	0xbcb4dd3e	-0.022078153
27	0x3d90010b	0.07031449
28	0xbd9aae38	-0.07552761
29	0x3d806db5	0.06270925
30	0xbc744002	-0.014907839
31	0x3cca6813	0.02470783
32	0x3d931931	0.07182539
33	0x3d9fcd86	0.07802872
34	0x3dacd34e	0.08438741
35	0x3daa06f8	0.083021104
36	0xbd8ad038	-0.06777996
37	0xbc165e29	-0.009177723
38	0xbdbfe0f5	-0.09369079
39	0x3dc51e9e	0.096249804
40	0xbc939f23	-0.018020218
41	0xbc535f8a	-0.012901196
42	0x3d9cc74b	0.076551996
43	0x3cf3f4d5	0.029779831
44	0x3d50a1fd	0.050935734
45	0xbd54f350	-0.051989853
46	0xbcd45bc9	-0.025922673
47	0xbd87950c	-0.06620225
48	0x3cc83325	0.02443845
49	0xbb60a35b	-0.0034277055
50	0x3d907f79	0.070555635
51	0x3da9e77b	0.082961045
52	0xbce2876f	-0.02765247
53	0xbd8138ce	-0.06309663
54	0x3db5ca05	0.08876423
55	0xbb880677	-0.0041511613
56	0xbd151084	-0.036392704
57	0x3d8859f0	0.06657779
58	0xbc902a2e	-0.017598238
59	0xbdb80ffa	-0.08987422
60	0xbdc06cfa	-0.09395786
61	0xbdaff593	-0.085917614
62	0xbc1707a2	-0.009218128
63	0xbd1eea67	-0.038797762
64	0xbdae673b	-0.085157834
65	0xbd861ef9	-0.06548876
66	0x3d8fab2c	0.0701507
67	0x3db62ac0	0.08894873
68	0xbd8b8228	-0.06811935
69	0xbd1b8f2f	-0.037978347
70	0xbcea1188	-0.028572813
71	0xbc8a6788	-0.01689507
72	0xbcce56ec	-0.025187932
73	0xbcf0ccbd	-0.029394502
74	0xbdbc2421	-0.091865785
75	0x3b81e80e	0.0039644307
76	0xbd696e85	-0.056990165
77	0xbda3506d	-0.079743244
78	0xbdc77e55	-0.09740893
79	0x3d340acf	0.04395562
80	0xbbde74de	-0.006788834
81	0x3d02d82d	0.031944443
82	0xbd0a5348	-0.03377083
83	0x3d1f12fe	0.03883647
84	0x3d9d5291	0.07681764
85	0xbd205ee4	-0.039152995
86	0xbd9b04f2	-0.075693026
87	0xbc294a09	-0.010332593
88	0xbcc0e8e6	-0.023548555
89	0x3d99d121	0.07510591
90	0x3da7b3cd	0.08188591
91	0x3d315445	0.043293256
92	0x3d1c045f	0.038090106
93	0x3dcab0cd	0.09897003
94	0xbd335a38	-0.04378721
95	0xbc1314fb	-0.00897717
96	0x3d45912d	0.048234154
97	0xbdbfe507	-0.093698554
98	0x3ce4d696	0.027934354
99	0x3d8c3f44	0.068480045
100	0xbb042490	-0.0020163395
101	0xbcbb98ac	-0.022899948
102	0x3c434df2	0.011920439
103	0x3c9ea62f	0.019366352
104	0xb4e1bd30	-4.2047168e-07
105	0xbcf23b77	-0.02956937
106	0x3d496287	0.04916623
107	0x3bd40f81	0.006471575
108	0x3dc68957	0.09694164
109	0x3d592f66	0.05302372
110	0xbda1d123	-0.07901218
111	0x3c9bc26c	0.019013606
112	0x3d26ffa6	0.04077115
113	0x3c8f3ded	0.017485583
114	0xbb912f6a	-0.004430701
115	0xbda38e46	-0.07986121
116	0xbdc6ef5f	-0.09713625
117	0xbd0d68cf	-0.03452378
118	0xbd62c7d5	-0.055366356
119	0xbd7f4a36	-0.062326632
120	0xbd65b9f6	-0.05608555
121	0x3dc4c934	0.09608689
122	0xbd5ba3ce	-0.053623013
123	0x3d852bab	0.0650247
124	0xbd50c12f	-0.050965484
125	0xbbfff12a	-0.0078107314
126	0x3dbad368	0.09122354
127	0x3ca0a2c1	0.019608857
128	0x3c704588	0.014665015
129	0x3cbbd481	0.022928478
130	0xbd455bfe	-0.048183434
131	0xbd2eb3af	-0.04265183
132	0x3d8f3925	0.06993321
133	0x3d0ad8d2	0.033898182
134	0x3b4f82da	0.0031663687
135	0xbd858e29	-0.065212555
136	0x3ccc5ee2	0.024947587
137	0x3d240560	0.04004419
138	0x3d62ad04	0.05534078
139	0x3d78c335	0.06073304
140	0x3d5da1fb	0.054109555
141	0x3d7ef210	0.062242568
142	0x3d8a4b5f	0.06752657
143	0x3cd9c06a	0.026581008
144	0x3d942d23	0.07235172
145	0xbdc1619f	-0.09442448
146	0x3d31171f	0.04323494
147	0xbc7723ed	-0.015084249
148	0x3d85f3d7	0.065406494
149	0x3b860293	0.0040896623
150	0xbae71e39	-0.0017632908
151	0x3d91338a	0.070899084
152	0xbc4e362e	-0.01258616
153	0xbd67d18e	-0.05659633
154	0xbd7fd8e5	-0.062462706
155	0xbd8857e8	-0.06657392
156	0xbcb72172	-0.022354815
157	0xbd32b154	-0.043626145
158	0xbc1f9d2d	-0.0097420635
159	0x3beeb169	0.0072843325
160	0x3c8376ed	0.01604792
161	0x3d0a6513	0.033787798
162	0xbcd0c5fc	-0.025485031
163	0xbcc1dc4b	-0.023664614
164	0x3dd126e5	0.10212497
165	0x3dc93bcb	0.09825858
166	0xbdc8cd08	-0.098047316
167	0x3d3f1613	0.04665191
168	0xbdb5df9a	-0.08880539
169	0xbbdfbe67	-0.0068281177
170	0x3da27bb2	0.07933749
171	0x3db1e2ed	0.08685861
172	0x3d0f2a2e	0.034952335
173	0x3d5dedb7	0.05418178
174	0x3d997c3a	0.074943975
175	0xbdbb78e7	-0.0915392
176	0xbda2eafd	-0.07954977
177	0xbcffcbfd	-0.031225199
178	0xbcc77cad	-0.024351442
179	0xbd80163e	-0.06254242
180	0x3c445f72	0.011985647
181	0x3d8d98d6	0.06913917
182	0xbd3629ed	-0.044473577
183	0x3c736a85	0.014856939
184	0x3cfa3a86	0.030545484
185	0x3d0912e9	0.0334653
186	0xbd9e7ac6	-0.07738261
187	0x3da62950	0.081133485
188	0xbd33087a	-0.043709256
189	0xbd902906	-0.070390746
190	0x3ba18db9	0.0049302247
191	0x3d16792f	0.036736663
192	0x3cffa60d	0.031207109
193	0xbdb761a3	-0.089541696
194	0x3d76f411	0.060291354
195	0xbdbdec12	-0.092735425
196	0xbd9bd77b	-0.07609459
197	0x3d4c8747	0.049933698
198	0x3d8b2619	0.06794376
199	0x3dc47bbd	0.09593914
200	0xbc731774	-0.014837135
201	0x3d15ad10	0.036542
202	0xbc314cd3	-0.010821539
203	0x3d829285	0.06375603
204	0x3db57de3	0.088619016
205	0xbca5049d	-0.020143801
206	0x3dc3234a	0.09528215
207	0x3dc28c00	0.09499359
208	0xbda7a685	-0.08186058
209	0xbd782cd5	-0.06058963
210	0xbd455cee	-0.048184328
211	0xbd2865b2	-0.04111261
212	0xbd1b54f7	-0.037922826
213	0xbdbaedab	-0.09127363
214	0x3cfe0a2d	0.031010712
215	0xbabd906a	-0.0014462594
216	0xbb8bfd89	-0.004272167
217	0xbd9a8a2b	-0.07545885
218	0xbd894bd8	-0.06703919
219	0xbce18f1d	-0.027534062
220	0x3d134d5a	0.03596244
221	0xbc88dc72	-0.016706679
222	0x3d32e503	0.043675434
223	0x3dcf2f29	0.10116417
224	0x3caf33c5	0.02138699
225	0xbce3ed57	-0.027823133
226	0x3d8b2f9e	0.06796192
227	0x3d487b29	0.04894558
228	0x3da0e72d	0.07856593
229	0xbac49fbb	-0.0015001217
230	0xbd64b472	-0.05583615
231	0xbcdda231	-0.027054878
232	0x3c7f2801	0.0155735025
233	0x3d1fc7d8	0.039008945
234	0x3c33d8b7	0.010976962
235	0x3db3baa3	0.087758325
236	0xbd8b510c	-0.06802568
237	0xbda889bc	-0.08229396
238	0xbd477610	-0.048696578
239	0x3d02c4d2	0.031925984
240	0xbcb2e3fc	-0.021837227
241	0xbdb17d63	-0.08666494
242	0xbd2f21ff	-0.04275703
243	0x3dc00540	0.09376001
244	0xbdb48e56	-0.08816211
245	0xbd93dca1	-0.07219816
246	0xbd458af0	-0.048228204
247	0x3dab0efc	0.083524674
248	0x3c975b3d	0.018476123
249	0xbdbd1fb1	-0.0923456
250	0xb998d0f7	-0.0002914739
251	0x3d8d3b5b	0.06896087
252	0xbd785641	-0.060629133
253	0xbdb09d61	-0.08623768
254	0xbd4f0d44	-0.05054976
255	0x3dbc249c	0.0918667
