TR_LSTM3/_models/삼성전자(005930)_20250910.pt (torch, 831847 bytes, 20 tensors)

enc_p.lstm.weight_ih_l0 f4 [384, 6]
000000 6f 5c d0 bb 9a fe 33 3d ac 0e 62 3d bb 93 bd 3d
       -0.006358675 0.04394398 0.055189773 0.09256693
000010 37 e1 40 3c 17 87 1a bd a7 c2 03 bd 6e 03 92 bb
       0.011772445 -0.037726488 -0.032168057 -0.0044559753
000020 98 c2 b0 3c 24 12 bd bd e0 6b 1f bd e7 b0 74 bc
       0.021577165 -0.09231976 -0.038921237 -0.014934755
000030 09 e9 ee 3b 40 64 a4 3d 0c d4 bc 3c 67 6b b2 bd
       0.0072909635 0.08026934 0.02305033 -0.087118916
000040 ef b8 a0 bd e9 5b 64 bc e5 d1 9d 3d dc f6 3d bd
       -0.07847773 -0.013937929 0.0770605 -0.046378
000050 b8 7c 2a 3d 95 a3 b6 bd 2d ea be bd 9b b9 d5 3c
       0.041622847 -0.089179195 -0.09322009 0.02608948
000060 2b 97 fc 3c 78 ec a7 bd 43 be 2b bd d2 57 ce bc
       0.030833801 -0.081994 -0.041929495 -0.02518836
000070 c3 ce ed 3c 11 4b 84 bd 61 9a 82 3b b4 39 8d 3d
       0.029029256 -0.0645963 0.0039856886 0.068957716
000080 3d 2e a2 bd 05 2d 1e bd 3e 6b d4 bd 9e af 76 3d
       -0.079189755 -0.038617153 -0.10372017 0.060226075
000090 4a 72 49 3d ff b2 50 3d e0 44 ae bc 5f 6e 8d bd
       0.04918126 0.050951954 -0.021273077 -0.06905817
0000a0 4d 73 2a 3c 6b 82 a1 3d 56 03 86 3d d1 4b ca 3d
       0.010403466 0.078862034 0.06543605 0.09877742
0000b0 43 24 88 bd 9e e5 a9 bc a1 c8 bb 3d cd 58 07 bd
       -0.066475414 -0.020739373 0.09169126 -0.03304367
0000c0 88 dd 72 3c 6f f3 44 bd 93 37 bb 3b 5a a7 99 bc
       0.014823325 -0.04808372 0.005713412 -0.018756557
0000d0 66 87 31 3d 0e a5 b2 3d 03 c0 50 bd ea 7f 84 bd
       0.043342017 0.08722888 -0.050964367 -0.0646971
0000e0 95 61 07 3d fa 3f a3 3d e3 ad 56 3d 4f 2b 11 bc
       0.033052046 0.07971187 0.052411925 -0.008860423
0000f0 ee 93 ec bc 9b 58 87 3c c3 97 b8 39 fa 5e c1 3d
       -0.028879132 0.016521743 0.00035208286 0.094419435
000100 50 ae eb bb 52 bb 84 3d 12 09 4f bd 51 fa 83 3a
       -0.0071924105 0.06481041 -0.05054576 0.0010069107
000110 de b3 4a bd c9 77 83 bc 82 fa 39 3b cf ea 81 3d
       -0.04948794 -0.016048329 0.0028378074 0.06343614
000120 61 73 8d bd 0b 31 4b bd 0e c1 e3 3c de 70 af 3c
       -0.069067724 -0.049607318 0.027802017 0.021416124
000130 0b 8c a4 3d 60 54 c0 3d 79 50 cc 3c a0 6a 09 bd
       0.080345236 0.09391093 0.024940716 -0.03354895
000140 51 55 bf bd 99 2e bd bd d3 a6 29 bd 58 3e a9 3c
       -0.09342445 -0.092374034 -0.04141886 0.02065961
000150 75 ad 9b 3d 2c 8f 25 3d 95 2b a3 3d 4b c1 e8 bb
       0.07601444 0.040419742 0.07967297 -0.0071031204
000160 69 03 4c bd 51 a9 c9 bd 71 9a 81 3d 8b 2b 2b 3d
       -0.04980794 -0.09846748 0.063282855 0.041789573
000170 ad d6 98 bd 5c 9c 9b bc 12 7d 38 bb 27 12 b6 3c
       -0.07462821 -0.018995456 -0.002815072 0.022225453
000180 5b 39 54 3d 86 f2 c6 3d a9 27 89 bc d6 c6 2b 3c
       0.05181251 0.097142264 -0.016742544 0.010484418
000190 59 b5 2c bd 2b f4 56 bc 16 3f 7f bd f5 b2 3e bd
       -0.042165134 -0.013119738 -0.062316023 -0.046557385
0001a0 bb 91 96 bd c4 f1 43 bd 69 7a 1b bd 75 b9 80 bd
       -0.07352015 -0.047837988 -0.037958536 -0.06285373
0001b0 e7 2c ad 3b ef f8 b9 bd 7b 9a 79 3d 0d a0 25 bd
       0.005284894 -0.090806834 0.06093834 -0.04043584
0001c0 04 3c 14 bd b4 e9 80 3d a8 9f 84 3d 9f 87 dd 3b
       -0.036190048 0.06294575 0.064757645 0.006760552
0001d0 62 66 c6 bb 27 b8 b1 3d cc 71 b1 3d a5 ee 16 bd
       -0.0060546855 0.086777024 0.08664283 -0.036848683
0001e0 54 78 62 bc b7 de 49 bd bd b0 1f 3c c9 ab 0f 3c
       -0.013822634 -0.049284663 0.0097467275 0.008768984
0001f0 8a 2a 9d bd e4 f4 02 bd 44 ce c7 3d 3d 98 8f bc
       -0.07674129 -0.031971827 0.09756139 -0.017528648
000200 da 10 ad 3d 55 29 b1 3c af fd 38 bd ad 39 8c 3d
       0.0845048 0.021626154 -0.045163807 0.06846938
000210 2d 53 49 3d 45 31 6a bb db b3 07 bd 22 af 28 bc
       0.04915159 -0.0035734933 -0.033130508 -0.010295661
000220 40 ca 31 bc a3 dd 87 bd 52 b2 43 3d 5f 87 76 3d
       -0.010851443 -0.06634071 0.04777748 0.060187694
000230 5c 7a 02 3d 1e 7f 55 3c 03 b3 04 3d 0a d9 18 bd
       0.031854972 0.013030795 0.03239728 -0.03731636
000240 48 89 19 3c 7f 40 3e bd 2e ca d3 bd 97 21 86 3d
       0.009371109 -0.046448227 -0.10341297 0.065493755
000250 36 0d d3 3d 20 cc 37 bd c2 8c 9a bd 1c 52 bd bc
       0.10305254 -0.044872403 -0.07546379 -0.023110442
000260 7b 32 9b 3d 13 9c 2e 3d 3b 14 76 bd 7d 76 84 3d
       0.07577988 0.042629313 -0.060077887 0.06467912
000270 86 0b 7c 3d 07 70 bb bc 01 88 be 3d 35 8a 95 bd
       0.061534427 -0.022880567 0.093032844 -0.073017515
000280 9a ab 18 bd da 2a 97 bd 5f 71 8c 3d 05 e5 b2 3d
       -0.037273027 -0.0738122 0.06857561 0.08735088
000290 59 91 07 bc 9f ca 98 3c de 00 73 3d 0d 00 4b bc
       -0.0082744 0.018651305 0.059327 -0.012390149
0002a0 d2 87 be bd 1c 66 55 bd 46 89 a9 bc 4b 8d 95 3d
       -0.093032494 -0.052099332 -0.02069534 0.0730234
0002b0 20 c8 29 3d b8 4a b0 bd 8c 19 a1 3d 34 8a 97 3d
       0.04145062 -0.086080015 0.07866201 0.07399407
0002c0 02 47 84 bd 3c c1 98 3d cc b5 ee 3c 3e 14 31 bd
       -0.06458856 0.074587315 0.029139422 -0.043232195
0002d0 cf 81 52 3d 4f 8d 46 3d 7e 2f 31 3c f2 f7 36 bd
       0.051393326 0.048474606 0.010814546 -0.044670053
0002e0 a6 ce 60 3b d7 3f 0e bd 8a 5d 41 3d 3e 17 7c bd
       0.003430286 -0.03472885 0.047208346 -0.061545603
0002f0 1b b4 13 bc 99 ca cd bc e3 10 81 3d 2d ad ab 3c
       -0.009015108 -0.02512102 0.06302049 0.0209566
000300 8c 08 a6 3d f5 dd 52 bd d3 83 68 bd f3 7d 6e bd
       0.08107099 -0.051481206 -0.056766342 -0.058225583
000310 7e 82 9d bd d0 61 af bc fe 84 99 bd d1 3d 2f 3d
       -0.07690905 -0.021408945 -0.07496069 0.042783562
000320 93 a3 cd 3d a2 8e 65 3d d6 d9 75 bc b0 fc 6c 3d
       0.10040965 0.05604423 -0.015005549 0.05785817
000330 1a c0 a9 3d e3 d8 03 3c 37 0a a7 3d 8a ac bf 39
       0.082885936 0.008047315 0.08156245 0.0003655891
000340 a2 39 96 bd ee 02 8a 3d c0 ca 93 3d 5e 2d 95 bd
       -0.07335211 0.0673884 0.07216406 -0.07284044
000350 64 08 ba bd 6c 0d 90 bc 44 bc fb 3c 39 59 88 bd
       -0.09083632 -0.017584525 0.03072942 -0.06657643
000360 d5 8c 6a 3d 7d 86 00 bd 1c ea d7 3c a9 21 35 bd
       0.057263214 -0.031378258 0.02635675 -0.044221554
000370 4d 7e 99 bd 13 8e 2c bd 9c c6 1a 3d 33 21 ca 3a
       -0.07494793 -0.04212768 0.037787065 0.0015421271
000380 2e 9c 0a bd d0 b9 8c bd 59 1b af bd 5f 3a a9 3d
       -0.03384035 -0.068713784 -0.08550138 0.082630865
000390 94 5a 59 3c cc 2b 80 3d f9 c0 0f 3c 30 05 d0 bd
       0.013266224 0.062583536 0.008774036 -0.101572394
0003a0 24 fe 17 bd 0e 53 94 3d 6b dd 5b 3c d2 61 8b 3b
       -0.0371076 0.07242404 0.013419489 0.0042536044
0003b0 81 12 a0 3d 43 4b b6 bc 3c c2 ba bd 80 ee b2 3d
       0.07816029 -0.022252684 -0.091190785 0.087368965
0003c0 12 7b 03 bd b0 79 8c 3c 6b fd 88 bc 9c 95 9f 3d
       -0.03209979 0.017147869 -0.016722402 0.077922076
0003d0 c3 58 26 bc 37 84 10 3d 4c 41 cd bd b7 38 95 3c
       -0.010152998 0.03528234 -0.1002222 0.01821552
0003e0 0c 6e a7 3d fd 39 46 3d 2a e5 f5 bc b2 ce 0f bd
       0.08175287 0.048395146 -0.0300165 -0.03510923
0003f0 92 4c a5 3d b2 6f c8 bd c4 73 08 3d f1 f0 41 bc
       0.08071245 -0.09786929 0.033313528 -0.01183723

enc_p.lstm.weight_hh_l0 f4 [384, 96]
000000 a8 2e 3e 3d 38 35 88 bd af 99 95 3d e7 ed a9 3d
       0.046431214 -0.06650776 0.073047034 0.082973294
000010 83 4a 85 bd 05 a1 cb 3d d0 73 cf 3a 62 71 92 3d
       -0.065083526 0.099428214 0.0015827361 0.07150532
000020 7f 23 83 bd 86 1a a9 bd 36 06 7d 3d 2e 1b 4f bd
       -0.06403255 -0.08257012 0.0617735 -0.05056303
000030 f2 0c 9c bd 5a a4 95 3c 75 34 c3 bb b0 54 01 3d
       -0.076196566 0.018266845 -0.005957181 0.031574905
000040 45 16 87 3d d8 02 f0 3c 2d 28 e7 3c ca 20 ac 3d
       0.065960445 0.029298231 0.0282174 0.084046915
000050 a1 ca fb bc 6c 62 d1 3d 81 12 25 3c f6 bf b7 bc
       -0.03073627 0.102238506 0.010075212 -0.022430401
000060 11 a4 99 3c 12 14 9c bd 9d ad 12 bd 28 da 73 bc
       0.01875499 -0.076210156 -0.0358101 -0.0148835555
000070 c1 bc f1 bb 43 ed 94 3c 61 60 af bb 9c 26 e9 3c
       -0.0073772375 0.018179541 -0.0053520654 0.028460793
000080 d9 8d 97 bd be 91 96 bd 3c 90 7d bb cb 7d 1f bd
       -0.07400102 -0.07352017 -0.0038690707 -0.038938325
000090 d2 6b d1 3d 17 80 8f 3d 4f 51 a4 bd 9a a5 a8 3c
       0.10225643 0.07006853 -0.08023321 0.020586777
0000a0 08 1f 30 bd 8c c1 95 bc e9 83 ef bc 19 f2 22 3d
       -0.042998344 -0.018280767 -0.029237704 0.039781664
0000b0 b1 e9 17 bd 33 96 93 bd 33 f3 95 3b 61 74 8a bc
       -0.0370881 -0.072063826 0.0045761107 -0.016901197
0000c0 23 97 b6 3d 4a b3 62 3d 7f 6f b1 3d 76 ac c9 bd
       0.08915546 0.055346765 0.08663844 -0.098473474
0000d0 59 2e 27 bd 98 2f e3 bc fd d5 99 bd b6 f8 c6 bd
       -0.040815685 -0.027732655 -0.07511518 -0.097154066
0000e0 93 47 97 bd c9 cc bc bd 59 89 79 bc b1 ce 0f bd
       -0.073866986 -0.09218747 -0.0152305 -0.035109226
0000f0 ed 54 c1 3d e4 13 a1 3b 46 b9 ac bd 91 3d ce 3d
       0.094400264 0.004915701 -0.084337756 0.100703366
000100 97 4c a6 3d 4b f9 af bd a9 d1 b6 bc f9 0f 3d 3d
       0.08120077 -0.08592471 -0.02231677 0.04615781
000110 4f b7 79 3d a5 67 97 3d f4 75 be 3d 9b 2e 9c bd
       0.060965832 0.073928155 0.092998415 -0.07626077
000120 81 c8 02 bb d9 d9 42 bd 5a 38 a5 3d 6b 69 a0 3d
       -0.0019955935 -0.047571037 0.08067389 0.07832607
000130 81 7b 6e 3d ea 5b aa 3d db 4a b5 bd 71 7a b5 bd
       0.05822325 0.083183125 -0.08852168 -0.088612445
000140 24 19 3b bd 6d ed c9 3d 32 30 39 3c f6 c8 96 bc
       -0.045678273 0.098597385 0.011302995 -0.018406373
000150 c5 ef 3d 3c a2 33 78 39 3e b9 87 b9 1a a2 eb 3a
       0.01159281 0.00023670358 -0.00025887223 0.0017977387
000160 a4 1b 8c 3d 6a a6 01 39 21 f1 17 bd 30 7b cc bd
       0.068412095 0.00012364393 -0.037095193 -0.09984434
000170 e8 db 18 bc 31 38 b0 3d d7 a3 83 bd bd 04 25 3d
       -0.0093297735 0.08604468 -0.06427734 0.040287722
000180 44 6a 11 bd 40 22 b9 bc f5 07 b5 bd 80 a6 c5 3c
       -0.035501733 -0.02259934 -0.08839408 0.024127245
000190 fc ab b1 bc ab c9 0f bd 84 f2 ad bd 49 14 8c bc
       -0.021688454 -0.035104435 -0.08493522 -0.017099516
0001a0 da e9 fa ba 78 d1 e1 3b 48 a8 8b 3d 9f e2 fd 3c
       -0.001914318 0.0068914257 0.068192065 0.03099185
0001b0 8d af dc 3c e4 83 bb bd da 8a 92 bd 52 f7 9e 3d
       0.026939178 -0.091560155 -0.0715539 0.07762016
0001c0 d3 20 61 3d 91 90 49 3c 88 8d a4 3d 6a 6c d1 bd
       0.054962944 0.012302534 0.080348074 -0.102257565
0001d0 95 73 05 bc 60 ad 79 bd 83 70 35 3d 74 4d 6d bd
       -0.008145233 -0.06095636 0.044296753 -0.057935193
0001e0 ac 4b 8b bd ef 03 bd bc 9f 73 f1 bc 59 ed 27 bc
       -0.06801543 -0.023073165 -0.029474078 -0.010249459
0001f0 56 06 95 bd 47 d9 99 3d d2 e4 55 bd 2d 2c 21 3c
       -0.07276599 0.075121455 -0.052220173 0.0098371925
000200 85 dd 21 bd 8e d4 51 bd ab f4 88 3d 8e 37 fb bc
       -0.039517898 -0.0512281 0.06687292 -0.030666139
000210 27 eb 14 3d 74 d0 2f 3d 24 90 c3 bd 2f e0 cb bd
       0.03635707 0.042923406 -0.09548977 -0.09954869
000220 a9 1b ac 3d 55 c8 d0 bd da 3d bd bd 82 21 52 3d
       0.08403713 -0.1019446 -0.09240313 0.051301487
000230 72 d6 ec 3c e7 1c 3e 3d 97 13 ae 3b b7 ac 12 bd
       0.02891085 0.046414282 0.005312394 -0.035809245
000240 8d c4 d0 3d 5b fa a8 3d 58 f9 c5 bc 73 de ae 3d
       0.10193739 0.082508765 -0.024166748 0.085385226
000250 05 2f 8d 3d bb 6a 92 bd 90 3b 07 bc 7f 9e 64 3c
       0.06893734 -0.071492635 -0.008253947 0.013953804
000260 68 85 9f 3d 9e 0d 2e 3d 29 0f 5c bd 0d ea 30 3d
       0.07789117 0.042493455 -0.053725395 0.04319196
000270 42 1c 94 3c a6 6a 33 bb 19 c5 b6 bd cd 72 7e 3c
       0.01807988 -0.00273768 -0.08924312 0.0155303
000280 e6 68 9b bd 6d 97 8a bd 8c fa 50 3c 14 ec 45 bd
       -0.07588367 -0.067671634 0.0127550475 -0.048320845
000290 2d be 9b 3c bf b8 26 3d 9c 98 75 3c d1 79 86 bd
       0.019011581 0.04070353 0.014989998 -0.065662034
0002a0 76 d3 74 bb 02 66 88 3b b0 a0 96 bd 21 a6 be 3c
       -0.0037357486 0.004162551 -0.073548675 0.023272576
0002b0 07 30 65 3d dd 47 b9 bc a8 91 6d bc 6e 3a 8e 3b
       0.055954006 -0.022617275 -0.014500059 0.0043404615
0002c0 3c 69 97 bb 95 66 38 bc ea 41 a5 bc 5a f4 69 3c
       -0.004620699 -0.011254926 -0.020173032 0.014279449
0002d0 65 51 96 bd ed 88 b0 bd 66 8d 93 bc 56 dd 64 bc
       -0.073397435 -0.086198665 -0.01801176 -0.013968786
0002e0 b7 d2 00 3d d8 44 9a 3d 4e f5 11 bd aa 0a 10 3d
       0.031450953 0.07532662 -0.03563433 0.03516642
0002f0 05 98 cf 3d c4 bb 67 3d 3f bc b3 bd ab 04 74 3d
       0.10136417 0.05657555 -0.087761395 0.059574764
000300 06 38 a4 3d f0 c8 b6 3d 35 3f 88 bd e9 f1 01 3d
       0.08018498 0.089250445 -0.06652681 0.031724844
000310 20 08 3b bc 8f aa a8 bc 0c 0e 16 3d 1b 62 90 bd
       -0.011415511 -0.020589141 0.03663449 -0.07049962
000320 cd ed f2 3c 15 21 b7 3d 98 a7 aa bd 97 b5 96 3d
       0.029654408 0.08941857 -0.08332747 0.07358854
000330 e4 09 e5 3c 47 f2 af bc 1f 22 ab bc c1 e8 ce 3b
       0.027958818 -0.021477832 -0.020890294 0.0063143675
000340 47 c3 8e bd bc f3 cc bd ca ab 65 3d 96 e2 11 bd
       -0.0697084 -0.10007426 0.056072034 -0.03561648
000350 8a 62 0b bd eb 92 29 3d a8 e4 ae 3d 4f c1 63 bd
       -0.03402952 0.041399878 0.085397065 -0.055604275
000360 d0 44 91 bd 7a ca 91 bc f3 9b b7 3d 30 96 db 3c
       -0.07093203 -0.017796744 0.08965292 0.026805013
000370 d4 3b 0e 3d 67 63 4c bb 0f 7a 09 bd 75 ac 7b 3d
       0.034725025 -0.0031187178 -0.03356367 0.061443765
000380 be c2 b2 bb 12 1d cc 3d 19 f8 c4 bb ac 66 8b 3d
       -0.005455344 0.09966482 -0.006011021 0.068066925
000390 af dc 21 bd e0 2e 2f bc 00 d3 8e 3b ce ee 9a bd
       -0.0395171 -0.010692328 0.0043586493 -0.0756508
0003a0 9c 60 b4 bd 42 cb c9 3b 12 53 bb 3d a0 cd ab bd
       -0.08807489 0.0061582634 0.09146704 -0.08388829
0003b0 9b 12 86 bd 60 33 6b 3d 00 c1 02 bd 14 df cf 3d
       -0.065465175 0.057422042 -0.03192234 0.10149971
0003c0 fe d1 7b 3c 39 a5 36 bd db 32 aa 3d a5 49 86 bd
       0.01536989 -0.044591162 0.08310481 -0.06557015
0003d0 84 8d 1a 3d ad 87 fc 3b 88 6d b9 bd f4 ee 00 bd
       0.037732616 0.0077066035 -0.090540946 -0.031477883
0003e0 b6 4f a8 3d 27 4a 99 bd a8 b5 b6 3d 52 01 af 3d
       0.08218329 -0.074848466 0.08921367 0.08545174
0003f0 53 ea 4c 3d 2e 08 dd 3c bb 33 25 bd 6e 11 b6 3d
       0.050028156 0.02698144 -0.040332537 0.08890043

enc_p.lstm.bias_ih_l0 f4 [384]
000000 ed da 72 3c f2 0a 82 3d 2a 80 8a 3d 51 f1 b8 3d
       0.014822704 0.06349744 0.067627266 0.090304025
000010 33 ec 89 3d e7 88 98 bd fb f5 9e bd 7c c2 e4 3c
       0.067345046 -0.07447987 -0.07761761 0.027924769
000020 d0 5b a2 bd b8 3e ad 3d 2e d2 69 3d 38 91 41 bd
       -0.07927668 0.08459228 0.05708521 -0.047257632
000030 00 a2 37 bd 32 49 5c bd 9c 3d 6e bd c7 a1 a9 3d
       -0.04483223 -0.053780742 -0.058164224 0.0828281
000040 b4 fa 33 3c 84 84 93 3c 94 02 0f bc c6 65 3c bb
       0.010985065 0.018007524 -0.008728642 -0.0028747185
000050 6d 26 3e 3d 44 e2 9d 3d d9 ac 31 bd 51 d2 92 bb
       0.046423364 0.07709172 -0.04337773 -0.004480638
000060 3d c1 b1 3c 6d b3 80 bd df d6 69 bd 60 eb 55 3d
       0.021698589 -0.06284223 -0.057089683 0.052226424
000070 4d 1b 94 bd a4 13 50 bd 1d 94 aa bd 9b ec 00 bd
       -0.0723177 -0.05079998 -0.083290316 -0.031475645
000080 07 6d b4 bd 5c bd 6c bd 63 a4 53 3d 55 30 58 3d
       -0.08809858 -0.057797775 0.051670443 0.052780468
000090 13 89 a2 3d 6d 51 f1 3b 6c 08 48 3d 03 d4 f9 3b
       0.07936301 0.007364443 0.048836157 0.0076241507
0000a0 07 75 b3 3d 44 38 cd 3d 78 6e 8b 3d 48 2e 71 bd
       0.087625556 0.100204974 0.068081796 -0.058882028
0000b0 d7 2b b0 bd 1b 3c f9 3a 55 7c 4d 3d c5 8c a2 bd
       -0.08602112 0.0019015105 0.0501674 -0.07937006
0000c0 91 5e 56 3d 1a 80 80 3d 3f ff a9 3d c7 dd 9c bd
       0.05233628 0.062744334 0.083006375 -0.07659488
0000d0 85 ea 8a bb 1c 42 42 3d 7e af 8b 3c 24 8c 1a bd
       -0.0042393827 0.047426328 0.017051455 -0.037731305
0000e0 df 5c b5 bd 7f 89 ea 3c f8 df f0 bc b6 62 59 3d
       -0.088556044 0.028630016 -0.029403672 0.053072654
0000f0 80 67 9d bd 1f 99 60 3d c7 d9 03 3d 0c 6b e3 bc
       -0.07685757 0.054833528 0.03219011 -0.027761005
000100 57 ac 05 3d a0 f0 88 3d 41 60 ba 3d 38 14 a0 3d
       0.03263506 0.066865206 0.0910039 0.078163564
000110 44 24 78 3d 78 48 15 bd 34 35 0e 3d fd c9 27 3d
       0.06058146 -0.036446065 0.034718707 0.040964115
000120 aa 0a a2 bc e5 b7 95 bc b5 ae a5 3d df 01 67 3d
       -0.019780476 -0.018276164 0.08089963 0.05639827
000130 a1 0d d0 3b 23 ab 4e bd 61 26 47 3d 65 2d bb 3d
       0.006349281 -0.050456177 0.048620585 0.09139518
000140 76 29 0f 3d 0c 80 fc bb 39 77 85 3d 91 f3 ac bc
       0.03495165 -0.007705694 0.065168805 -0.021112235
000150 bd bc 70 3d ae 6c ae 3d ff 57 6c 3d 32 12 c2 bd
       0.058773745 0.08516823 0.057701107 -0.09476127
000160 8e ef 7a bd a6 d4 6e 3d 55 81 1d 3d ab 84 cf 3d
       -0.061263613 0.058308266 0.03845342 0.10132726
000170 b0 81 26 bb 8e b4 f2 bc 4d 49 16 bd 9f 87 dd bc
       -0.002540689 -0.02962711 -0.036691 -0.027042208
000180 fb 00 4b 3d 19 27 98 bd 55 a1 90 3d 5a e9 2b bc
       0.049561482 -0.07429332 0.07062022 -0.010492647
000190 5c cb 0a bc bc 57 32 bb 20 fa ca 3d 8a 4c a3 3d
       -0.008471336 -0.0027212938 0.09910989 0.07973583
0001a0 26 29 8f bd ee b8 c5 3d 55 a2 ae bc a5 9f be 3c
       -0.0699027 0.09654413 -0.02131764 0.023269484
0001b0 68 0d 19 3d d0 b7 78 3d fe be d6 ba 21 54 6c 3d
       0.0373663 0.060722172 -0.0016383824 0.05769742
0001c0 93 73 a3 bd af 45 df bc 9f 2d 0f 3c 74 de bd bd
       -0.079810284 -0.027254907 0.008738904 -0.09270945
0001d0 33 a0 46 bd 60 e9 ce bd 2e 9c d4 bd 7a c1 6a 3d
       -0.04849262 -0.101031065 -0.103813514 0.05731342
0001e0 25 2c 99 3d a7 88 80 bd 16 07 51 bc 80 6d 24 bd
       0.07479123 -0.06276064 -0.012758037 -0.04014349
0001f0 a7 33 57 bd 27 47 2f bd 6e bf 97 bd ef 9f 8e bc
       -0.052539494 -0.042792466 -0.07409559 -0.017410247
000200 a8 ea 90 bd cb 8b 02 3d 2d 7b 0a bd a8 24 75 bc
       -0.07076007 0.0318716 -0.033808876 -0.014962353
000210 c5 f5 53 3d 67 d7 19 3c 0b be ad bd 36 9c ab bd
       0.051748056 0.009389735 -0.084835134 -0.08379404
000220 6f 36 35 bd c6 83 d4 bc 82 33 85 3d 69 b6 7f bd
       -0.044241365 -0.02594174 0.06503965 -0.06242982
000230 86 84 88 bc f1 a6 d9 bb dc 61 61 3d 01 ff 89 bd
       -0.016664755 -0.0066422154 0.055024967 -0.06738091
000240 3f 62 a8 bd 97 68 b1 bd 67 f0 66 bc 9d 7e a4 bd
       -0.08221864 -0.08662527 -0.014095402 -0.08031962
000250 72 be 84 3d 0a 65 a6 bc b4 a2 21 bd a4 fb ba 3b
       0.06481637 -0.020311851 -0.039461806 0.0057062674
000260 f4 dd aa 3c c5 f3 86 bd 72 eb 24 bd 77 3f 5a 3d
       0.020857789 -0.06589464 -0.0402636 0.05328318
000270 a4 10 c9 3d d6 dd c5 3a 3f 87 3a bd 76 f9 c3 3d
       0.09817627 0.001509602 -0.045539137 0.09569065
000280 27 78 a7 bc cc 0d 15 3d 8b 16 8a bc d4 33 df bb
       -0.020443035 0.03639011 -0.016856452 -0.0068115983
000290 91 d9 af 3d 16 64 a4 ba e7 69 cc 3c 7b 0f 2f bd
       0.085864194 -0.0012542035 0.024952842 -0.042739373
0002a0 31 06 9f bd 14 84 08 bd 2a 9d be bd 6a 4f be ba
       -0.07764853 -0.033329085 -0.093073204 -0.0014519517
0002b0 9f 30 99 39 a0 59 67 3c d3 b1 a0 bd e0 ac 5c bb
       0.0002921866 0.014120489 -0.07846417 -0.0033672377
0002c0 80 4b 8d bd 58 7a 1e 3d 41 fd a5 bd 7d 4d 66 bd
       -0.06899166 0.038690895 -0.08104945 -0.056226242
0002d0 18 c2 95 bb 5e fa 54 bd 83 44 61 3d 8b da 0d bd
       -0.004570257 -0.05199658 0.05499698 -0.034632247
0002e0 93 2b af 3d 76 04 1a 3d 6c 63 7d 3d 7a cf 3d bd
       0.08553233 0.03760191 0.061862394 -0.046340443
0002f0 97 72 1e bd a5 3a 37 bd 6c 2a ca 3c d7 e9 d8 3c
       -0.0386835 -0.044733662 0.024678431 0.026478691
000300 b1 60 44 3d 07 f4 25 3d 3b b6 a7 3d 80 94 bd bd
       0.047943775 0.040515926 0.081890546 -0.0925684
000310 fe 7d f4 3b 66 26 5b bd 10 9f 87 3d 00 33 bc 3c
       0.0074613085 -0.053503416 0.06622136 0.022973537
000320 77 62 8f bc c1 b7 aa bd 8b 9d 98 3d 58 a8 94 bd
       -0.017503006 -0.083358295 0.07451924 -0.072586715
000330 0a 9d ba bd 77 39 89 bd ca c2 0b bd dd 74 64 bc
       -0.09111984 -0.06700414 -0.034121312 -0.013943878
000340 3e 77 79 bc fc c5 2b bd 6f 41 a0 bd c8 08 f3 bc
       -0.015226183 -0.04193686 -0.078249805 -0.029667273
000350 84 cf 35 bd be c1 af 3d ac 94 94 3d d5 e4 ca 3d
       -0.044387355 0.08581875 0.072549194 0.099069275
000360 d8 83 04 3d 57 98 99 bd a3 7e 82 3d 70 b9 1c 3d
       0.0323523 -0.0749976 0.0637181 0.038262784
000370 02 6e ca 3b 21 ad 36 bd 14 01 8b bd e7 70 c1 bc
       0.0061776647 -0.044598702 -0.06787315 -0.023613406
000380 4f f3 81 bd 6b 17 c4 bc e8 b4 e7 3c c6 8b b9 bb
       -0.063452356 -0.023936948 0.028284505 -0.0056624142
000390 4e 47 be 3c 60 e8 ec 3b fd 0c d0 bd 5c c3 3a 3d
       0.02322736 0.0072298497 -0.10158727 0.045596465
0003a0 50 10 f7 3b a7 37 b2 3d 07 d0 7f bb bb 45 70 bd
       0.0075397864 0.08702021 -0.0039033906 -0.05866025
0003b0 93 e0 ee 3c 34 84 0c bc cc 5d 26 bd 6c 30 18 bd
       0.02915982 -0.008576442 -0.040616795 -0.037155554
0003c0 e2 be 35 bd cb ab 36 bc 0f 16 e5 bc f3 53 23 3d
       -0.044371493 -0.011149357 -0.02796462 0.039874982
0003d0 ea 1e 19 bd 18 5c 65 3d ea 38 97 3d 4a 17 06 bb
       -0.037382998 0.05599603 0.07383902 -0.0020460659
0003e0 de 9b eb 3a ab 00 36 3d 90 0f 87 bd dc 91 1d 3d
       0.0017975529 0.04443423 -0.06594765 0.03846918
0003f0 8d 91 d1 bc 47 ab 92 3d ea fb 9d bd 2f 4c 71 3b
       -0.0255821 0.07161575 -0.077140644 0.003681909

enc_p.lstm.bias_hh_l0 f4 [384]
000000 c3 8a 94 3c 44 b4 66 3d 69 e1 64 bd 52 18 0c 3d
       0.018132573 0.05632426 -0.05587903 0.03420288
000010 91 30 d1 bd 6d 17 a7 bd 95 ac 49 bd 9a ad 66 3d
       -0.102143414 -0.08158765 -0.049236853 0.056317903
000020 f9 f6 53 3d 5b 8b 9b bd 55 91 45 bc 17 ee 11 3d
       0.051749203 -0.07594939 -0.012058576 0.03562745
000030 6d 33 87 bd 1e 5e cd bd 48 a3 7f bc a7 1b f3 3b
       -0.066016056 -0.10027717 -0.015602894 0.007419068
000040 a0 d2 81 3c 5b c7 8a bc 49 bd 4a bd ec 3e 1d bd
       0.015847504 -0.016940763 -0.049496923 -0.038390085
000050 31 e7 b5 bc 6d 22 ad bd 9b 27 a9 3d df 3f d2 bc
       -0.022204967 -0.08453832 0.08259507 -0.025665222
000060 76 3b 3f 3d d3 fa 71 3d a6 0e 92 3c f6 c6 94 bb
       0.046687566 0.059077095 0.01782925 -0.0045403196
000070 f8 30 42 bd 3b d5 9f bd c3 a9 08 3c 8b 49 4e 3c
       -0.04740998 -0.07804342 0.008341256 0.012590776
000080 31 ab 0a 3d ce ba 53 3d 83 78 b4 bd 5b 7d 8d bd
       0.033854667 0.051691823 -0.08812048 -0.06908675
000090 17 d3 81 bd 62 28 5a bc 1b 05 93 3d 98 67 88 bd
       -0.0633909 -0.013315292 0.07178708 -0.06660384
0000a0 53 65 8d 3d 9b 0b 4e bd 90 2b 8c 3d ad 93 74 3b
       0.06904092 -0.050304037 0.068442464 0.0037319467
0000b0 8b df 4f 3d a2 c0 20 bd 9e f2 d1 bd 43 74 75 3d
       0.050750297 -0.03924621 -0.10251354 0.05992533
0000c0 36 d5 b5 3d 48 02 85 3d 10 7b cb ba 09 3e 94 3c
       0.088785574 0.06494576 -0.0015524346 0.018095987
0000d0 c1 46 64 3c 98 e6 11 3d 22 6a 63 bd 33 fa b1 3d
       0.013932885 0.035620302 -0.055521138 0.086903
0000e0 4f 00 95 3d 8c b8 b5 bb e3 66 95 bd 30 64 c5 3c
       0.072754495 -0.0055456813 -0.07295015 0.024095625
0000f0 57 87 98 3d 56 41 e8 bc 4e 09 ac bd e8 8f 88 3c
       0.07447689 -0.028351467 -0.08400212 0.016670182
000100 78 7a c4 bc ba 8c b0 bd dc b9 14 bd 90 b7 b8 3d
       -0.023984179 -0.086205915 -0.03631006 0.09019387
000110 ba 6a 96 3d 5f 8c 78 3d ab 73 cb 3c 44 cf 81 bd
       0.07344575 0.060680743 0.024835428 -0.06338361
000120 e6 ec c7 3d 0c 83 98 3d 8c db 04 bd 47 41 1a 3d
       0.09761982 0.0744687 -0.03243594 0.03765991
000130 d0 ff 99 bd 8e 42 9a bd 69 1f 5a 3d 2c 86 4f 3d
       -0.075194955 -0.075322255 0.05325261 0.050665066
000140 86 c7 03 bd 9a 24 0e bd 57 77 bd bd 3f 87 ea 3c
       -0.032172702 -0.034702875 -0.09251278 0.028628943
000150 4b 11 92 3d da f4 6d 3c c6 ad 82 3d c6 3e 19 3d
       0.071322046 0.014523709 0.06380801 0.03741338
000160 87 63 a0 3d 62 b9 4a 3d f1 d0 c6 3d 47 68 79 3d
       0.07831483 0.0494932 0.09707821 0.060890462
000170 e9 13 6b 3d f6 41 c9 3d 2b 86 cb 3d 44 ee 8a bd
       0.057392035 0.09827034 0.099377 -0.06783727
000180 44 d4 87 bd 42 1e 2d bd 97 8e d0 bd 69 78 96 bd
       -0.06632283 -0.042265184 -0.10183447 -0.07347185
000190 cf d0 32 bb f5 73 49 bd 87 82 69 3d 7e f5 99 bd
       -0.0027285104 -0.04918285 0.057009246 -0.07517527
0001a0 c9 c4 dc 3c 05 7a e0 3b cf 1c 3e 3d 18 65 98 bd
       0.026949303 0.0068504834 0.046414193 -0.07441157
0001b0 8e aa 4e 3c 87 20 82 bd 90 d5 1f bd c7 3b cd 3d
       0.012613906 -0.0635386 -0.03902203 0.10021167
0001c0 8e 92 2a bd 4b 6d 0e 3d a1 be 12 bd cd b4 d3 bb
       -0.04164367 0.0347722 -0.03582633 -0.006460762
0001d0 95 ac ab 3d db 8f b6 3d b8 ba 72 3d 33 71 a0 3d
       0.08382527 0.08914157 0.0592601 0.07834091
0001e0 01 d5 d9 3c 16 3a fd 37 65 4e 2a 3d 4a ef 9d bd
       0.026590826 3.0186999e-05 0.04157867 -0.077116564
0001f0 65 32 ba bd 22 6b c0 3d 8f 41 f4 3c 4f b4 91 bc
       -0.09091643 0.09395434 0.029816417 -0.017786173
000200 48 6d 58 3d 5f 6d 15 3d 88 0e 1e 3c c1 7c 96 3c
       0.052838594 0.036481258 0.009647019 0.018370034
000210 04 fe b4 bc 2d 72 84 3d 10 1e a0 bd 13 b6 9b bd
       -0.02209378 0.0646709 -0.07818234 -0.07603087
000220 d3 dd 78 3d f0 34 5c bd cc b5 42 bc 72 ba bb 3d
       0.060758423 -0.053761423 -0.011884164 0.09166421
000230 df 51 80 3d fe a9 a0 bd dd 45 b4 bd bc f2 a9 ba
       0.06265616 -0.078449234 -0.08802388 -0.0012966017
000240 44 95 87 3d 19 c4 ad bd 7f 7b 34 bd 80 c9 76 3d
       0.06620267 -0.08484668 -0.044063088 0.06025076
000250 12 9b cd bd 23 ea 74 bd 71 a3 58 bd ad 60 0d bd
       -0.10039343 -0.059793603 -0.052890245 -0.034516025
000260 37 5f 93 3d 8c a7 7f 3d 7a 44 41 3d dd 83 b9 3c
       0.07195895 0.062415645 0.047184445 0.022645885
000270 2a f6 81 3d cc 7b 1f bd b8 21 c0 bd 3c 24 1b 3c
       0.0634578 -0.03893642 -0.09381431 0.009469088
000280 43 ef 9b bc df b1 da 3c 4e 08 af bd 81 17 52 bd
       -0.019034987 0.026696144 -0.08546506 -0.051291946
000290 b3 55 97 bd 6a e5 88 bd 56 c3 a6 bd 36 01 bf bd
       -0.07389393 -0.06684382 -0.08142726 -0.09326403
0002a0 f2 ef 1f bd 3f 7c d8 bb 26 1b 0b bd bf 06 c2 3c
       -0.03904719 -0.006606608 -0.033961438 0.023684857
0002b0 a2 61 cf 3c 6a 85 ce bc c2 49 1a 3c f3 a2 a2 3d
       0.02531511 -0.025210101 0.009416999 0.07941236
0002c0 ed dc a4 3d 2c 39 12 bd d0 e2 b9 ba 4a f6 99 bc
       0.08049951 -0.035699055 -0.0014181975 -0.018794198
0002d0 7b d6 65 3c 23 9c c1 3d 81 02 45 3c c7 c1 26 3d
       0.014028187 0.09453609 0.012024523 0.040712144
0002e0 3a de 31 3d 3e d6 53 bd 50 cf 87 bd d1 d9 64 3c
       0.043424822 -0.05171799 -0.066313386 0.013967947
0002f0 99 46 28 bd d8 c8 0d bd 04 e9 b3 bc bd 24 cf bd
       -0.041082952 -0.034615368 -0.021961696 -0.10114429
000300 68 21 13 3c ef a3 91 bd 75 30 2b 3d 95 0c ac bc
       0.008980133 -0.07111346 0.04179426 -0.021002093
000310 d4 e2 7c bd 3b 7f cf bd 10 09 d9 3c 81 48 d4 bd
       -0.061739758 -0.10131689 0.02649358 -0.103653915
000320 9f e0 32 3c 29 83 3a 3d 8d 24 8e 3d f5 d2 51 3d
       0.010917812 0.04553524 0.06940565 0.051226575
000330 ca 05 c2 bd c6 93 dc bc eb 5b b6 bd 78 a1 64 3d
       -0.094737604 -0.026925933 -0.08904251 0.05581805
000340 31 3b bc 3b f0 56 3c 3d ba d8 4e 3d 1e 12 ac 3d
       0.005744361 0.045981348 0.050499655 0.08401893
000350 17 58 ef 3b 34 ad ca 3d 59 a0 49 bd be 7a ca 3c
       0.0073042023 0.09896317 -0.049225185 0.024716731
000360 e5 89 fa bc 66 ba 53 bc aa 44 fb 3b 06 92 cd bd
       -0.030583331 -0.012922859 0.0076680975 -0.100376174
000370 e5 91 b1 3d d7 11 ce 39 8b c8 04 ba 46 01 ba bd
       0.08670405 0.00039304674 -0.00050652836 -0.09082274
000380 da 6f 4f bd bb 04 e4 b8 2e f2 cc bd 85 c5 a8 bd
       -0.05064378 -0.00010872768 -0.100071296 -0.08240799
000390 bf a4 0a bb b3 8c 19 3d 5b 52 74 bd 52 14 d5 bc
       -0.0021155325 0.037487697 -0.059648853 -0.026010666
0003a0 e0 a6 96 bc cf ff c0 3d 3b a0 76 bd d6 d7 b4 3d
       -0.01839012 0.094237916 -0.0602114 0.0883023
0003b0 eb 80 b1 3b 88 ac a0 3d 07 5c 94 bd 7e 1c 9f bc
       0.0054169795 0.07845408 -0.07244115 -0.019422766
0003c0 60 fb df bc a8 85 8a 3d 16 8b 80 bd 86 93 b0 bc
       -0.027341545 0.06763774 -0.062765285 -0.02155472
0003d0 14 5f b8 3d 5c 7e 63 bc a2 da c6 bc c3 6c 05 bd
       0.0900251 -0.013885107 -0.024274174 -0.032574426
0003e0 c3 37 d4 bd a3 c0 26 bc e2 b5 2d bd 9d 8e 71 3d
       -0.10362198 -0.010177764 -0.042409785 0.058973897
0003f0 24 36 79 3c 79 74 b6 3d cc bd ae bc 41 b1 8c bd
       0.015210662 0.08908934 -0.021330737 -0.06869746

enc_f.lstm.weight_ih_l0 f4 [384, 4]
000000 49 1f ce 3c bf f7 c5 bc a4 d9 a1 3d e5 de 05 3c
       0.025161402 -0.024165986 0.0790284 0.008170818
000010 67 c9 34 3d 94 fa 9f bd d9 38 4c bb 33 21 84 bc
       0.044137385 -0.07811466 -0.0031161814 -0.016129112
000020 04 10 b4 3d 83 21 ad bc 84 05 5f bc c0 1e d1 bc
       0.08792117 -0.021134144 -0.013612155 -0.025527358
000030 02 06 24 3d 2f 78 ba 3d 0a 4c a4 bd 0a bb c6 bd
       0.040044792 0.091049545 -0.08022316 -0.097036436
000040 57 83 95 3d c0 61 b7 3d 14 ec ae bd cd 44 f2 bb
       0.07300442 0.08954191 -0.08541122 -0.0073934556
000050 55 fb 86 bb a4 da 7c 3c f6 b8 00 3d f7 7c e8 3c
       -0.0041193166 0.015432987 0.031426392 0.0283799
000060 0d f6 bd 3c c3 a4 aa 3c 49 4e 22 bd d0 84 4c 3d
       0.023188615 0.020830518 -0.03962544 0.049931347
000070 94 b7 72 ba 76 39 a2 3d c4 37 88 bd b8 05 1d bc
       -0.00092589227 0.07921116 -0.066512614 -0.009583883
000080 29 1a 32 3c 0a cc f7 3c 38 a8 b3 3c 27 f1 78 bd
       0.010870495 0.03024866 0.021930799 -0.060776856
000090 63 ca bd bd 3f 57 10 bd 6f 29 80 3d e5 2d 61 bd
       -0.09267118 -0.035239454 0.06257903 -0.05497541
0000a0 90 9f bd 3d 83 65 2c 3b 23 18 78 3d 0a 32 83 3d
       0.0925895 0.0026305623 0.060569894 0.064060286
0000b0 52 52 b7 3d 69 36 a0 bd c2 fd 47 3d c4 3f 56 3d
       0.08951248 -0.07822878 0.048825987 0.052306905
0000c0 83 67 41 bd 91 af 17 3d 55 b1 41 bd 10 a8 be bd
       -0.047217857 0.037032668 -0.047288258 -0.09309399
0000d0 3c 29 ed bc fe ff c7 3d 8f 85 a6 3d 00 3a a0 3c
       -0.028950326 0.097656235 0.08130943 0.019558907
0000e0 ad e6 5b bd aa ce 73 3d b1 47 b4 3d c6 bf de 3c
       -0.053686786 0.059523262 0.088027366 0.027191054
0000f0 32 8a 61 ba 57 16 8a bc 6a 2a 95 bd f1 ba 41 bd
       -0.00086036616 -0.016856356 -0.072834805 -0.04729742
000100 85 b8 b6 bd c1 fa c6 bc 4d 46 b8 3d 8e 6f 31 bc
       -0.08921913 -0.02428949 0.08997784 -0.010829819
000110 3f d8 35 3c c4 b6 86 bd 93 86 af 3d e4 e0 09 bd
       0.01109892 -0.065778285 0.0857059 -0.033661738
000120 4b 36 fb bc 4e fb 0c 3d 44 03 b3 bd 25 ee c4 bd
       -0.030665537 0.03441935 -0.08740857 -0.09615735
000130 0f 07 bb 3d 25 76 b8 bd 0e ec e4 bb 73 10 c6 3b
       0.09132206 -0.09006909 -0.0069861477 0.0060444414
000140 d0 e7 81 bd 01 a1 00 3c eb 07 a1 3b 3d 7e ad bd
       -0.06343043 0.007850886 0.004914274 -0.08471344
000150 1e 55 b0 3d 82 10 17 bd 9e 27 91 bc e8 26 d0 bc
       0.08609985 -0.036880977 -0.017719086 -0.025409177
000160 0c 1c 13 bd 1c da 0f bd a1 05 08 3c eb b4 17 3d
       -0.03591542 -0.035120115 0.008302123 0.03703777
000170 7a 0f 13 bd 30 c0 9c 3d 2e 12 99 3d 7d 56 7e 3d
       -0.03590343 0.07653844 0.074741706 0.0620942
000180 cc b7 56 3d 2f 22 2f 3b 8e 56 0d 3d f0 25 8e bd
       0.052421376 0.0026723256 0.034506373 -0.0694083
000190 e4 82 af bd 08 fc ac 3c e1 b3 5c 3d 49 c7 97 3d
       -0.08569887 0.021116272 0.053882483 0.074110575
0001a0 1c 89 57 bc 71 3e 5f bc da c8 dd ba 5a c7 97 bc
       -0.013155248 -0.013625727 -0.001692082 -0.018527675
0001b0 45 e4 03 bd e9 06 b8 3c ed 8f 2e bd 81 0a d0 bd
       -0.032200117 0.022464233 -0.042617727 -0.101582535
0001c0 5e 62 10 3c 7e 23 b4 bd b6 83 72 bc bf bf b7 3c
       0.008812515 -0.08795832 -0.01480191 0.022430299
0001d0 ae 65 b7 3d 6b 15 bb bd 30 73 7f bd 3a c2 8e bc
       0.08954941 -0.091349445 -0.06236571 -0.017426599
0001e0 9b c8 c2 3d 68 6a 12 bd 22 65 8b bd 9a 32 71 bb
       0.09510919 -0.03574601 -0.06806399 -0.0036803843
0001f0 d4 ff 83 bd 51 ac fc bc c7 c5 b4 bd 9c c4 f8 3a
       -0.0644528 -0.030843886 -0.088267855 0.0018979493
000200 5b 0a 48 bd dc 19 20 bd 38 ef cf 3d 1d cd ce 3d
       -0.048838 -0.03908716 0.10153049 0.10097716
000210 d4 c7 ba bd c7 ab a1 bd d6 3b af 3d 7f 3f 98 3a
       -0.091201454 -0.07894092 0.08556335 0.0011615603
000220 9e 93 ae 3d 25 99 30 3d 48 5d 38 bd cf 24 85 bb
       0.085242495 0.0431148 -0.045010835 -0.004063226
000230 31 e1 c7 3d c7 6a 2c bd 1a e6 6b 3d 09 56 a3 3d
       0.09759749 -0.04209402 0.05759249 0.07975394
000240 f0 2f c1 bc 46 ee 69 3d 69 9f 32 bd b6 1c 53 bc
       -0.023582429 0.057112 -0.043609057 -0.012885263
000250 fd 09 c2 3d af a4 a3 3d 5b a9 c8 bd 4c f9 43 bd
       0.09474561 0.07990395 -0.09797927 -0.04784517
000260 dc bd bf 3b fe b9 f5 bc e2 84 21 bb 68 69 22 bc
       0.0058514904 -0.029995915 -0.0024645855 -0.009912826
000270 ec c4 4c 3d 59 f3 82 bd f8 6b 02 bd 55 90 cf 3d
       0.049992487 -0.06394071 -0.03184125 0.10134951
000280 fc 9f a8 bd a1 4f 01 3d 12 5f b1 bd 02 ca 3d bd
       -0.082336396 0.03157008 -0.08660711 -0.046335228
000290 51 f3 65 bd f5 fd 77 3d db 05 9d bb 22 54 f9 bc
       -0.056140248 0.060544927 -0.004791958 -0.030435625
0002a0 b9 3d 60 b8 8c 7f c1 3d d9 9f 00 bd 05 99 b1 bd
       -5.3463245e-05 0.09448156 -0.031402443 -0.08671764
0002b0 e3 04 83 bd d1 38 cd 3d 7e 91 59 bc 22 6e 69 bc
       -0.063974164 0.100206025 -0.013279317 -0.014247449
0002c0 62 15 a2 3c 90 34 cd bd ee 7f f0 bc 77 36 a0 bd
       0.019785587 -0.10019791 -0.029357877 -0.07822888
0002d0 7f eb 2c bd 4c 09 97 bd 74 50 ff 3c cc 64 5a bd
       -0.042216774 -0.0737482 0.031166293 -0.053318784
0002e0 11 a6 9d bd 3b ce 7d 3d c0 9d 93 bd 2f e4 ac 3c
       -0.0769769 0.061964255 -0.07207823 0.0211049
0002f0 1a 3a 0f bd 39 74 44 bc ea 23 d0 3d 92 8e a4 bd
       -0.03496752 -0.0119906 0.101631 -0.08035006
000300 04 61 d4 3d e1 91 30 3d c8 18 a9 bd c2 04 87 bd
       0.10370067 0.04310787 -0.0825668 -0.06592704
000310 40 24 79 3d c7 08 bb bd cd 6b b2 3d e0 89 d1 3d
       0.060825586 -0.091325335 0.087119676 0.10231376
000320 33 60 31 bd 44 40 d0 bc 2f 1c 86 bd 29 96 b6 3d
       -0.043304633 -0.02542127 -0.06548344 0.089153595
000330 34 07 38 3d 16 60 1b 3d 38 d5 33 3d 25 14 43 3c
       0.044928744 0.03793343 0.043904513 0.011906658
000340 df 86 d0 3d 1e 20 0d 3c 6b 39 34 3d 73 52 6f 3c
       0.101819746 0.008613614 0.04400007 0.01460706
000350 7e 48 49 bd 2d 54 80 3d c9 29 5f bd 47 1a 4f 3d
       -0.0491414 0.06266055 -0.05448321 0.05056217
000360 b4 54 b2 bd 0a 56 c6 bd cc 54 30 3d 7a 62 bc ba
       -0.08707562 -0.096843794 0.04304962 -0.001437261
000370 db f4 4c 3d 3a 40 a8 bd 62 a6 b8 3d ed 63 23 bd
       0.0500382 -0.08215375 0.0901611 -0.03989022
000380 3c 44 49 bc e6 cd 62 3d df 96 f5 bb e4 b4 cb bc
       -0.012284335 0.05537214 -0.007494792 -0.024866529
000390 71 a8 c2 3d 08 c2 2a bc 8c c5 bc 3d 11 8c 4e bd
       0.09504784 -0.010422237 0.092173666 -0.050426546
0003a0 17 6d 7e bd b6 d6 52 3d f3 b0 e9 bc 5a 57 ce 3d
       -0.062115755 0.051474296 -0.028526759 0.10075255
0003b0 30 00 bb bb 0e 75 2c bd ec bd d9 3c 6d b8 ab bd
       -0.0057068095 -0.04210382 0.02657982 -0.08384786
0003c0 c1 9d ba 3d 3b 53 c4 ba 47 1e c5 3d 60 62 89 3d
       0.091121204 -0.0014978418 0.096249156 0.06708217
0003d0 b3 ea 16 3c 83 c7 45 3c f5 a5 c8 3d cb d0 2e bd
       0.00921123 0.012071493 0.09797279 -0.04267959
0003e0 87 72 12 bd 3a be 42 bd 6f de bf bd de 86 af bd
       -0.035753753 -0.047544695 -0.09368598 -0.08570646
0003f0 9d a2 c4 bd 5c 3c ca 3d fd a1 46 bd 58 0c 92 bd
       -0.096013285 0.09874794 -0.048494328 -0.07131261

enc_f.lstm.weight_hh_l0 f4 [384, 96]
000000 eb 7e 3d 3d 07 5d ce bc 5c 62 0f bd ad fa ad bc
       0.046263617 -0.025190843 -0.035005912 -0.021237696
000010 c0 9a c2 3d 72 69 61 3c 69 6d 55 bd 58 7d 87 3c
       0.095021725 0.01375805 -0.052106295 0.01653926
000020 bc 55 d6 3d eb 28 3e 3d 3f 95 86 bd 5e 97 c5 3d
       0.10465571 0.04642574 -0.06571435 0.096480116
000030 21 be a6 3d 68 82 7d 3d 1b 23 cb bd 76 0d 60 3d
       0.08141733 0.061891943 -0.09918805 0.054700337
000040 03 2f 2c bc 5b 7e 89 bc c2 77 9a 3d f9 63 5d 3d
       -0.010509255 -0.016783884 0.07542373 0.05405042
000050 05 dc 7d bd 8e 39 2c bd 38 ca c7 3d 05 8c 30 bd
       -0.061977405 -0.042047076 0.09755367 -0.043102283
000060 af 48 84 3d f4 aa 19 3d 66 96 bb 3d 42 e8 fb bc
       0.06459176 0.03751655 0.091595456 -0.030750398
000070 2a 2f 55 bd 31 9b b7 bc 83 0c eb bb 30 62 91 bd
       -0.052046932 -0.022412868 -0.0071731224 -0.07098806
000080 9d 62 9e 3c 45 d1 c7 3d 5b fd 8f 3d 2c e1 3a bd
       0.019334132 0.09756712 0.070307456 -0.045624897
000090 c3 7f 6b bd f4 10 77 bc 8b f8 46 3d 05 57 a2 3d
       -0.05749489 -0.0150797255 0.048576873 0.07926754
0000a0 35 d8 49 bd 43 dc 78 3d 47 3f 85 3c 44 bb c8 bd
       -0.049278457 0.060756933 0.016265525 -0.09801343
0000b0 e4 f0 5a 3c ef ec 43 3d 0d 5f a4 3d 03 5c d1 bd
       0.013363097 0.04783338 0.08025942 -0.10222628
0000c0 85 37 cc 3c a7 34 79 3d 2c 54 43 bd cd 06 92 3d
       0.024928818 0.06084123 -0.047687694 0.071302034
0000d0 d1 79 a3 3c 6f 97 4f bd 10 ee 43 bd 8c 6b ef ba
       0.019955548 -0.050681528 -0.047834456 -0.0018266304
0000e0 fc 34 b5 bd 6d 18 ad bd 0a 8f b5 bd 3a 37 96 3d
       -0.088479966 -0.084519245 -0.08865173 0.073347524
0000f0 56 1f bd 3b 1b 45 12 3d 93 5c 20 3d b5 0c 21 bd
       0.005771558 0.035710435 0.039150786 -0.03931876
000100 e5 4a 85 3d 84 2c cc 3d 42 2a ae bd 61 ac a6 3d
       0.065084256 0.09969428 -0.08504154 0.081383474
000110 4c 81 68 3d ce f1 c4 3d af df 08 bd 88 50 87 bd
       0.056763932 0.09616433 -0.033416446 -0.06607157
000120 db 7d 01 3d 9c 3b 23 3b 3f 8e 9a bc d6 49 5b bd
       0.031614166 0.0024907356 -0.018866656 -0.053537212
000130 da 62 64 bd 31 61 c4 3d 5b 85 94 bd 59 12 2f 3c
       -0.055758335 0.0958885 -0.07251998 0.010685527
000140 39 b7 7c 3d 7f ce 74 bd b3 7a de bc d2 13 72 3d
       0.061698172 -0.059767243 -0.027158117 0.059100933
000150 d1 78 64 bd 0f 4b 21 3d a7 3b 52 bd e0 3b 93 3d
       -0.055779282 0.039378222 -0.05132642 0.071891546
000160 c9 9b 06 bd ca 7f 91 3d 4c d0 92 bd 23 5b 7d 3d
       -0.032863412 0.07104452 -0.07168636 0.061854493
000170 f5 03 8d 3b f2 96 56 bd a9 81 65 3c 7d 73 ac bd
       0.00430345 -0.052390046 0.014007964 -0.08420465
000180 29 a1 85 3d c1 e4 87 3d 43 28 35 bd 1f 4f 9b 3d
       0.065248795 0.06635428 -0.04422785 0.075834505
000190 5e 62 bc 3d 9e 04 c4 bd 64 a7 a4 3c f1 8b 1e bd
       0.091984496 -0.09571193 0.02009935 -0.038707677
0001a0 db 43 4a 3d df 3c ce bc 99 65 b8 bb 64 d3 89 3d
       0.04938112 -0.02517551 -0.0056273458 0.06729773
0001b0 7e 7d b0 bb bf 97 82 3d a5 3b e5 3c 39 b7 48 3d
       -0.0053860536 0.063765995 0.027982542 0.04900286
0001c0 79 18 61 3c f1 cd 8c 3d 40 0b 3c 3b 95 b6 cc 3d
       0.013738745 0.06875218 0.002869323 0.09995762
0001d0 f1 d3 84 bc ec d5 3e 3d d6 e8 46 3d f2 e8 24 bc
       -0.016214343 0.04659073 0.048561893 -0.010065304
0001e0 be d2 08 3d 07 b0 6c bd 76 c7 c4 3d 9f da a1 3d
       0.033404104 -0.05778506 0.09608357 0.07903027
0001f0 99 35 c2 bd 42 ba d1 3d b9 df 63 3d 53 56 7c 3d
       -0.09482879 0.10240604 0.05563328 0.061605763
000200 f7 b7 88 3c 80 de 9e 3d 52 ec a2 3d 3c 96 4b bd
       0.016689284 0.07757282 0.07955231 -0.04970382
000210 55 2b 19 3d 40 02 c9 bd 71 e7 15 3d 69 15 86 3d
       0.03739484 -0.09814882 0.036597673 0.065470524
000220 6d d7 41 bd 33 bc 13 3d 03 b3 15 3d 0a 67 0e 3d
       -0.047324587 0.036068153 0.036547672 0.034766234
000230 92 ee 29 3d df db 70 3d f5 25 c1 bd 71 01 97 3c
       0.041487284 0.058803435 -0.09431068 0.018433305
000240 cb 2a ae bd 6b 9b e0 3c f5 48 1b 3d 3f 82 cb 3c
       -0.08504256 0.027417859 0.037911374 0.02484238
000250 fe b1 b1 bd a3 9d d1 3d dc af 53 3d 17 f9 9b 3d
       -0.086765274 0.10235145 0.051681384 0.076158695
000260 55 33 bd bd 18 69 52 3c 36 5d fc bb d7 94 19 3d
       -0.092383064 0.012842439 -0.0077015413 0.03749546
000270 f2 b5 af bd a0 0e 90 3d 07 bf 70 bd 59 fb a8 bd
       -0.08579625 0.070340395 -0.058775928 -0.08251066
000280 b2 bc 05 bd 50 d9 a9 3d d9 88 ad 3d 75 f3 c6 bc
       -0.032650657 0.08293402 0.08473367 -0.024286011
000290 29 da b0 bd 44 2b 33 3d aa 06 6f bd b7 f8 a5 3d
       -0.08635361 0.043742433 -0.058355965 0.08104079
0002a0 a1 d3 c1 3d 79 1d ff bc 5c 8d 6a 3d 37 49 8e 3d
       0.09464193 -0.031141983 0.057263717 0.069475584
0002b0 c0 20 97 3d b5 a6 1b 3d cc 65 bd 3d a9 de d3 bd
       0.073792934 0.03800078 0.09247932 -0.103452034
0002c0 80 33 02 3c 39 25 b2 bb 89 fe fd bc 20 3e c6 3d
       0.007946849 -0.005436566 -0.03100516 0.09679818
0002d0 e5 ae 6d bd 08 ce a9 3d d5 dd 9c bd 0e d8 89 3a
       -0.05802812 0.082912505 -0.076594986 0.001051666
0002e0 47 e0 85 bd 78 75 23 3d 20 13 c9 bd 81 4a 59 ba
       -0.06536918 0.03990695 -0.09818101 -0.0008288995
0002f0 5d 67 b1 3c e2 af b6 bd b4 e7 b1 bd 73 5b 50 bd
       0.021655733 -0.08920266 -0.08686772 -0.050868463
000300 db 96 33 bd cd 11 5d 3c 65 bb c0 3c 48 09 70 3d
       -0.04384504 0.013493014 0.023526857 0.0586026
000310 8c 91 98 3d d3 b9 b8 3d 01 68 ed bc a6 a3 ab bd
       0.07449636 0.09019818 -0.028980257 -0.08380823
000320 f4 0a 57 bd 64 5b 98 3c 9f 82 98 bd 69 60 79 bb
       -0.05250068 0.018598266 -0.07446789 -0.003805185
000330 1d 1b a8 bd 46 3c 85 3d 67 4c ab 3d 71 ad 5c 3d
       -0.082082964 0.06505637 0.08364182 0.053876344
000340 f5 d1 98 bd d3 2b c1 3c 19 51 91 bd a9 e5 bb 3d
       -0.07461921 0.023580467 -0.07095546 0.091746636
000350 88 46 1a 3c ff 51 80 3d 2c 57 6b 3d 76 b0 a8 3d
       0.00941623 0.062656395 0.05745618 0.08236782
000360 50 cc d1 3d 41 6c 34 bc 86 c5 13 3d 64 b8 98 bd
       0.10244048 -0.011012138 0.036077045 -0.07457045
000370 d6 d3 92 3d 11 d6 83 3d 5f af c0 bd b5 0f 53 bd
       0.07169311 0.06437314 -0.094084494 -0.05152865
000380 da 02 9d 3d 20 9c a8 bd 9e 1e 9f bd e2 df 9e 3d
       0.076665595 -0.082329035 -0.07769512 0.07757546
000390 62 1c b6 3d a8 47 7f bd 1c 0f 2a bc 5f 7a ca 3d
       0.08892132 -0.062324196 -0.010379579 0.09886622
0003a0 71 aa a7 3d 06 51 e1 3c fe 81 60 bd a5 55 c3 3d
       0.08186806 0.027504455 -0.05481147 0.0953782
0003b0 df b3 83 3d 65 e0 b6 3d 67 98 87 bd 49 99 a5 bd
       0.06430792 0.089295186 -0.06620865 -0.080858774
0003c0 1e 6c ac 3d 82 da 9e 3c b8 9e 9d 3d 65 79 8e bd
       0.08419059 0.019391302 0.07696289 -0.06956748
0003d0 8c e4 a6 3d 6b 18 c9 3d 4c f1 79 3d c4 2d c4 3d
       0.081490606 0.098191105 0.061021134 0.095790416
0003e0 06 8c a5 bd 9c b3 07 3c fc 01 40 3d 9f 7c 35 bd
       -0.08083348 0.008282568 0.046876892 -0.0443083
0003f0 8c 80 99 bd 87 df 99 3d dd c3 27 bd 80 d7 b0 3d
       -0.074952215 0.075133376 -0.040958274 0.08634853

enc_f.lstm.bias_ih_l0 f4 [384]
000000 d4 01 62 bc de 9f 1f bd eb c6 b2 3d e0 f5 7a 3d
       -0.013794381 -0.03897082 0.08729347 0.06126964
000010 75 c3 86 bc 24 73 b1 bd 19 53 b7 bc 04 4e e8 bb
       -0.016450623 -0.086645395 -0.022378491 -0.0070893783
000020 07 e2 0e 3c 6d 76 3a 3b ca cd 27 bd fb 83 83 bd
       0.008720881 0.0028451935 -0.04096774 -0.06421658
000030 3b a9 d5 bc a2 d3 3a 3d b4 63 67 bd 80 66 56 bd
       -0.026081672 0.045611985 -0.05649157 -0.052343845
000040 a5 56 d5 3c d4 4b 0c 3c c0 56 9b bd 5f 4c ae bc
       0.026042292 0.008563001 -0.075849056 -0.021276651
000050 90 a9 bb bd 18 3a 95 3d 80 c8 80 3d 1a e3 5d 3d
       -0.09163201 0.07286471 0.06288242 0.05417166
000060 73 d0 9c bd 0a 17 b9 bc 30 7f 38 3d 8b 64 b7 bd
       -0.07656946 -0.022593994 0.04504317 -0.08954724
000070 0f 96 ad bd 4a c1 88 bc 25 5d 9f bd fc 85 43 bd
       -0.08475887 -0.01669373 -0.07781438 -0.0477352
000080 aa a2 b6 3d a6 52 05 bd bd b8 09 bd 7c e2 bd bd
       0.089177445 -0.032549523 -0.033623446 -0.09271714
000090 11 db 42 bd 88 4b 6d bd 82 a3 49 bd 41 b9 49 bd
       -0.0475722 -0.05793336 -0.0492282 -0.049248938
0000a0 4c 0a ca bd c7 1e ba bc cb 56 50 3d 2a b3 eb bc
       -0.09865245 -0.022719754 0.050864022 -0.028771956
0000b0 98 ad c3 3c 07 6d c8 bd 05 36 3d bd 3a 87 07 bd
       0.023886487 -0.0978642 -0.046194095 -0.033087946
0000c0 c5 4b 2b 3d 8b 37 bd bc 3a 83 bb 3d 35 4a 3e 3d
       0.041820306 -0.023097774 0.09155889 0.046457488
0000d0 ab 1b 42 bc 9f 50 d0 3d 3b 21 8e 3c d9 cb 2b 3d
       -0.011847417 0.10171627 0.01734983 0.04194245
0000e0 5e dd ce bd 6c 57 9b bd 5d 18 48 bd c4 97 57 3c
       -0.10100816 -0.07585034 -0.04885136 0.013158742
0000f0 47 32 47 bd 43 6a 31 bd 94 c3 2d 39 52 f3 84 bd
       -0.048631933 -0.04331423 0.00016571424 -0.06491722
000100 e1 b4 8a 3d c5 f3 86 3d a4 b2 09 3d 82 49 c2 3c
       0.06772781 0.06589464 0.03361763 0.023716692
000110 c3 53 65 3c 42 f4 b0 bd b0 4a aa bd 6b c0 bf 3d
       0.013997021 -0.086403385 -0.08315027 0.09362873
000120 63 ca 49 bd e7 7a ff 3c a4 bc ca bd 8c ea b2 3d
       -0.049265277 0.031186534 -0.098992616 0.087361425
000130 0d 4d a3 bd 04 78 11 bd f0 5a a8 3c a1 60 e6 bc
       -0.07973681 -0.035514846 0.020551175 -0.028122248
000140 2c 9c 48 3d f2 a8 90 3c 24 a9 28 bd 19 cb 85 3a
       0.048977062 0.017658684 -0.04117693 0.0010207623
000150 9f e8 a1 bd d9 35 af bd 01 cd 04 3b 84 13 db 3c
       -0.07905697 -0.085551925 0.0020263793 0.026742704
000160 3a 9c 2f bd 7a 06 d7 3d de 73 7d 3d f4 38 4b 3d
       -0.0428736 0.10499282 0.061878078 0.04961486
000170 f7 cf 5b bd bd 1e a2 3d 94 3d a0 bc 04 f3 26 bc
       -0.053665128 0.07916019 -0.019560613 -0.010189775
000180 65 fb 98 bd 6c c0 b4 3d 61 b0 61 3d 14 e5 2f 3d
       -0.07469825 0.08825764 0.05509985 0.042943075
000190 40 ad 2a ba 06 e7 70 3d cf d1 91 3d b1 08 1b bd
       -0.00065108016 0.05881407 0.07120096 -0.037850086
0001a0 c9 7a 1f 3c 22 6f bb 3d fb 91 1b bd b9 ce d0 bd
       0.009733864 0.09152056 -0.037981015 -0.10195679
0001b0 b0 d0 4d bd 60 57 81 bd 5e 40 90 3c e4 b3 0a bd
       -0.050247848 -0.063154936 0.017608818 -0.033862963
0001c0 53 f7 ce bc 53 5d 7d bc 77 85 8c 3d ee a6 24 bd
       -0.025264418 -0.015464145 0.06861394 -0.04019826
0001d0 42 eb 92 bd a2 7e 8e bd 20 fe a7 bd 63 31 ba 3d
       -0.07173778 -0.06957747 -0.08202767 0.09091451
0001e0 a3 07 b5 bd 4c 90 97 bd ab 87 fc 3c ad 50 5a 3b
       -0.08839347 -0.07400569 0.03082641 0.0033312247
0001f0 e3 c7 c3 3d 9f d3 e3 3c f8 a9 1e bd 43 7c 82 bd
       0.0955961 0.02781087 -0.038736314 -0.06371357
000200 52 23 7c 3d 5c ca 91 3d e5 49 f8 bc 07 5d c8 3d
       0.06155712 0.07118675 -0.030308673 0.097833686
000210 dd 7c f0 3c 74 95 38 3d 33 bb 64 3d 77 d8 18 bd
       0.029356414 0.045064405 0.05584259 -0.037315812
000220 9e 79 2d bd 65 36 00 bd d8 6e d3 bd 51 3e a5 bd
       -0.04235231 -0.031301875 -0.10323876 -0.080685265
000230 a1 2a cc 3c cb 75 54 3d c1 89 28 bd 61 e3 c7 3c
       0.02492267 0.05187015 -0.041146997 0.024400415
000240 93 4d 67 bc 4b cf a0 bd 41 52 bc bb 53 03 76 bd
       -0.014117616 -0.07852038 -0.00574711 -0.060061764
000250 27 79 a7 bd 0d ef a7 3d 39 f8 a1 3d db a3 90 3d
       -0.08177405 0.08199892 0.07908673 0.07062503
000260 e4 93 58 bd 23 49 28 b9 80 24 bc 3c e6 7c 2c 3b
       -0.052875414 -0.00016048974 0.022966623 0.0026319562
000270 b5 61 71 bd fd aa 41 3d 50 4c 55 3d d3 20 8c 3d
       -0.05893107 0.047282208 0.05207473 0.06842198
000280 96 b4 1c bd 53 5f a8 3d 98 f8 8f bd a3 f2 d0 bd
       -0.038258158 0.08221307 -0.07029837 -0.10202529
000290 a5 be b7 3c cd e9 24 3d e3 66 bf 3d 5e 69 bd 3b
       0.022429774 0.040262032 0.09345796 0.005780383
0002a0 97 ee 37 bd 23 28 78 3c da c1 3f bd c8 f9 bf bd
       -0.04490527 0.015146288 -0.04681573 -0.09373814
0002b0 2c 71 5a 3d 87 4b 8b 3d ed 62 a5 3d a1 5d 15 bd
       0.053330585 0.06801515 0.08075509 -0.036466245
0002c0 b8 d4 98 3d 99 71 90 bd 27 c9 8f bd 70 10 85 3d
       0.07462448 -0.07052917 -0.07020789 0.06497276
0002d0 d0 15 c8 bc d9 57 6f 3d b2 94 95 3c 04 c3 75 3c
       -0.024424464 0.058433387 0.01825938 0.015000109
0002e0 2e 1b 0c 3d a8 fb c4 bd ad f2 84 bd 55 1d 41 3d
       0.034205608 -0.09618312 -0.06491599 0.047147114
0002f0 fc 42 6a bd ce 3a fd 3c c5 0d a7 3c 3e 1c be 3c
       -0.057192788 0.03091183 0.020392308 0.023206826
000300 fc 95 32 3d 67 51 4a bd ca 96 1f 3d 8a bf 85 3d
       0.043600067 -0.049394038 0.038962163 0.06530674
000310 0b 95 80 3d 35 96 cd 3d e9 69 67 bd 9b 88 83 bd
       0.06278428 0.10038415 -0.05649749 -0.0642254
000320 47 5f 48 bd 82 8f 92 bd b4 6b 2c bd 7e 2a 1e bc
       -0.04891899 -0.07156278 -0.0420949 -0.009653686
000330 91 44 66 bd 2f a8 c5 3d 9c d0 b7 bd 8a 83 66 bd
       -0.056217734 0.09651219 -0.08975336 -0.05627779
000340 37 2b 95 3d a5 cb 47 39 5b ee 9a bc a4 3f 99 3d
       0.07283633 0.00019053982 -0.018912485 0.074828416
000350 7f 8e 59 3d 05 54 c3 bd 0b 1f 40 3d 93 53 1d bd
       0.05311441 -0.0953751 0.046904605 -0.03840978
000360 48 2b 4c 3d d5 49 e8 bc 44 f0 72 bd 29 4c a7 bd
       0.049845964 -0.028355518 -0.059311166 -0.08168823
000370 fa a1 55 3d e0 a1 4a 3d a5 7f e8 ba 90 1e 24 bd
       0.052156426 0.049470782 -0.0017738236 -0.04006821
000380 c8 e3 6f 3d a6 6a b9 3d 13 d4 66 3d a3 3d 05 3d
       0.05856684 0.09053545 0.056354593 0.032529484
000390 33 5b a0 3d e6 27 51 3c d7 74 c9 bd dc 59 9b bc
       0.07829895 0.01276586 -0.098367386 -0.018963747
0003a0 5a 11 2c bd ba 28 d7 3b 1d 36 47 3d e7 fa 60 3d
       -0.042008735 0.0065661343 0.04863559 0.05492678
0003b0 04 3a bb 3c ac 04 8d bd 87 4b b1 3d 68 bb aa bd
       0.022854812 -0.06885657 0.08656984 -0.08336526
0003c0 65 5d 83 3d 48 f4 c0 3c de 43 ba 3b 00 98 37 bd
       0.06414298 0.023553982 0.00568436 -0.044822693
0003d0 cb e5 48 3d 39 98 74 3d 53 76 fb bc 58 b0 b8 3d
       0.049047273 0.059715483 -0.03069607 0.0901801
0003e0 65 2a d2 bd b5 b9 23 bd 9d 42 04 3c e7 13 8c bc
       -0.10261992 -0.039972026 0.0080725225 -0.017099334
0003f0 29 7d 88 3d 8a 15 7a bd e5 cd 7f 3d 8a 00 8d bd
       0.066644974 -0.061055698 0.062452216 -0.068848684
